weight/IMDB-BINARY/Client_0.pth (torch, 260953 bytes, 24 tensors)

bns.0.running_mean f4 [64]
000000 a8 41 0c 41 0f 47 3a c1 fa 9e 90 c0 3e 1d 1b 41
       8.766029 -11.642348 -4.5194063 9.694639
000010 82 e8 fc 40 40 d2 e6 c0 5c fa df 40 21 b0 b5 c0
       7.9033823 -7.2131653 6.9993114 -5.67775
000020 07 30 2c c1 4a 06 22 40 cf a9 a2 c0 35 df 46 c0
       -10.761725 2.5316339 -5.0832286 -3.1073735
000030 62 76 83 40 f7 e1 33 41 37 9c 92 40 a3 14 2d 3f
       4.108201 11.242667 4.581569 0.67609614
000040 ec f4 b7 c0 56 2d 77 be ce 19 9d 3e db d0 a9 3f
       -5.7486477 -0.24138388 0.3068375 1.3266863
000050 fb a9 cc c0 86 85 1f 41 13 bc ae c0 50 b0 f4 3f
       -6.3957496 9.9700985 -5.4604583 1.9116306
000060 84 c5 27 41 8d ad 48 c1 ac d4 7f c0 48 77 32 3f
       10.485722 -12.542371 -3.9973555 0.6971326
000070 31 c0 af c0 be 0e 75 40 e1 7e ff c0 d8 50 9a 40
       -5.492211 3.8290248 -7.984238 4.8223686
000080 98 fb 3e c1 47 2e 9c 3f 58 eb 03 41 c7 5b de 40
       -11.936424 1.2201623 8.244957 6.9487033
000090 42 45 b9 40 c6 ce 0c 41 33 df b2 bf 6d a3 46 3e
       5.7897043 8.800482 -1.3974365 0.1939828
0000a0 85 e3 c9 c0 19 71 45 c1 f7 d1 1d c0 70 e8 0d 3c
       -6.3090234 -12.340112 -2.4659402 0.008661374
0000b0 65 4a a5 40 31 5f 1b 40 4a 26 8d 40 1f d1 ed be
       5.1653314 2.427685 4.410924 -0.4644861
0000c0 28 a2 10 c1 80 18 0d c1 78 5e de c0 4f 7b 8d c0
       -9.039589 -8.818481 -6.949032 -4.4213023
0000d0 02 52 bd 40 2c cc cc c0 e8 79 b3 3e e3 63 0b 41
       5.9162607 -6.3999233 0.35053945 8.711886
0000e0 8d 2e 65 bf 63 19 0c c1 2b 9c e3 c0 68 1f 56 c0
       -0.89524156 -8.756198 -7.1128135 -3.345667
0000f0 2a 62 2f 3f cb 91 44 41 7d cf c6 c0 19 bc e2 40
       0.6850916 12.285594 -6.212828 7.085461

bns.0.running_var f4 [64]
000000 1c cd d3 3f 34 da 45 40 86 1c 78 3f 99 b7 91 3f
       1.654697 3.091443 0.96918523 1.1384155
000010 1f 86 c8 3f 0a 37 69 3f c8 15 c9 3f 18 9b 97 3f
       1.566593 0.9109961 1.5709772 1.1844206
000020 3e da 35 40 83 b5 be 3e 03 d6 5a 3f 06 f8 6f 3e
       2.8414454 0.37247857 0.85482806 0.23434457
000030 54 43 56 3f 33 54 10 40 02 3b b8 3e 6c 1b a7 3e
       0.83696485 2.255139 0.3598252 0.3263811
000040 ae 23 8d 3f 7c 9d de 3d 90 75 ae 3d c9 ad 1b 3d
       1.1026514 0.108698815 0.08518517 0.03800753
000050 e4 1d 24 3f a7 4d e2 3f 87 8b 3d 3f 24 11 18 3f
       0.6410811 1.7679948 0.74041027 0.59401155
000060 9c e4 1e 40 be 4f 7d 40 13 75 a3 3e 65 09 ab 3c
       2.4827032 3.957992 0.31925258 0.020878503
000070 1e b7 27 3f 94 3a ec 3e 47 9e f4 3f 3a ab d3 3e
       0.6551379 0.46138442 1.9110802 0.41341573
000080 f7 02 68 40 c6 e4 78 3d 77 2c b0 3f 2c 68 c5 3f
       3.625181 0.06076505 1.376357 1.5422416
000090 17 96 53 3f 8d 0e 09 40 7e 75 6f 3e bd 2b 29 3e
       0.82650894 2.141513 0.23384663 0.16520591
0000a0 e3 19 21 3f 94 a7 37 40 2b bf a6 3e 82 f9 03 3e
       0.62930125 2.8696032 0.32567725 0.12888148
0000b0 7d 06 5f 3f b1 f3 72 3e 32 8c 70 3e 96 24 53 3d
       0.87119275 0.23725773 0.2349098 0.051548563
0000c0 bb 0c 30 40 40 59 2a 40 33 d4 6b 3f d7 e3 34 3e
       2.750777 2.6616974 0.92120665 0.17665039
0000d0 96 3a 13 3f 77 eb 41 3f cf f7 79 3d 94 18 fc 3f
       0.5751127 0.75749916 0.061027344 1.9695001
0000e0 10 f8 da 3e b2 33 02 40 6f a7 d2 3f 22 66 11 3f
       0.42767382 2.0344052 1.6457347 0.5679647
0000f0 b0 ae 7b 3c 22 5e 37 40 84 39 58 3f 99 90 ad 3f
       0.015361473 2.8651204 0.8446276 1.3559753

bns.1.running_mean f4 [64]
000000 38 16 0b 42 4e 38 66 c1 18 45 07 42 1c 85 61 c1
       34.771698 -14.388746 33.817474 -14.094997
000010 77 34 61 c1 8c d9 fa c0 7c ec f1 c1 1c 5e 84 41
       -14.075309 -7.839056 -30.24047 16.545952
000020 b0 84 d1 c0 96 a8 9e c1 68 21 b0 c1 56 90 92 c1
       -6.547447 -19.832317 -22.016312 -18.320477
000030 96 c3 13 41 61 07 67 40 8b 9f 14 c1 3c 62 1c 41
       9.23525 3.6098254 -9.288951 9.773983
000040 cd 01 9b 40 07 cc 1d c2 d2 5e df c0 96 8e 23 c1
       4.84397 -39.449245 -6.9803247 -10.222311
000050 47 e9 f5 c0 8f 92 6c be 1d 37 eb 41 9b 8d ac 41
       -7.684726 -0.23102783 29.40191 21.569143
000060 cf 4c 22 c1 f1 18 0c 41 5b 18 10 c1 6e 10 94 40
       -10.143752 8.756089 -9.005946 4.6270056
000070 23 ee 1e 41 8a f7 9e c1 77 f7 0b c2 9f 20 9a 41
       9.933139 -19.870869 -34.991665 19.265928
000080 77 0c ad 41 45 1e c8 c1 ac 93 9a 3f ac dd 94 bd
       21.631086 -25.01478 1.2076316 -0.07268843
000090 2f 35 95 c0 a0 b8 94 3f c7 1c 3b c1 4f c5 af 41
       -4.662742 1.1618843 -11.694526 21.971342
0000a0 d7 e0 da c1 80 78 a9 c1 6f 95 f4 3f 53 55 c9 c0
       -27.359785 -21.183838 1.9108104 -6.2916656
0000b0 d4 72 86 41 4f ed 14 c0 13 30 25 c1 64 57 44 c1
       16.806068 -2.3269842 -10.324237 -12.271336
0000c0 1e 98 68 c1 7f 9e 59 41 68 4f 4a c1 d2 7f 3b c1
       -14.537138 13.601195 -12.644386 -11.718706
0000d0 8c 9e 87 bf 5f 1c 86 c0 3f 83 ce c0 2e 17 0e 42
       -1.059526 -4.1909633 -6.4535213 35.522636
0000e0 d0 04 c8 c0 45 2e 0c 41 71 ab 1c c2 36 15 0e 41
       -6.2505875 8.761296 -39.167423 8.880178
0000f0 94 52 e8 c1 39 65 78 41 7b 25 49 c0 97 16 f8 c1
       -29.040321 15.524713 -3.1429126 -31.01103

bns.1.running_var f4 [64]
000000 be 22 16 44 1d b5 5b 42 21 91 52 43 3a ac 17 42
       600.54285 54.92687 210.56691 37.91819
000010 98 f5 02 43 50 68 b4 43 51 44 e7 42 de db 88 43
       130.95935 360.81494 115.63343 273.7177
000020 a4 f1 03 43 91 2b e8 42 97 5a 84 42 8d 61 22 43
       131.94391 116.08509 66.17693 162.38106
000030 f6 bc 2f 42 d1 de ee 41 03 12 00 43 a3 7b 19 43
       43.934532 29.858797 128.07036 153.48296
000040 f8 e7 72 40 a8 be 02 43 4e 71 25 41 3c e3 42 42
       3.7954082 130.74475 10.340162 48.72191
000050 6d 31 53 42 a4 65 08 43 e1 d8 92 42 98 9c 06 43
       52.798267 136.39703 73.42359 134.6117
000060 bc 05 2d 42 18 42 1a 42 e8 22 9c 41 f2 22 ee 41
       43.2556 38.564545 19.517044 29.767063
000070 4d 4f 0b 41 28 32 20 43 62 f6 af 43 98 0c 84 43
       8.706861 160.19592 351.92487 264.0984
000080 28 b8 62 43 c8 28 7a 43 63 4a e7 41 a6 71 6d 41
       226.71936 250.1593 28.911322 14.840246
000090 e4 f7 99 43 fa 89 58 42 48 39 11 43 72 6b 9f 43
       307.93665 54.134743 145.22375 318.83942
0000a0 a2 42 62 43 f4 60 e0 43 50 d9 1c 41 1d ed ab 42
       226.26028 448.75745 9.803055 85.96311
0000b0 58 91 cd 42 d9 cf 4a 41 de 53 c4 42 8f 45 3f 43
       102.783875 12.675744 98.1638 191.27171
0000c0 d9 46 c3 41 be c1 b0 41 48 82 0b 42 c4 8d 15 43
       24.409594 22.0946 34.877228 149.55377
0000d0 5f 1e 8c 42 45 54 b6 42 73 56 5b 43 c5 ff 2c 44
       70.05932 91.16459 219.33769 691.9964
0000e0 fe 81 73 43 df 5e f4 41 49 c4 31 44 88 30 88 41
       243.50778 30.546324 711.06696 17.023697
0000f0 34 b5 40 42 62 2c 7a 43 56 30 93 43 cf f6 2c 44
       48.176956 250.17337 294.37762 691.8564

bns.2.running_mean f4 [64]
000000 a4 d8 36 41 02 a3 98 41 9f f3 0e c2 6a 5e 32 c1
       11.427891 19.079594 -35.73791 -11.14805
000010 e8 64 a7 c0 fb 16 c2 41 66 23 e7 c1 be f5 0d 42
       -5.2310677 24.26122 -28.892284 35.489983
000020 84 14 e3 c0 18 1c c8 41 60 64 6e 3f 5f d7 10 40
       -7.0962543 25.013718 0.9312191 2.2631452
000030 3f f4 a7 41 76 53 78 41 1c 51 b7 c1 f7 6c ef c1
       20.99426 15.520376 -22.914604 -29.928205
000040 26 c8 92 40 32 48 a6 c1 88 09 e3 3e 63 78 d0 c0
       4.586932 -20.785252 0.4434321 -6.5146956
000050 7f 83 44 41 53 69 07 c0 97 2b 7f 41 b0 b3 8b c1
       12.282104 -2.1158035 15.948142 -17.462738
000060 d7 9a ad c0 e0 f4 43 41 78 bf 34 41 83 57 95 41
       -5.4251513 12.247284 11.296745 18.66773
000070 c9 9a 60 c0 19 29 67 c1 1e 27 c2 41 5a 5a b9 41
       -3.5094473 -14.447534 24.2691 23.169117
000080 94 29 18 41 d9 6c 89 c0 c3 bd 03 41 c2 65 36 41
       9.510151 -4.294537 8.233829 11.399843
000090 b4 ab 8c 40 5b dd 2b 41 1c ce 6b c1 86 eb 72 c1
       4.39596 10.741542 -14.73782 -15.182501
0000a0 1f b5 cf c1 f8 83 f9 bf b7 17 eb c1 8f 8a 75 c1
       -25.963438 -1.9493399 -29.38658 -15.346328
0000b0 a0 1c c3 c0 56 25 96 41 a4 d5 8d c0 f5 0c f5 c1
       -6.0972443 18.76823 -4.432329 -30.631327
0000c0 f2 e0 14 3f 46 65 56 41 24 25 5a bf 1c cc 1f 41
       0.5815574 13.399725 -0.8521292 9.987331
0000d0 44 00 67 40 4c 19 8b c1 d4 d9 c3 40 fe e7 24 41
       3.6093912 -17.387352 6.1203403 10.306639
0000e0 1a 34 0a c1 cc e0 5a c0 5b 08 b0 3c 76 bc bd 41
       -8.63772 -3.4199705 0.02148836 23.717022
0000f0 03 48 97 40 a4 71 12 c1 29 5f 24 be 1f 10 93 c1
       4.7275405 -9.152744 -0.16051926 -18.382872

bns.2.running_var f4 [64]
000000 5d ae 9a 41 cb 21 56 43 69 4b fd 43 76 d5 61 42
       19.335138 214.132 506.58914 56.458458
000010 25 09 81 41 ae 9f bb 43 8d cb db 43 cc 56 b2 42
       16.129465 375.2475 439.59024 89.169525
000020 9f 63 da 41 9a ff ad 43 f1 7d 2c 43 f0 1b 1b 41
       27.298643 347.9969 172.49196 9.694321
000030 ac 01 91 42 0b 9e dd 41 88 24 f0 43 8f d4 d1 43
       72.503265 27.70217 480.2854 419.6606
000040 b0 66 0c 44 00 23 8b 42 e0 53 98 41 3c 0c dd 43
       561.6045 69.56836 19.040955 442.09558
000050 95 ae 6e 42 f7 2e f5 42 09 0c be 42 11 a9 f2 42
       59.67049 122.59173 95.023506 121.33021
000060 10 0e cc 42 4e ed 36 43 29 b2 4d 42 0b ce 0a 42
       102.027466 182.92697 51.423985 34.701214
000070 fe 2a 6f 42 82 66 f7 42 09 55 64 42 7a 96 9f 43
       59.791985 123.70021 57.083042 319.1756
000080 3a 67 da 42 1f 23 1f 43 0b 46 97 43 11 b9 56 42
       109.201614 159.13719 302.5472 53.68073
000090 c3 9d 14 43 0e 23 a1 41 4e b0 9a 42 70 71 fc 41
       148.61626 20.142117 77.344345 31.55539
0000a0 85 dc a7 43 33 87 91 43 50 d4 8e 43 7c 31 98 43
       335.7228 291.05624 285.6587 304.3866
0000b0 26 c2 49 42 73 da 04 44 1d 5a ed 42 42 da 7c 42
       50.439598 531.41327 118.676 63.213142
0000c0 79 28 6c 42 a0 c6 93 42 a8 d5 23 44 01 06 81 42
       59.039524 73.88794 655.3384 64.51173
0000d0 ba 38 4d 42 61 0c 1a 42 ab 6f 62 42 be 87 88 41
       51.305397 38.51209 56.60905 17.06628
0000e0 83 40 81 43 eb 9a ec 42 52 d0 d8 43 63 b5 70 43
       258.504 118.302574 433.6275 240.70854
0000f0 5c 28 0d 42 f4 36 10 42 f6 22 85 42 06 4b 02 42
       35.289413 36.053665 66.56828 32.573265

nns.0.0.weight f4 [64, 136]
000000 4b f4 b8 aa ad bb 23 30 97 8a d4 2a d7 90 bf 3d
       -3.2854478e-13 5.956576e-10 3.775493e-13 0.09353798
000010 7f 50 77 bd b7 3a f7 bc ad de c2 3d 99 f5 12 3e
       -0.0603795 -0.030179365 0.09515128 0.143515
000020 84 4a 0b bd a9 e1 05 3e 21 b6 d4 3d 1f af eb bc
       -0.03400661 0.13074364 0.10386301 -0.028770028
000030 96 18 bc bd 05 d9 d2 3d d3 a5 3b 3d f0 91 9d 3c
       -0.09184377 0.102952994 0.04581244 0.019234627
000040 da cc 1d 3d df cc 9d bd 6e 3a a4 3d 23 d2 e1 3d
       0.03852544 -0.07705092 0.08018957 0.110264085
000050 0b 9f 04 bd 93 ad 33 3e bc 08 c1 3c ef 9a 16 3d
       -0.032378238 0.17546682 0.023563735 0.03676885
000060 e7 49 15 38 67 30 09 bd 68 92 3b 2d fa 1a 08 3d
       3.5593195e-05 -0.033493426 1.0662228e-11 0.03322885
000070 f0 eb fe 2b 46 0a e6 3b 7f 80 c8 3d ab 74 1b be
       1.8113271e-12 0.0070202677 0.09790134 -0.15181224
000080 a6 7e 56 3d 64 6f f3 2b 8c a7 6f ba da 93 5c 2b
       0.052366875 1.7297106e-12 -0.0009142093 7.8364886e-13
000090 f8 6a 85 2e 94 3c 46 ab e5 25 a1 38 44 a9 31 3b
       6.067141e-11 -7.04278e-13 7.684137e-05 0.0027108947
0000a0 38 bf d6 28 e5 da 04 30 01 9e 5d 2d 8c 5c 89 37
       2.38417e-14 4.833239e-10 1.25974795e-11 1.6374768e-05
0000b0 41 b4 af 2d 42 e6 95 bd 21 b0 1b 39 2e ba ab 30
       1.9975245e-11 -0.07319309 0.00014847565 1.2494803e-09
0000c0 09 b9 0b 2b 04 e5 e8 2a 76 f1 84 38 76 a3 ab b5
       4.963951e-13 4.137039e-13 6.339226e-05 -1.2788066e-06
0000d0 79 13 82 b1 1a ca d2 b3 d7 c2 49 39 36 1c 2f ab
       -3.7857117e-09 -9.815649e-08 0.00019241437 -6.221164e-13
0000e0 7b 6c 7a 29 32 47 d9 aa 0a b9 ad 33 c2 4d d8 ab
       5.5605243e-14 -3.8596345e-13 8.089599e-08 -1.5369305e-12
0000f0 8e ed 3c 2d 57 25 8d 38 9a e7 6c 3b 9a c7 16 36
       1.07393105e-11 6.730359e-05 0.0036148787 2.2467925e-06
000100 eb b1 5c b0 e3 59 86 b4 3e 1c 18 2b c6 03 e8 b1
       -8.028837e-10 -2.5024846e-07 5.404044e-13 -6.7525177e-09
000110 d7 9a 08 ac c7 a6 e8 28 ad b2 d7 b6 77 d9 3a 3d
       -1.9412716e-12 2.5829502e-14 -6.4283e-06 0.045617547
000120 8f a0 2e 35 1a 4f 90 38 30 55 9e 39 86 f5 26 2b
       6.5053695e-07 6.881189e-05 0.00030199578 5.931578e-13
000130 41 df 8f 31 5c b2 2f ab e5 e2 38 2d 0d f1 20 2b
       4.187229e-09 -6.2420013e-13 1.050957e-11 5.7177944e-13
000140 9a 14 e6 38 65 c3 0a af 13 48 03 2b c8 a8 9b b8
       0.00010971092 -1.2620445e-10 4.664057e-13 -7.422414e-05
000150 7c 33 9a 29 15 fd 48 af 35 77 10 ac 46 7b 13 b6
       6.847905e-14 -1.8279807e-10 -2.0529804e-12 -2.1976462e-06
000160 4b 06 c5 2a 62 9c f2 ab 23 0a c5 ab da 55 75 2e
       3.4998596e-13 -1.7238539e-12 -1.4000505e-12 5.5782802e-11
000170 e0 24 59 2f 4e a6 a1 b2 6c 89 67 2f eb b6 9d 35
       1.9749136e-10 -1.8818493e-08 2.105815e-10 1.1750648e-06
000180 91 82 6e b0 58 ae fd ab d9 ef 82 b8 d0 06 1a 34
       -8.676944e-10 -1.8025121e-12 -6.243558e-05 1.4344846e-07
000190 30 9a 1e aa a8 2f 2f 37 b3 80 58 2e 83 d1 6b 36
       -1.4086714e-13 1.0441909e-05 4.9227022e-11 3.513968e-06
0001a0 5c 2c e5 29 c9 08 38 b9 62 bd 81 2c 75 2a a6 38
       1.0177338e-13 -0.0001755088 3.6874262e-12 7.923405e-05
0001b0 e4 7c 94 b8 da 16 aa 2c 3c 80 37 ab 30 94 3d af
       -7.0804526e-05 4.8342276e-12 -6.519262e-13 -1.7242097e-10
0001c0 0c 33 33 b8 b9 87 0a ab c8 19 83 31 fd c2 b0 2b
       -4.2724467e-05 -4.92158e-13 3.815533e-09 1.2559672e-12
0001d0 da 7d a5 33 2a a8 3a ae 62 a0 81 b2 2b 86 d8 ab
       7.7063035e-08 -4.2440863e-11 -1.509051e-08 -1.5384962e-12
0001e0 00 4b 1a ac 55 2b 00 b3 03 ef f8 ad e2 53 89 b8
       -2.192635e-12 -2.9841733e-08 -2.8300478e-11 -6.5482935e-05
0001f0 c7 4e 92 b6 8b 23 c8 39 d2 e9 b6 28 08 6e 95 b9
       -4.36031e-06 0.00038173454 2.0307462e-14 -0.00028501474
000200 18 d3 8f 39 de 8c f8 b5 5c 22 60 37 48 76 11 aa
       0.00027432363 -1.8518438e-06 1.335944e-05 -1.2919624e-13
000210 b5 9f 2a 34 33 57 00 2c 74 9c e1 a9 d1 6f 24 b2
       1.5890585e-07 1.82383e-12 -1.00191475e-13 -9.5714805e-09
000220 da f9 00 33 e8 9e 0e 29 59 ac dc b7 dd d5 d5 bc
       3.002956e-08 3.1668163e-14 -2.63063e-05 -0.026102955
000230 c2 fe 6b bd ee 59 1c be d3 b0 53 bd 98 a1 23 be
       -0.057616003 -0.1526868 -0.051682305 -0.15979612
000240 28 06 3f bd 3c f9 0b 3e 13 e5 30 3e cf be 16 3e
       -0.04663673 0.13669294 0.17274885 0.14721225
000250 81 4f de bd 14 e1 28 3e 75 b7 8b bd 05 0c 80 3c
       -0.10855008 0.1649211 -0.06822101 0.015630731
000260 30 2c 94 3b c9 dd c6 3d e7 62 56 3c 7c 03 f5 3d
       0.004521869 0.09710271 0.013085104 0.11963555
000270 89 de 6f bd c1 e0 34 bc 62 43 09 3c 47 41 ed bb
       -0.058561835 -0.011039914 0.008377882 -0.0072404477
000280 db 51 63 aa b6 ee c7 bc 87 45 6e 2c 1e 41 7e 38
       -2.019005e-13 -0.024405818 3.386043e-12 6.0618964e-05
000290 bf 0c 93 2d 23 4e 20 3b 7f 1f 17 37 3e 72 14 be
       1.6717626e-11 0.0024460636 9.007635e-06 -0.14496705
0002a0 2d a7 7c b9 d2 48 b0 b9 d6 40 13 3a e0 3e bb 2a
       -0.0002409487 -0.0003362359 0.0005617266 3.32615e-13
0002b0 7e 5b 67 39 4b 81 9b b7 50 9f f9 29 06 29 49 b9
       0.0002206396 -1.8537647e-05 1.10854576e-13 -0.00019184136
0002c0 65 37 9c aa 55 7a 2e ac 0d 48 98 a8 b8 ed 4d ab
       -2.7749604e-13 -2.4794795e-12 -1.6906637e-14 -7.316053e-13
0002d0 74 cf f1 ab 7e b6 3e bd 5a 5f d0 ab 67 e7 90 28
       -1.718166e-12 -0.046560757 -1.4805754e-12 1.6087566e-14
0002e0 b6 18 1d b0 24 61 b3 31 c2 66 9e ab 5f 55 86 a8
       -5.7151384e-10 5.2206293e-09 -1.1255096e-12 -1.4914012e-14
0002f0 23 8e 8f b0 e0 e7 35 2a ff 97 9f aa 74 cf f1 ab
       -1.0445017e-09 1.6156477e-13 -2.8349542e-13 -1.718166e-12
000300 61 be 29 b9 46 f4 25 ad c8 11 f8 27 51 1d 01 b9
       -0.00016188018 -9.433404e-12 6.8853106e-15 -0.0001231332
000310 0f 47 06 ab 4d 93 ad ad 66 da 03 bc 84 a5 aa b3
       -4.7704977e-13 -1.9733238e-11 -0.008047676 -7.946349e-08
000320 72 2c 56 31 9f e9 7f 35 a3 d2 2b aa 0b ca e8 b8
       3.1166363e-09 9.5334866e-07 -1.526093e-13 -0.000111002555
000330 d3 f8 d3 b5 8a 22 71 b4 78 85 0b ad 66 ab 7a b9
       -1.5793142e-06 -2.2457439e-07 -7.930871e-12 -0.00023905709
000340 30 73 c9 ae 6c 81 80 b6 aa c3 0a 32 73 25 b4 2c
       -9.160883e-11 -3.829764e-06 8.077146e-09 5.1200654e-12
000350 26 6e 2e b9 c3 15 59 b6 7d 81 7b b2 2b f7 b4 39
       -0.00016634967 -3.2348187e-06 -1.4639565e-08 0.0003451643
000360 79 e7 70 b9 46 3c 9d 35 1b 63 a3 39 44 b6 05 ab
       -0.00022974414 1.1714953e-06 0.00031163622 -4.7504036e-13
000370 e2 4d 2d 2c 3c 59 ec b1 2f b4 4c b6 86 dc 93 38
       2.4628012e-12 -6.8786488e-09 -3.050325e-06 7.050582e-05
000380 36 4d 79 2b 23 71 11 2f 63 1f 77 b0 c5 2e 3b 2d
       8.856972e-13 1.3227867e-10 -8.990268e-10 1.0640104e-11
000390 f0 4e 50 ab e5 f7 a8 b4 80 cd 81 37 c0 b2 2c aa
       -7.400599e-13 -3.1472806e-07 1.5473692e-05 -1.5338685e-13
0003a0 70 34 0c 32 a4 c2 ef a9 1d a7 59 30 12 d7 a3 b8
       8.160995e-09 -1.0647497e-13 7.918162e-10 -7.812506e-05
0003b0 5a 51 a6 aa fe 0c f9 aa 2e 40 7c 2b 9f 9e 82 30
       -2.9543973e-13 -4.42403e-13 8.961745e-13 9.503828e-10
0003c0 9b 4a 96 2c df a8 97 29 54 93 71 39 86 56 dc b4
       4.2715393e-12 6.7350415e-14 0.00023038435 -4.1041147e-07
0003d0 78 4a 43 b9 03 3c 8d b8 b0 e6 9a ab de a8 d0 2a
       -0.00018624391 -6.734582e-05 -1.1006387e-12 3.7065397e-13
0003e0 3a 23 db 2a 85 30 37 b6 2a 2c c0 2c 8d b4 18 2b
       3.8926658e-13 -2.7297367e-06 5.4618714e-12 5.425181e-13
0003f0 f6 b1 45 ab 62 ce 66 b5 a6 dc 7e 2b 38 a6 fe 38
       -7.023543e-13 -8.5982003e-07 9.054514e-13 0.000121426245

nns.0.0.bias f4 [64]
000000 85 91 9a bd d4 81 a5 3d cf 1c 3d 3d 6d ee 60 3c
       -0.07547287 0.080814034 0.046170052 0.01372872
000010 57 0b 3a b7 b2 e3 36 3d c3 63 a7 3a 6a e6 3b bb
       -1.1089104e-05 0.04465074 0.001277082 -0.0028671273
000020 df b5 2c b2 2f 40 50 b6 13 5c 7a bb 35 0e e9 bb
       -1.005307e-08 -3.1031775e-06 -0.0038201853 -0.0071122893
000030 51 4d 82 bd 28 bd 1a b2 f6 1c 25 3d bc 1d e0 3b
       -0.06362403 -9.006989e-09 0.040310822 0.006839482
000040 2f 3a 13 bc 23 69 9f 3c 61 39 78 bc b0 02 df 3c
       -0.00898604 0.019459313 -0.015150399 0.027222961
000050 78 54 2d 3c 5b 37 48 39 3e ff 9a 3b 2d 86 06 3d
       0.010579221 0.00019094108 0.0047301343 0.032842804
000060 21 e5 73 3c bd fe 74 3c 61 77 3b 39 5a c7 7d 3c
       0.014886172 0.014953312 0.00017878182 0.015489424
000070 a8 67 4a 3d d6 b3 1b bb ab 03 31 bd 9e 00 09 3c
       0.04941526 -0.0023758314 -0.04321639 0.008361964
000080 59 d3 3d 36 10 c2 b5 bc 66 be 86 3c cb c6 04 3d
       2.8286215e-06 -0.022187263 0.01644821 0.032416146
000090 5a c9 17 3c da f6 5f 3d fe cd b8 3c b4 7f 90 bd
       0.009264315 0.054678775 0.022559162 -0.070556074
0000a0 c2 3d 49 36 66 61 75 b9 8d 31 4f b7 27 f5 76 3b
       2.9987282e-06 -0.00023401304 -1.2349698e-05 0.0037682743
0000b0 3a 82 95 bd fb 4a ee bc a6 87 95 3d c1 4f 88 3d
       -0.07300229 -0.029088488 0.073012635 0.06655837
0000c0 d1 6b 66 b9 df 60 c6 34 89 0c 70 b9 2b d5 a6 3c
       -0.00021974674 3.6950857e-07 -0.00022892853 0.020365318
0000d0 af f1 5e bd 29 12 63 3b 0d c4 08 3d d3 95 54 37
       -0.054429706 0.0034648275 0.033390094 1.2671068e-05
0000e0 7b 89 c8 bc b6 ee 50 3b fb 14 90 3d 53 7e 30 bb
       -0.024479618 0.0031880564 0.07035252 -0.0026930764
0000f0 e1 90 09 b3 2f b1 17 bb 21 5f 67 bb 0c 1f 34 bb
       -3.2029565e-08 -0.002314638 -0.0035304504 -0.0027484326

nns.0.2.weight f4 [64, 64]
000000 53 32 e6 3d 4c dc 12 be a1 e5 3d 3d f5 18 f7 bb
       0.11240067 -0.14341849 0.04636157 -0.007540817
000010 0d aa 5e bd 4b 4f 16 be 0a bc ae 3b a2 ab 70 bc
       -0.05436139 -0.14678685 0.0053324746 -0.014689358
000020 e8 63 e7 bb 92 2a f1 3d da 92 0f 3e 0f fc a0 3d
       -0.0070614703 0.11775698 0.14020863 0.07860576
000030 26 87 bc bd ba ae 56 36 60 9b 06 3e 25 6f 6f bd
       -0.09205465 3.199019e-06 0.13145208 -0.058455605
000040 05 65 83 3c 45 f7 18 bd 95 e6 c0 bd dc 53 21 be
       0.01603938 -0.03734519 -0.0941898 -0.15754646
000050 61 46 0d bc 74 55 07 bd ca ac f6 3c 89 dc 9f 3c
       -0.008622737 -0.03304048 0.03011169 0.019514339
000060 00 f8 3e 3d 7f 40 a7 bd 9d 1f 3e 3d 75 10 bf bd
       0.04662323 -0.081665985 0.046416868 -0.09329311
000070 3d 82 4e 3e f9 6c 3b 3e 8a 76 2a 3c fc 96 24 bd
       0.2016687 0.18303289 0.0104042385 -0.040183052
000080 96 65 8b 3c 95 f6 a3 bd 71 8c 0a be ba 81 af 3c
       0.017016213 -0.08006016 -0.13530137 0.021424163
000090 fa 6f 1b be a1 db af 3d 90 7a ef 3c 8f a8 f7 3c
       -0.15179434 0.08586813 0.029233247 0.030231742
0000a0 58 08 ed 3d 6c b0 d3 b8 84 d2 17 be b9 31 d4 bb
       0.11573857 -0.00010094125 -0.14826399 -0.006475654
0000b0 87 cc 40 bd 3c 4e b0 3d 58 d9 f2 3d 87 29 5c bc
       -0.047070052 0.08608672 0.11857861 -0.013437635
0000c0 3b b0 ab bd 18 e4 53 3e b6 2e 9f 3a a2 64 c4 3d
       -0.08383223 0.2069248 0.0012144658 0.09589507
0000d0 21 f1 92 3d 5f 8e 35 3e 21 8c 69 3d 34 96 1c be
       0.07174898 0.17730092 0.057018403 -0.15291673
0000e0 85 80 05 bd d0 b9 8d 3c a9 67 c0 3b f5 de 54 3e
       -0.03259327 0.017300516 0.0058717323 0.20788176
0000f0 e2 67 da b6 70 12 19 3d c5 9c 99 bb 31 49 c3 bd
       -6.509e-06 0.0373711 -0.004687878 -0.095354445
000100 41 06 0a be 70 f8 f3 bd 23 12 ae 3c 7f cd 47 be
       -0.13478948 -0.1191262 0.021248883 -0.19511984
000110 9e 5a 10 be 66 6d 60 3e c7 9d e3 ba e9 67 41 be
       -0.14097068 0.21916732 -0.0017365747 -0.18887295
000120 df 52 7d bd c3 27 c4 bd 5c 27 4b 3e c5 a3 6e 3d
       -0.06184661 -0.095778964 0.19839233 0.05826165
000130 24 73 b9 bc 91 ce 80 bd 88 1b 00 be ed ad 1e be
       -0.022637911 -0.062893994 -0.12510502 -0.15496035
000140 76 20 1b bd 11 0c 6d b9 71 d2 c8 bc f5 b4 ed 3d
       -0.037872754 -0.00022606576 -0.024514409 0.116067804
000150 ad b9 25 3e 74 71 6e 3b 40 58 04 b7 d8 bb 2f 3e
       0.16184111 0.0036383541 -7.88836e-06 0.171615
000160 61 08 6a 3d 89 fc 88 bd d8 81 d3 3c da 28 5e 3c
       0.057136897 -0.06688792 0.02581875 0.013559544
000170 d6 1d 40 bd ca 62 a0 bd ab 6c 15 be 92 9e e6 3d
       -0.046903454 -0.078313425 -0.14592235 0.11260714
000180 ec f2 c7 3d 5d ea af bd 6d 69 0a bc 4b 3a 46 be
       0.097631305 -0.08589623 -0.008447987 -0.19358175
000190 17 2d 34 be 1c 63 11 3e 3a c7 a6 3d 89 a1 0a 3c
       -0.17595325 0.14197963 0.08143468 0.008461365
0001a0 16 99 4c be 22 31 cf 3c 6f 10 24 be f3 06 0c 3e
       -0.19980273 0.025291983 -0.16021894 0.13674526
0001b0 f3 37 ef 3d 59 e5 11 be 3c 94 ea 3d 46 77 29 3e
       0.11680593 -0.14247645 0.11454055 0.16549405
0001c0 3b 5b 46 3c 16 6f 3f be a4 4e e9 bd 4b 42 6a 3c
       0.012106712 -0.1869472 -0.11391953 0.014298032
0001d0 8f e4 b1 3b eb 8e 32 3e 4e 11 76 bd 42 0e 4d be
       0.0054288576 0.17437331 -0.060075097 -0.2002497
0001e0 7c 57 e5 3c 23 85 fe bc 66 4d 37 bc a6 8d bc 3d
       0.027995817 -0.031069344 -0.011187887 0.09206705
0001f0 11 b6 46 bd fb 32 ef 39 4b d3 14 3d 13 15 c3 bd
       -0.048513476 0.00045623616 0.036334317 -0.09525504
000200 4d 76 04 be 6d 8f e4 bd 19 95 b9 3d cd 19 1a 3c
       -0.12935753 -0.11160169 0.09061641 0.009405565
000210 f1 ef 0e bd 4b ec ff bd b4 ec f0 3d 46 03 da bd
       -0.034896795 -0.12496241 0.117638975 -0.106451556
000220 bf 5c ff 3d f3 69 ef 3d 94 56 43 3d 03 bc 89 bd
       0.12468862 0.1169013 0.04768999 -0.067253135
000230 0c 91 25 3e ef 64 d3 bd d3 2f 68 be 4c 9c 88 3c
       0.16168612 -0.10321986 -0.22674493 0.01667609
000240 08 77 fc bc f5 95 d1 bd 61 50 f9 bc 33 ff 3f be
       -0.030818477 -0.1023368 -0.030433835 -0.18749695
000250 a7 8e 6d bd 09 ea c3 bd d8 51 53 3c 29 af 16 be
       -0.057997372 -0.09566123 0.012897931 -0.14715256
000260 4f 02 01 be 5b c0 10 3d 1f 39 13 3e fe 98 29 3c
       -0.12598537 0.035339694 0.14377259 0.010351418
000270 6d a8 56 be 57 2e 72 3a 16 43 3b 3e be 57 07 3d
       -0.20962687 0.00092384726 0.1828731 0.03304266
000280 97 7f bf 3d bd 04 87 bc d9 f6 da 3c ae 45 75 3d
       0.09350508 -0.016481752 0.026729034 0.059880905
000290 37 81 1c 3c fc d8 7a bd 5e 40 99 3d 40 cf 19 bd
       0.009552292 -0.06124209 0.0748298 -0.037551165
0002a0 d1 6b f9 bd 7d 5b 14 bc 43 86 28 3e 51 35 02 3e
       -0.121787675 -0.009055016 0.16457467 0.12715651
0002b0 e9 5b a7 3d 3b dc b8 3c f8 46 b4 bd 9d d9 27 be
       0.08171827 0.022565952 -0.08802599 -0.16391607
0002c0 1e 28 03 be 65 6b 03 be 7a b7 20 3e d2 8e 12 bd
       -0.12808272 -0.12833937 0.15694991 -0.035780735
0002d0 65 99 26 3e de 6a 33 3e 7e 00 f9 bd 38 be 48 3e
       0.16269453 0.17521235 -0.12158297 0.19603813
0002e0 3a eb 0c 3d 65 df eb bd 5f 2e f4 bd 6a 49 b3 3d
       0.034404017 -0.115172185 -0.11922907 0.08754237
0002f0 0d c5 16 3d c2 94 17 be be 75 56 bc 4a f2 e4 bd
       0.036809016 -0.1480284 -0.013089595 -0.111790255
000300 21 0b 48 3e fb dc 3e 3d c0 41 1a bd 5a 2c 36 3d
       0.19535495 0.046597462 -0.03766036 0.04447589
000310 0e a9 7f bd 4e 89 fb 3d 90 ea a0 3d cd b0 eb 3d
       -0.062417082 0.12282048 0.07857239 0.115083314
000320 0c 16 c6 3c fb a4 38 3e 83 4e 1e 3d ba 74 16 be
       0.024180435 0.18031685 0.038649093 -0.14692965
000330 af bb dc 3d af 74 64 bd 05 85 06 3e 53 72 fb bd
       0.10777985 -0.05577534 0.1313668 -0.12277665
000340 3a 50 e2 3d 2d de 09 3e 8a 87 0f 3e 9a 8a 0f be
       0.11050458 0.1346366 0.14016548 -0.14017716
000350 97 6d bc bd 7f 6f 34 3e 96 2f 7f bc fd 30 a9 3d
       -0.0920059 0.17620657 -0.01557531 0.08261297
000360 95 6e 0a 3e 33 1d 94 bd ee ce 39 3e db 4b 8d bd
       0.13518746 -0.07232132 0.18145344 -0.06899234
000370 15 73 0f 3e ff a4 e9 bd b2 06 4b be 55 96 d2 3c
       0.14008744 -0.11408424 -0.19826773 0.02570645
000380 aa be 07 be 33 dc 33 3e a8 64 a1 3c c7 33 79 bd
       -0.13256326 0.17564468 0.019701317 -0.060840394
000390 95 19 8c 3c 64 b4 de 3d e7 29 4c 3e e6 b5 25 3e
       0.017102042 0.108742505 0.1993786 0.1618267
0003a0 28 9e 48 3e 2d ae e5 3c e5 b5 30 bc f8 74 ad bd
       0.19591582 0.028037155 -0.010785555 -0.08469576
0003b0 f3 61 a8 3d 6c d9 86 3d bf e1 db 38 a9 21 9d bd
       0.08221807 0.06584439 0.00010484782 -0.07672436
0003c0 88 be b9 bd 44 82 4d 3e f3 06 fd ba 5e 3f 8f bd
       -0.09069544 0.20069224 -0.0019304439 -0.06994508
0003d0 f2 65 26 3e 6d eb de bd 74 8b 2a bd c4 47 15 3d
       0.16249827 -0.10884748 -0.0416369 0.036445394
0003e0 4a 56 37 be 2d 37 d6 b9 3b 60 2e 3e b2 ba 38 3e
       -0.1790401 -0.0004085837 0.17028897 0.18039969
0003f0 b2 67 e0 3b c0 ad b9 3d 5f 01 4f bc 43 0c ab bd
       0.006848299 0.09066343 -0.012634604 -0.08351948

nns.0.2.bias f4 [64]
000000 6a 98 94 b3 5a ad 2b b5 ca 8f 30 36 72 09 b2 35
       -6.919511e-08 -6.3954724e-07 2.630974e-06 1.3264782e-06
000010 7b ed 9d b6 ca 20 8a b7 d4 e0 67 b6 e9 21 75 35
       -4.706611e-06 -1.646615e-05 -3.455255e-06 9.131896e-07
000020 be 82 03 37 35 de 5a b5 1d c0 35 37 98 6d e5 b4
       7.838649e-06 -8.153468e-07 1.0833171e-05 -4.2734314e-07
000030 26 79 f9 b5 71 32 90 b6 87 b9 08 37 3a 52 98 b6
       -1.8587205e-06 -4.2974066e-06 8.149428e-06 -4.5395254e-06
000040 b9 2b 12 35 b5 cf 9a 36 dd 46 00 b6 a0 84 2b 35
       5.4452863e-07 4.613738e-06 -1.9114734e-06 6.389546e-07
000050 d3 9a 81 36 18 49 e0 b5 4a 52 43 37 f1 6d e8 35
       3.8625235e-06 -1.6710574e-06 1.1642065e-05 1.7317344e-06
000060 82 0b a3 b6 2e d3 7a 37 0d bb e2 b2 e5 09 02 35
       -4.8591182e-06 1.495033e-05 -2.6394924e-08 4.844317e-07
000070 f5 29 0e b6 67 5a 94 b6 63 6d 68 b6 e3 f3 31 37
       -2.118407e-06 -4.421268e-06 -3.4634365e-06 1.0606806e-05
000080 dd 7f 16 35 a0 ad 1a b7 f4 54 fe 37 46 81 03 36
       5.606542e-07 -9.2195405e-06 3.0318719e-05 1.9595768e-06
000090 c4 14 a2 b6 ad 0c 47 b7 f2 cc 9c b7 5a 5c 89 35
       -4.8303937e-06 -1.1864276e-05 -1.8692084e-05 1.0234173e-06
0000a0 24 6c 06 36 91 07 27 b5 dc 04 bf b6 0c d3 8c b6
       2.0030502e-06 -6.222336e-07 -5.6928093e-06 -4.196894e-06
0000b0 28 6d 7a b6 8b 3c 5c 34 db f0 31 b6 2d af 03 36
       -3.731644e-06 2.0511122e-07 -2.6515252e-06 1.9622487e-06
0000c0 a7 cf 31 38 a7 bf 1b 36 4e 93 62 b6 b5 93 7c 38
       4.239348e-05 2.3208356e-06 -3.3762367e-06 6.0219045e-05
0000d0 ab 53 08 36 fa d6 0a b5 39 94 97 b5 1e 58 bc 33
       2.031428e-06 -5.172184e-07 -1.1293515e-06 8.7704606e-08
0000e0 9d 2e 9b b6 6d 56 40 b7 45 f7 12 36 3d 09 b1 b6
       -4.6247865e-06 -1.1464214e-05 2.1899625e-06 -5.2760865e-06
0000f0 21 5e 16 b6 bc 1c 19 b6 0d d9 97 b7 d7 2d cc 35
       -2.2406532e-06 -2.2815502e-06 -1.8101675e-05 1.5212526e-06

nns.1.0.weight f4 [64, 64]
000000 8a c8 e4 ba 8f c9 e4 3d 34 3d 56 bd 8f 0b 16 be
       -0.0017454785 0.11171257 -0.05230446 -0.14652847
000010 a3 10 50 be f6 1a b9 3c 55 68 bb 3d 21 1a 22 3e
       -0.20318846 0.022595864 0.09150759 0.1583028
000020 e6 1f 55 3e de 89 1f be 57 fc 72 3d 62 4b a1 3d
       0.2081295 -0.15579936 0.05932268 0.07875706
000030 dd b3 38 be 57 4c d2 3c d5 66 f9 bd 31 94 90 3d
       -0.18037362 0.025671167 -0.12177817 0.07059515
000040 27 01 22 3e 27 a6 01 be b5 68 51 3e 32 78 22 3e
       0.15820752 -0.12661038 0.20450099 0.15866163
000050 71 19 00 be c0 53 0f 3e 9d 3e e2 3d f2 68 51 be
       -0.12509705 0.13996792 0.11047099 -0.2045019
000060 ec 9e 04 bb 1e fd e8 bc 65 0c 03 be cb e0 c1 3d
       -0.0020236326 -0.028441008 -0.12797697 0.09466704
000070 66 25 54 3e fa a9 11 3e 77 95 a2 bd 96 f9 22 3e
       0.20717391 0.14224997 -0.079386644 0.15915522
000080 60 76 cd 3c bf f1 df bd c2 b0 85 bc 01 25 30 3e
       0.02508086 -0.10934781 -0.016319636 0.17201616
000090 8c e4 4e be 43 e8 44 be e0 67 46 be 0f 17 40 3e
       -0.20204371 -0.19229226 -0.19375563 0.18758796
0000a0 29 33 a6 bd cf 06 87 3c fe a4 23 3d 7f 4a 9f bd
       -0.08115227 0.016482739 0.03995227 -0.07777881
0000b0 46 bf 30 3b f3 be 3f 3e 17 04 25 3e 18 8f 16 be
       0.0026969477 0.18725185 0.16114841 -0.14703023
0000c0 54 d4 d3 bd 1c 25 30 3e 4f 42 01 bd 4e de 2c 3e
       -0.10343233 0.17201656 -0.031557377 0.16881678
0000d0 f6 a4 85 3d 61 99 31 3e 7b d5 f7 bd a2 2f 42 be
       0.065256044 0.17343666 -0.12101265 -0.18963483
0000e0 f6 ce 86 3d a6 19 1d be b4 32 79 3d fc db ff bd
       0.065824434 -0.15341815 0.06083937 -0.124931306
0000f0 c0 15 19 be 81 43 f6 3c 47 47 14 be 35 e5 55 be
       -0.14949703 0.030061485 -0.14480315 -0.20888217
000100 82 b3 3a bd cb c0 f4 bc 01 35 f1 bc 7c 13 d5 3d
       -0.04558135 -0.029877087 -0.02944422 0.10404107
000110 81 c3 70 bd 51 be 03 3e 82 bc 97 3d 12 69 65 3e
       -0.058780197 0.12865569 0.07409002 0.22403362
000120 34 2f 06 bd 81 92 0b bd 92 7c 4b be 2d 5d 43 be
       -0.03275986 -0.034075264 -0.19871739 -0.19078512
000130 21 93 4b 3e d2 ca 4b be 01 f3 f2 3d 72 39 31 3e
       0.19880344 -0.19901589 0.118627556 0.1730707
000140 9c 45 43 be 1f f8 b5 3a 03 7a 4d be b9 28 30 3d
       -0.19069523 0.001388315 -0.20066075 0.043007586
000150 99 02 78 bd 83 2c fc 3d b1 26 4f 3e 6d a2 2b 3e
       -0.060549352 0.123131774 0.20229603 0.1676118
000160 c5 4b 87 3c 03 76 6d 3c 3e 3c 15 bd 64 4d 1f 3c
       0.016515622 0.014493468 -0.036434405 0.009723041
000170 e5 4a d2 3d d3 82 ff bc e9 d4 3d 3e 3d a1 24 be
       0.10268191 -0.031190312 0.1853825 -0.16077133
000180 f7 b8 bd bd 40 68 a0 3c 2d bd 92 bc f4 ec 50 3c
       -0.09263795 0.01958096 -0.017912472 0.0127518065
000190 cb 01 00 bc 88 05 29 3a 63 ae 09 be 2c b1 54 bd
       -0.0078129275 0.00064476626 -0.1344543 -0.051926777
0001a0 14 e7 b5 3d 17 48 34 be e3 9c b9 bd 77 19 9f 3d
       0.08881965 -0.17605625 -0.09063127 0.07768529
0001b0 c1 a3 05 be 21 46 4c 3e 5c e3 0b 3e 61 1d 44 be
       -0.13050748 0.19948627 0.1366095 -0.19151832
0001c0 f1 99 f7 3d cd 00 b6 3d 98 99 2f 3c 3f 21 0d 3d
       0.12089909 0.088868715 0.010717772 0.034455534
0001d0 c7 ed 99 bc 7a ca d6 3d 43 c0 1d be 21 6a d4 bc
       -0.018790139 0.10487838 -0.15405373 -0.025929512
0001e0 60 27 15 bd ba 58 f7 bd e5 50 00 3e 8a e0 49 be
       -0.036414504 -0.1207747 0.12530859 -0.19714561
0001f0 fe 38 1e be 70 ac a2 bc 20 2e 2f bb fe 44 91 3b
       -0.15451428 -0.019857615 -0.0026730374 0.0044332733
000200 3c 4c 19 3e fa 3f 40 be 50 d8 10 be 4f 77 0c 3d
       0.14970487 -0.18774405 -0.14145017 0.03429347
000210 98 0b f8 3d a0 c9 12 3e 31 5a ed bd 94 54 23 be
       0.12111586 0.14334726 -0.11589468 -0.15950233
000220 94 f1 31 3e e3 83 12 3e c8 db 1c 3e e1 db 39 be
       0.17377311 0.14308123 0.15318215 -0.18150283
000230 9e 06 01 be ec 1c 43 bd 83 39 60 3d 69 27 b6 bd
       -0.1260018 -0.047635004 0.054742347 -0.08894236
000240 d8 b4 8c bd 38 05 3d 3e af 58 be 3c 1d 6e ce 3c
       -0.06870431 0.18459022 0.023235647 0.02519899
000250 db e9 3c 3e 9d b7 b8 3d 80 d9 18 bd 0f 19 13 bd
       0.18448584 0.090193965 -0.0373168 -0.03591257
000260 9e ce 49 be ec ea d2 3c c0 cf a8 bb 10 e5 15 3e
       -0.19707724 0.025746785 -0.005151719 0.14638162
000270 bd 9d da 3c b3 79 65 3d b5 20 29 3c 8f 20 2a 3e
       0.026686544 0.056024265 0.010322739 0.16613983
000280 90 b4 48 3e ee 20 e2 bd 09 2c 20 3e d7 f7 2d be
       0.19600129 -0.11041437 0.15641798 -0.16989075
000290 0f 5d 31 bd 25 1c 07 bd 19 f4 d7 3d 44 7f 43 be
       -0.04330164 -0.032985825 0.10544605 -0.19091517
0002a0 86 2f 8b bd 2a 57 d5 3d 52 55 22 3e 51 d0 79 3d
       -0.06796174 0.10417016 0.1585286 0.06098968
0002b0 eb 54 29 3e 2a b9 82 bd 26 93 ed bd dc fa ce 3d
       0.165363 -0.063829735 -0.11600332 0.101064414
0002c0 3c b4 d3 bc 1e 58 c5 bd 58 c9 6d 3d 56 fc 2e 3e
       -0.025842778 -0.09635948 0.058053344 0.17088446
0002d0 22 eb e1 3d 30 42 e7 bd bb 8d 11 3e fd 7c 25 3e
       0.11031176 -0.11291921 0.14214222 0.1616096
0002e0 3c ed 11 3e 86 ef 4d bd 42 d8 08 3e aa 50 0b be
       0.14250654 -0.050277255 0.13363746 -0.1360499
0002f0 13 d5 14 3e 88 89 91 bd b4 ba 45 3e 38 c7 0d 3e
       0.14534406 -0.0710631 0.19309503 0.13845527
000300 c9 f3 46 be 15 60 59 3b fe fe 32 bd 27 08 44 be
       -0.19428934 0.0033168842 -0.04370021 -0.19143735
000310 bc 1c 3d be 9c 43 4c 3e ef 16 b9 bd 92 07 53 be
       -0.18467993 0.19947666 -0.09037577 -0.20608357
000320 60 7b 3a 3e d4 00 2b 3e 3a 13 04 be 72 4e 3a be
       0.18211126 0.16699535 -0.1289796 -0.18193987
000330 41 e8 4a be a6 83 1b bd 11 7b f1 3d 29 ba 58 3e
       -0.1981516 -0.037967347 0.11791051 0.21164764
000340 56 53 3a be d4 e6 3d 3e d4 61 dc 3d 10 a8 22 be
       -0.18195853 0.18545085 0.10760847 -0.15884423
000350 c3 08 0a 3e d3 ae 65 3d bf 3a 12 3c 9b ad 9b bd
       0.13479905 0.05607493 0.008925139 -0.07601472
000360 d8 27 64 bc 12 55 61 bd 2e a0 c7 bd 2c 69 ad bd
       -0.013925515 -0.05501277 -0.09747349 -0.084673256
000370 84 03 3c be 12 f5 94 bd e5 33 cd bd 88 21 24 3e
       -0.18360716 -0.07273306 -0.10019664 0.16028416
000380 68 0d 1e be 1e e7 f7 bb ad b5 af bd 07 06 10 be
       -0.15434802 -0.007565393 -0.08579574 -0.14064799
000390 97 fa e2 3d 18 10 22 be 56 ac 24 be 3b ba 22 be
       0.110829525 -0.15826452 -0.16081366 -0.15891354
0003a0 ca 1c 46 be 2f 8c fb 3d 50 4d 14 be b9 ff 1f be
       -0.1934692 0.12282597 -0.14482617 -0.15624894
0003b0 fb 1e a1 3d bc e6 0b bd 2b a4 da 3d 8f 0d 03 3e
       0.07867237 -0.034155592 0.10675844 0.12798141
0003c0 51 ee 79 bd c2 ab 32 be ce f6 06 3d ea 11 d7 3d
       -0.06101829 -0.17448333 0.032950215 0.10501464
0003d0 95 e8 7e 3c dc a1 13 bd 8b 5a 15 be e1 5a a5 bc
       0.015558382 -0.036043033 -0.1458532 -0.020184936
0003e0 ca 45 ac 3c 00 20 00 3e 3a 86 c6 3d 05 97 4a bd
       0.021029372 0.12512207 0.096935704 -0.04946043
0003f0 c4 cb 78 bd 93 61 64 3e 4a 24 1a be 52 49 29 3e
       -0.0607412 0.22302847 -0.15052906 0.16531876

nns.1.0.bias f4 [64]
000000 41 fb 0f 3d 7b 8d 96 3a 3e d9 3f 3d a2 c0 a9 3c
       0.035151724 0.0011486256 0.046838038 0.020721737
000010 9c 43 3f bc 43 70 81 3c 61 f9 9d bd 45 fe 97 3d
       -0.011673834 0.0158006 -0.07713581 0.07421545
000020 c4 4f 30 bc 6a 4a 6b 3d 7c cb 89 bc b7 fa da 3c
       -0.010761205 0.057444014 -0.016820662 0.026730878
000030 d1 df bd bc 8c 01 fd bc 0a c2 66 bd fb a4 fc bc
       -0.023178013 -0.030884527 -0.056337394 -0.030840388
000040 fd 66 20 bd 2d 57 dd 3c c6 51 44 3c a4 7b a6 3b
       -0.039160717 0.027019108 0.011982387 0.005080657
000050 d3 2c a2 3a bb d3 48 bd 5c 2a 36 3c 80 de d5 3c
       0.0012372978 -0.049030047 0.011118498 0.026107073
000060 9a 4b ba bd 52 cf fe bc 24 79 a1 ba 42 a4 58 bc
       -0.09096451 -0.031104717 -0.0012319428 -0.013222756
000070 61 64 1e bb c5 cc 1e 3c 8f d1 41 bc f3 58 10 3d
       -0.0024168717 0.009692376 -0.011829748 0.03524108
000080 10 46 91 bc a0 50 26 3d 6e 14 3b 3c 4d 41 48 ba
       -0.017733604 0.040604234 0.011418445 -0.0007639125
000090 ea 06 0a 3b f7 87 88 3b 27 23 1f 3d 99 01 2b 3d
       0.002106125 0.004166599 0.038851883 0.04174957
0000a0 a9 c5 55 3c 42 8e 86 bb e6 37 d0 3c aa 48 5a 3c
       0.013047614 -0.004106314 0.02541728 0.0133229885
0000b0 0d 6d 3d bc b0 a3 1f bd 11 2c 76 bd 75 6d 02 bd
       -0.011561644 -0.038974464 -0.06010062 -0.031842668
0000c0 4a 44 bf bc 26 d4 d1 3c a8 c2 1c 3d 74 20 59 bc
       -0.023347992 0.025613856 0.038271576 -0.013252366
0000d0 9d 7e 07 bd bd 5c 63 bc eb 03 48 3d 42 4b 8a bd
       -0.033079732 -0.013877091 0.04883186 -0.067526355
0000e0 bf 0f c9 3c 6f 7e 03 bd e0 5c 42 3c 24 23 9c bc
       0.024543641 -0.032103 0.011862963 -0.019059725
0000f0 d3 0f c2 bc 81 2d e6 bc 39 0c 29 3d ab 74 5c bb
       -0.023689186 -0.02809787 0.041271422 -0.0033638875

nns.1.2.weight f4 [64, 64]
000000 7c 89 35 3e c9 42 2c 3d 69 06 fc bd 3d 24 53 3e
       0.17728227 0.04205588 -0.1230591 0.20619293
000010 65 30 42 3d 3e 38 41 be 77 93 54 3e 19 03 1e be
       0.047409434 -0.18869111 0.20759378 -0.15430869
000020 c1 ec bb 3d c8 f7 d5 bc 8d 54 a4 bd 7c 64 df bd
       0.091760166 -0.026119128 -0.08023939 -0.10907838
000030 c7 05 2b 3e e5 fb b1 bc 5d a2 05 3e 7b 17 c2 bd
       0.16701423 -0.021726558 0.13050218 -0.09477135
000040 66 8e 19 3e 91 b5 fb bc 2d 88 cc 3d 4b 3b b3 bd
       0.14995727 -0.030726226 0.09986911 -0.087515436
000050 c3 e5 4b be db 87 24 be fe 74 e5 bd 5e ba 00 3e
       -0.19911866 -0.1606745 -0.11203955 0.12571093
000060 0f 82 4f be 87 b6 c7 bd a1 31 15 bc 20 ab 7d 3c
       -0.20264457 -0.09751611 -0.009106071 0.015482694
000070 dc ee bb 3d 06 2b 4c 3c d4 98 11 3e 19 7d 30 bc
       0.09176418 0.012461429 0.14218456 -0.010772013
000080 79 1c 06 be e3 5d 1f be 08 6e 45 3e d0 97 c1 bd
       -0.13096799 -0.15563159 0.19280255 -0.09452784
000090 ef e9 cc 3d 7f da bf bd b0 67 0a be 53 ff 8b 3d
       0.10005557 -0.09367847 -0.13516116 0.068358086
0000a0 d4 8b 19 3e 05 d1 0c bd ee 84 2d 3c c5 e4 26 be
       0.14994746 -0.034379024 0.010590775 -0.16298206
0000b0 91 1e 86 bd 46 d6 68 bd 9e a0 94 bb 9a 62 18 3e
       -0.06548799 -0.056844972 -0.0045357486 0.14881364
0000c0 de 9b f3 bd b0 10 54 be bd c5 c4 3c e8 2d 13 3e
       -0.11894964 -0.20709491 0.02402007 0.1437298
0000d0 2a 51 9b bd 07 76 9d 3d a7 0a 92 bc eb 43 a6 3d
       -0.0758384 0.076885276 -0.017827345 0.08118423
0000e0 3a 93 e9 3d 05 30 f3 bd c4 62 28 3e 72 ea ba bd
       0.11405034 -0.118743934 0.16443926 -0.09126748
0000f0 c0 9a 21 3e 44 27 ae bd bb f3 1c be 04 71 1f 3e
       0.15781689 -0.08503583 -0.15327351 0.15570456
000100 31 6b f9 3d b6 a6 3d be 4d d7 c7 3d 68 5c 4a be
       0.12178648 -0.18520626 0.09757862 -0.19761813
000110 2c 60 11 bc 7a fb 87 bd 05 63 72 3c 06 6b 19 be
       -0.008873027 -0.06639762 0.014794116 -0.14982232
000120 f3 0c 5c bd f2 5a 0b be e1 06 09 be 8e b5 17 3e
       -0.053723287 -0.13608912 -0.1338153 0.14815351
000130 68 9b c8 3d dd 68 f9 bc b9 ef ce 3d 2f 71 3f 3e
       0.097952664 -0.03044551 0.10104317 0.1869552
000140 db 16 44 be d5 8d 8a bd 9f ed 3a 3d 27 ed 8e bd
       -0.19149344 -0.067653336 0.04563677 -0.06978827
000150 80 4b f8 bd b2 a6 06 3e f6 e8 da 3d 53 6f 09 3d
       -0.121237755 0.13149527 0.10688965 0.033553433
000160 05 2c 2a bd 27 a2 1f be b7 a1 54 be 7a 27 5e 3e
       -0.041545887 -0.155892 -0.20764814 0.21694747
000170 45 4c 62 be ca e6 55 3e d4 5b bb bd ca b4 12 3e
       -0.22099407 0.2088882 -0.09148374 0.14326778
000180 b0 c4 09 3d 8c 02 73 bd f4 ee 71 bd c2 fd 3e 3e
       0.03363484 -0.0593286 -0.059065774 0.18651488
000190 5a fb 46 bd 35 f3 ea bc 72 05 85 bd 3e 36 1b 3d
       -0.04857955 -0.028680423 -0.06495179 0.037893526
0001a0 d0 61 2d be fd f0 8b bd 82 e3 8b bd fa 85 60 bc
       -0.16931844 -0.06833074 -0.06830503 -0.0137038175
0001b0 1a b4 dd bd 03 11 1b 3e a6 ba ae bd a4 c0 13 3d
       -0.10825367 0.15143208 -0.08531694 0.03607239
0001c0 b8 f8 36 be aa 61 e2 bd d4 f8 d1 bc ec 16 43 3e
       -0.17868316 -0.11053784 -0.025631346 0.19051713
0001d0 e0 9e 01 3e 10 26 ec 3d fb a5 d3 3d 52 e5 14 be
       0.12658262 0.11530697 0.10334393 -0.14540604
0001e0 23 e3 07 3e 16 65 55 bd 3b bd 07 be 2e a5 01 be
       0.1327024 -0.052098356 -0.1325578 -0.12660667
0001f0 35 6e c5 bd 24 db de 3c 43 29 69 bd b6 da 68 3c
       -0.09640161 0.027204104 -0.056924116 0.014212301
000200 eb e1 42 3e 98 d5 d5 bd a5 9a 70 bd a7 aa 21 3e
       0.19031493 -0.104411304 -0.05874123 0.15787755
000210 9b 9d 2d 3e 19 38 26 3e 9e ec b3 3d cf d3 2c 3e
       0.16954653 0.16232337 0.087853655 0.16877674
000220 6b 85 ac bd 1b 8e 11 3e 27 ee 84 bd 82 7a 07 3d
       -0.08423885 0.14214365 -0.064907365 0.033075817
000230 cc d4 26 3d 65 94 82 bd 33 ab a2 bd c1 6f db bd
       0.040730283 -0.0637596 -0.0794281 -0.10714675
000240 8c e4 2f 3e e2 eb ba 3d bc 55 8d bc ee 7e 87 bd
       0.17177027 0.09127022 -0.017252795 -0.06616007
000250 49 ae 52 3e b6 23 ee bd bb 3a 59 bc 80 84 ef 3c
       0.20574297 -0.11627905 -0.013258631 0.029237986
000260 4e fc ce bd d3 6a dd bc 11 82 16 3d ed 6a 3e bd
       -0.10106717 -0.027028477 0.036745135 -0.04648869
000270 06 28 22 3d 85 ae 1e 3e 95 7f 26 3e 65 08 96 bb
       0.03958895 0.15496261 0.16259606 -0.0045786374
000280 f4 35 da bd 4a 5d f7 3d 84 4f b5 bd c0 0e d8 3d
       -0.10654822 0.1207834 -0.08853057 0.10549688
000290 61 f6 0c 3e 6b a4 c5 3c cb 98 32 bd 15 7b 49 be
       0.13765861 0.024126252 -0.043602746 -0.19675858
0002a0 20 0b 29 3e f4 e2 0e be b2 98 3d be 1b 19 29 bd
       0.1650815 -0.13953763 -0.1851528 -0.041283708
0002b0 b7 10 3a 3e 8d 54 36 3e bb 2b fc 3d 63 8f 32 3e
       0.18170439 0.17805691 0.123130284 0.1743751
0002c0 be 38 03 3e 8a d9 30 3d d9 2b 1b be 26 1e 64 3c
       0.12814614 0.04317621 -0.15153445 0.013923204
0002d0 a8 9b 86 bd c6 55 40 bd c1 17 df bc b2 6a bc bd
       -0.06572658 -0.0469568 -0.027233006 -0.09200038
0002e0 ba 32 9f 3d 13 94 d6 bb c3 8f 94 3c 22 9f bf 3d
       0.07773347 -0.0065484135 0.018134957 0.09356524
0002f0 7f 48 ed 3d f8 7d 1f be aa 72 e3 3d 9a f6 e1 3d
       0.11586093 -0.15575397 0.11105855 0.11033364
000300 14 90 e9 bc e2 4d 9f 3d 3a 6e e1 3d 5c fd 29 3e
       -0.028511085 0.07778527 0.11007352 0.16600555
000310 82 3c fa bc 59 85 2f 3e f4 52 d9 bd 03 5d 1f 3d
       -0.03054643 0.17140712 -0.10611525 0.038907062
000320 92 c3 b4 bd 89 c2 22 be 37 4c 49 bd 90 bd 0e 3e
       -0.088263646 -0.15894522 -0.04914495 0.139395
000330 db ec 33 be ae 1a 07 bd c5 ac e7 39 24 a5 21 be
       -0.17570822 -0.032984428 0.00044188477 -0.15785652
000340 47 d4 32 3e f6 fa 1a 3e 5c d4 54 be 40 a9 74 3d
       0.1746379 0.15134797 -0.20784134 0.059731722
000350 64 d6 d0 bc b4 28 bb 3d 18 ca a9 3c ef f3 31 3e
       -0.025492854 0.09138623 0.020726249 0.1737821
000360 d6 06 38 3d f4 23 6a bd c8 21 34 3d 59 fd 66 3d
       0.044928394 -0.057163194 0.04397753 0.056393955
000370 24 64 2e 3e 7d 61 85 bd 2d 30 87 bd e1 9b 37 be
       0.17030388 -0.06512735 -0.06600986 -0.17930557
000380 b2 56 77 bd 32 9a 2f 3d bb 99 bb bd 03 1d 70 bd
       -0.060385413 0.04287166 -0.09160181 -0.058621418
000390 c1 a8 0d be ea 46 5e bd b3 a1 7d bc 8c 3a 44 bd
       -0.13833906 -0.054266848 -0.015480447 -0.047907397
0003a0 60 23 8f 3d 7d 5c 07 3e ed af ef 3d 12 84 2f bc
       0.06989169 0.13218875 0.11703477 -0.01071264
0003b0 c4 93 23 be 01 23 20 be b3 a0 87 bd 36 6d 95 3d
       -0.15974337 -0.15638353 -0.06622448 0.07296221
0003c0 72 af 41 bd e3 47 16 be 40 54 13 3e 51 a1 31 be
       -0.04728646 -0.1467586 0.14387608 -0.17346694
0003d0 d0 42 29 3e 4c c6 12 be 39 b5 80 bd 55 04 cc 3c
       0.16529393 -0.14333457 -0.062845655 0.02490441
0003e0 c0 f9 ea bd 92 6d 24 3c 16 a9 21 3d f9 51 35 be
       -0.11473417 0.010035889 0.039467894 -0.17707051
0003f0 79 4b 72 3d 4d a3 c3 bb a2 14 30 be 84 89 f2 bd
       0.059154008 -0.0059703947 -0.17195371 -0.11842635

nns.1.2.bias f4 [64]
000000 ec 1b 8c b6 7e 68 a1 36 63 82 bd 35 ce 6e 5d b7
       -4.1755757e-06 4.8103384e-06 1.4119545e-06 -1.3198425e-05
000010 3d fd bb 36 2b f3 16 36 37 07 ae 35 bc a7 63 b7
       5.602515e-06 2.2493284e-06 1.296611e-06 -1.3569308e-05
000020 f3 2f 9d b4 73 a6 e8 b6 f8 80 f1 b3 f4 b6 34 36
       -2.9278416e-07 -6.933516e-06 -1.1245896e-07 2.6928583e-06
000030 4e 0c e2 36 d5 9a dd 35 79 d1 33 35 81 34 ba b4
       6.7367573e-06 1.6510845e-06 6.698752e-07 -3.46834e-07
000040 ef 83 9e b5 95 a5 af 35 df 37 04 b8 43 82 c5 36
       -1.1810315e-06 1.3086707e-06 -3.1523286e-05 5.886222e-06
000050 42 64 b2 b5 f1 8e 31 b6 f9 37 0b b7 d1 0a 05 b5
       -1.3291212e-06 -2.6458258e-06 -8.298078e-06 -4.95621e-07
000060 84 47 e4 35 da 80 d7 b5 75 59 29 35 86 74 10 b2
       1.7008138e-06 -1.6056249e-06 6.3087583e-07 -8.4083975e-09
000070 88 fb ab b5 31 cc c5 b6 70 e2 f0 35 4c d8 41 b6
       -1.2813698e-06 -5.8948285e-06 1.7947295e-06 -2.8885142e-06
000080 15 04 b3 35 a8 f0 83 b2 19 59 e6 35 63 07 af b7
       1.3337727e-06 -1.5359845e-08 1.7162266e-06 -2.0865065e-05
000090 f3 fc 23 37 7d 3d 20 37 e6 7d 99 36 44 00 b1 b4
       9.774451e-06 9.5510595e-06 4.574412e-06 -3.2969012e-07
0000a0 4e 31 25 b6 ed b6 a1 36 ff 7e 32 b7 31 5f 2c b6
       -2.4615615e-06 4.8194693e-06 -1.0639195e-05 -2.5685406e-06
0000b0 ab 5f 62 36 ab e9 b3 b6 ba ed 93 35 7a 2e ab b6
       3.373231e-06 -5.3618182e-06 1.1021541e-06 -5.1016077e-06
0000c0 5f f5 18 b4 7a e7 80 b4 d8 97 86 35 78 81 45 b6
       -1.4245369e-07 -2.401028e-07 1.002797e-06 -2.9430648e-06
0000d0 7e 17 bd b4 60 d7 36 b7 4e f1 d2 b4 6d ac 42 b6
       -3.5221086e-07 -1.0898191e-05 -3.929112e-07 -2.9008618e-06
0000e0 71 fc 15 b7 13 98 10 35 0a 5d ea 37 05 88 4c b6
       -8.939868e-06 5.386548e-07 2.7938298e-05 -3.0477543e-06
0000f0 2c 31 b2 b6 73 b4 c4 b5 08 77 e8 b5 b5 05 81 b4
       -5.3105377e-06 -1.4655656e-06 -1.731999e-06 -2.4032275e-07
