weight/IMDB-BINARY/Client_6.pth (torch, 260953 bytes, 24 tensors)

bns.0.running_mean f4 [64]
000000 97 3c 8f 3e b2 fe 2b c0 19 93 b2 c0 38 42 a1 40
       0.27975914 -2.6874204 -5.5804563 5.0393333
000010 e0 64 a0 40 65 90 03 c1 4b 5b db 40 b4 3a a8 bf
       5.012314 -8.222753 6.854894 -1.3142915
000020 8e e4 4d 41 88 88 29 41 a5 1f 92 40 9e 2f a9 40
       12.8682995 10.595833 4.566363 5.2870626
000030 6e 78 df bf 4a 8c c4 c0 99 34 b3 3f 90 59 84 40
       -1.7458627 -6.142125 1.4000427 4.135933
000040 5c bf ef c0 76 53 ee 40 23 05 ad c0 37 b2 29 40
       -7.4921093 7.447688 -5.406877 2.6515024
000050 a9 76 00 c1 70 73 50 c0 26 79 a1 c0 4d 03 d6 c0
       -8.02897 -3.2570457 -5.0460386 -6.687903
000060 e2 4c 1b c1 66 0d a7 40 54 5f e3 40 ed 3a 02 c1
       -9.70627 5.2203856 7.1053867 -8.139386
000070 de ca 94 40 96 3c d6 3f 0e 04 0e 40 0c a4 66 bf
       4.649764 1.6737239 2.2189975 -0.90094066
000080 c2 e1 4f 41 8d 7f 9f 40 f4 00 db 40 d7 51 67 40
       12.992617 4.98432 6.8438663 3.61437
000090 99 98 bc 40 57 02 d0 40 33 db 3e c0 a2 f2 ba 40
       5.8936276 6.5002856 -2.9821289 5.8421183
0000a0 41 3a 75 40 6e 7b 13 41 7d a1 22 40 62 7e 90 40
       3.8316805 9.217634 2.5411065 4.5154276
0000b0 46 2e 52 c0 5f b2 8d 40 82 a1 54 40 6d 07 ee c0
       -3.2840743 4.428024 3.3223577 -7.4384065
0000c0 0c 9e fc c0 9b ef f3 be 54 64 1f 41 de 95 f6 c0
       -7.894293 -0.47643742 9.961994 -7.7057943
0000d0 b4 3a b7 40 54 69 e2 c0 53 74 04 41 6d 0f f1 40
       5.725916 -7.0753574 8.278399 7.533133
0000e0 96 1e 96 c0 08 e2 09 c1 40 38 22 c0 b8 12 cf 40
       -4.6912336 -8.617683 -2.5346832 6.471035
0000f0 0e 4a 68 c0 43 9b 95 40 b7 80 2f 41 cf 4c 2b 3f
       -3.62952 4.675203 10.9689245 0.66914076

bns.0.running_var f4 [64]
000000 5d 5a 4f 3d 09 58 08 3e 7c 1b 22 3f 93 74 55 3f
       0.050623287 0.13314833 0.6332319 0.83381003
000010 e0 8e 43 3f 7f fa ba 3f 5b 42 8a 3f 16 43 0b 3e
       0.76389885 1.4607695 1.08015 0.1359981
000020 6a 4c 5c 40 4d e7 5c 40 c3 38 06 3f c5 10 2f 3f
       3.442164 3.4516175 0.5243036 0.68384963
000030 8a 76 1c 3e b3 a8 3f 3f 81 f0 bf 3d 44 43 4c 3f
       0.15279594 0.7486679 0.09372044 0.7979014
000040 c6 ad c0 3f 77 05 c0 3f e9 8a 63 3f c0 2f 37 3e
       1.5053031 1.5001668 0.88883835 0.17889309
000050 13 23 d4 3f 4f 1c e1 3e fa f4 f8 3e 4d 73 5c 3f
       1.6573204 0.4396691 0.48624402 0.86113435
000060 e4 7d 01 40 d5 1c 4f 3f b7 ac c6 3f d4 ff db 3f
       2.0233088 0.8090337 1.5521458 1.7187448
000070 92 d9 41 3f b8 31 27 3e 62 32 73 3d 8c 47 d3 3c
       0.7572261 0.1632756 0.05937422 0.025790952
000080 c5 70 81 40 e6 ed 92 3f 99 f9 a2 3f d2 99 41 3e
       4.045016 1.1478851 1.2732421 0.18906334
000090 3b 14 57 3f 3f 09 7e 3f 4e 54 63 3e 39 19 73 3f
       0.84015244 0.9923286 0.22200128 0.9496036
0000a0 90 62 4b 3e 1b 2c 08 40 3c e2 46 3e f7 ab 0b 3f
       0.19861817 2.127692 0.19422239 0.5455927
0000b0 fd d5 5a 3e 23 ca fb 3e 9f 02 8c 3e ae 43 b9 3f
       0.21370693 0.49177656 0.2734575 1.4473779
0000c0 b4 b3 ac 3f 9a 12 66 3d 6a 0f 2b 40 66 c3 bf 3f
       1.3492341 0.056170084 2.6728158 1.4981506
0000d0 c3 27 38 3f 10 85 99 3f a0 a4 b3 3f 30 65 c3 3f
       0.7193567 1.1993732 1.4034615 1.5265255
0000e0 2a 90 fd 3e d2 0f e2 3f d2 a4 85 3e 97 12 7d 3f
       0.4952405 1.7661078 0.2610231 0.9885649
0000f0 31 03 a9 3e 5c e5 a3 3e 72 03 2b 40 02 9e 82 3d
       0.33010247 0.32010925 2.6720853 0.06377794

bns.1.running_mean f4 [64]
000000 29 d6 72 c1 ad e1 af c1 5b df 71 c1 51 fc 1c 41
       -15.177285 -21.985193 -15.11703 9.811601
000010 1a be 20 42 0f c2 07 40 45 d6 50 c0 74 b1 c2 40
       40.185646 2.1212194 -3.263078 6.0841618
000020 8c 45 78 41 23 05 b8 c0 9a 0a 8a 41 bf d1 a0 41
       15.516979 -5.750627 17.255177 20.102415
000030 d9 89 bd c1 55 30 71 c0 6b c9 29 c0 ff 2d 03 41
       -23.692308 -3.768575 -2.6529186 8.1987295
000040 89 9c ed c0 58 ba 09 41 4e 4b 3f 3f 87 99 52 41
       -7.4253583 8.607994 0.7472428 13.162482
000050 92 59 92 41 ed b0 a5 c1 86 56 c0 41 ec 62 84 c0
       18.293736 -20.71139 24.042248 -4.1370754
000060 a2 29 e4 c1 2c 18 be bf cf 68 c0 41 1a 4a ac c1
       -28.520329 -1.4851127 24.051176 -21.536182
000070 cb 8e 00 41 32 ac a6 c1 7f 4d 32 41 8b 48 11 40
       8.034862 -20.83408 11.14392 2.2700527
000080 43 98 f3 41 1a 25 56 41 d4 02 7a c1 47 6f 0c 41
       30.449347 13.384058 -15.62569 8.777167
000090 16 55 32 c1 54 24 a7 c1 21 7f 0a 42 97 21 c0 40
       -11.145773 -20.892738 34.62415 6.0041003
0000a0 1f 5f 80 41 ed d7 de 40 dd 76 7d c1 e4 93 38 41
       16.046446 6.963858 -15.841519 11.536106
0000b0 93 03 95 be 8f 64 cd c0 e7 25 34 40 d9 d1 63 bf
       -0.2910429 -6.418525 2.8148134 -0.8899208
0000c0 70 e5 17 40 67 01 25 c1 de f3 68 c1 77 44 20 c1
       2.3733788 -10.312842 -14.559538 -10.016715
0000d0 67 46 e7 c1 a6 b8 97 41 bb b2 b2 c1 96 12 89 c1
       -28.909376 18.96516 -22.33727 -17.134075
0000e0 3c 5a 3d 41 62 3b 72 c1 98 51 86 41 ce ee 94 40
       11.83453 -15.139498 16.78984 4.654151
0000f0 2d c3 10 c1 82 f6 83 41 6d cd 28 c1 9c b3 8c c1
       -9.04765 16.495365 -10.550153 -17.5877

bns.1.running_var f4 [64]
000000 7f 00 89 42 fd 0a 9d 42 99 9f 7d 43 f9 d6 a3 43
       68.50097 78.52146 253.62343 327.67947
000010 4f 4f d6 41 0b e0 85 3f 8c 7b 78 41 7b b9 a3 41
       26.788725 1.0458997 15.530163 20.465567
000020 19 09 5f 43 79 e4 29 41 e1 ab 49 43 cb 45 05 41
       223.03554 10.618279 201.6714 8.329539
000030 b7 ca 41 43 07 fa 05 43 eb 88 26 3f 28 65 e7 41
       193.79185 133.97667 0.6505267 28.924393
000040 8d 18 35 43 59 e6 80 41 57 02 44 41 9b 12 2b 43
       181.0959 16.112474 12.250571 171.07268
000050 17 67 b1 42 d5 7e 6c 43 2a 18 af 42 47 39 dd 42
       88.70135 236.49544 87.547195 110.61187
000060 47 0d 8a 41 82 3b 2e 43 75 0a 9c 43 04 d3 1e 41
       17.256483 174.23245 312.0817 9.9265175
000070 4c 37 96 43 70 5e 1e 43 82 e0 76 42 c2 a7 ac 42
       300.432 158.3689 61.719246 86.32765
000080 88 51 b4 42 2e fe f5 42 45 8c 89 43 e8 0e 3f 42
       90.15924 122.996445 275.09586 47.764557
000090 7c 8c b0 42 c3 61 25 44 b3 94 1d 42 d1 c0 a4 41
       88.27438 661.5275 39.395214 20.594149
0000a0 61 0c 2b 42 47 85 8e 41 3f d8 52 42 ed a8 9c 43
       42.76209 17.815077 52.711178 313.31973
0000b0 ac 85 83 42 2b da 0b 43 f1 02 f1 41 45 4d 28 43
       65.76108 139.85222 30.126436 168.30183
0000c0 e7 6d e5 42 17 dc c5 42 67 da f7 43 0f 01 2a 43
       114.71465 98.92986 495.70627 170.00414
0000d0 e4 39 e2 42 22 14 75 42 f3 c2 24 42 5f 7f 3f 43
       113.11307 61.26966 41.19038 191.49754
0000e0 2f 2b a6 43 10 1a fd 42 1d ad 09 43 ed ab 2f 43
       332.33737 126.5509 137.67622 175.67159
0000f0 f9 87 ae 43 4c 0f f8 40 53 f4 c7 41 96 8e a0 41
       349.0623 7.7518673 24.994299 20.069622

bns.2.running_mean f4 [64]
000000 18 71 33 42 4a fc 04 41 fa c5 1d c2 7d 38 a4 c1
       44.860443 8.311594 -39.443336 -20.527582
000010 43 73 94 41 07 59 c2 40 20 73 e6 41 d2 c1 21 40
       18.55628 6.0733676 28.806213 2.5274549
000020 25 bc d7 bf 15 b2 68 41 ff d7 3d c2 e5 4b d9 c1
       -1.6854292 14.543477 -47.460934 -27.162058
000030 d2 07 cb c1 31 8f 3c 42 b0 d3 a6 c0 21 57 94 41
       -25.378819 47.139835 -5.2133408 18.542543
000040 16 80 c5 41 d8 bb 09 c2 14 94 5a 41 0a 76 b3 41
       24.687542 -34.43344 13.661152 22.432636
000050 c8 43 29 c2 1e e8 1d c2 e8 38 28 c2 55 f1 ab c1
       -42.316193 -39.476677 -42.055573 -21.492838
000060 24 32 ce c0 fc 4a e0 c1 c5 c3 d8 c1 2f a9 1d 42
       -6.4436207 -28.036613 -27.09559 39.41522
000070 cf 2f 44 41 a1 1c a2 3f 27 0a 4e c1 9e d0 b4 c1
       12.261672 1.2664987 -12.877479 -22.601864
000080 f5 22 38 c1 16 d0 2d 42 f9 a1 5b 41 b3 2e 93 c1
       -11.508534 43.45321 13.727044 -18.397802
000090 46 b2 ab 41 d4 ca 0e c1 a8 be 63 c1 d0 de d7 c0
       21.462048 -8.924519 -14.234047 -6.745949
0000a0 df bc 96 c1 f5 8e 84 c1 8d a7 df 41 7a e7 1a c0
       -18.842222 -16.569803 27.956812 -2.4203782
0000b0 80 f8 ca c1 76 c4 04 c1 2d ef 0e 41 d8 bc dd c1
       -25.371338 -8.297964 8.933393 -27.717209
0000c0 8b 1c fb c1 05 2c 08 c1 b2 2b 00 c2 c3 61 16 42
       -31.388937 -8.510747 -32.04267 37.59547
0000d0 46 d8 dc c1 fe ee a2 41 ce 0d 1f 41 ad f8 85 41
       -27.605602 20.366695 9.94087 16.746424
0000e0 0f 12 17 40 23 ec 39 be c8 d8 ff c0 c5 64 e9 c0
       2.3604772 -0.18156485 -7.9952126 -7.293551
0000f0 1b ac 96 41 b2 2f fe c0 45 e3 e7 c1 e7 25 04 42
       18.834036 -7.943322 -28.985971 33.037014

bns.2.running_var f4 [64]
000000 5c 25 28 43 de b0 34 41 80 f6 8c 43 44 65 5c 43
       168.14594 11.29318 281.92578 220.39557
000010 0f fc c1 40 1b b6 6f 42 a9 8a b9 42 b7 d4 85 41
       6.062019 59.927837 92.77082 16.728865
000020 ef d5 20 42 50 cc c2 41 69 a8 3d 44 ef d6 30 43
       40.20892 24.349762 758.6314 176.83958
000030 26 7b 28 43 3a 5f c0 43 25 f5 96 41 c6 2b 4b 43
       168.48105 384.74396 18.8697 203.17099
000040 ac 3b 79 40 58 e1 a5 41 07 98 c0 42 af 36 09 43
       3.894267 20.735031 96.29693 137.21361
000050 52 6f e0 41 6e 1e 32 43 72 dd 24 43 88 30 63 43
       28.054356 178.11887 164.86502 227.18958
000060 46 16 f9 41 ca 7b 38 43 8b 8b 00 43 38 41 24 43
       31.135876 184.48355 128.54509 164.25476
000070 67 03 37 42 84 73 e4 42 1c 17 cf 41 52 44 09 42
       45.753323 114.22562 25.886284 34.31672
000080 d8 9c 06 43 85 95 2c 43 76 0a 6d 42 94 55 67 42
       134.61267 172.58406 59.260216 57.833572
000090 7e e9 5e 43 7f a9 a8 42 9f 5f 51 41 6b d6 73 42
       222.91208 84.33105 13.085845 60.959393
0000a0 c2 ba b4 42 f0 7e c3 42 03 f0 f8 42 b7 7b d5 42
       90.36476 97.747925 124.46877 106.74163
0000b0 8b 5a 2c 43 20 c9 66 42 80 04 0c 41 6e 44 23 43
       172.35368 57.69641 8.751099 163.2673
0000c0 80 75 2f 42 91 02 ca 41 b8 92 cb 40 f0 6b ca 42
       43.864746 25.251253 6.36166 101.210815
0000d0 9b 8a 96 43 e8 df fe 42 8f 1f 7c 43 31 56 b4 42
       301.08286 127.43732 252.12328 90.16834
0000e0 bc f0 39 42 24 df ef 42 88 61 40 42 aa 89 cb 42
       46.485092 119.93582 48.095245 101.768875
0000f0 70 94 d5 42 df 42 c8 41 aa 4e c6 42 97 fc 3f 43
       106.78992 25.032652 99.15364 191.98668

nns.0.0.weight f4 [64, 136]
000000 8d 81 8c 32 62 e6 ca ad 9d d1 14 aa 00 cc e9 bc
       1.6357058e-08 -2.3067052e-11 -1.3217765e-13 -0.028539658
000010 7e 17 d0 3d 36 73 3e bd 51 36 0c 3d 89 97 38 3c
       0.10160731 -0.046496592 0.034231488 0.011266598
000020 ee fc 29 be 9c 71 be bd b7 19 1a be 56 83 6e 3d
       -0.16600391 -0.09299013 -0.15048872 0.05823072
000030 ef 07 6d 3d 55 0d e4 3d f6 42 b6 39 ad 8b 98 bd
       0.057868894 0.111353554 0.00034763635 -0.07448516
000040 4f 99 ba 3d fa 61 8f 3d e4 fb ea bd 34 c0 7f 3d
       0.091112725 0.070011094 -0.114738256 0.06243916
000050 7b 06 96 ab fc 25 d2 bd 89 3f 2a ba d5 9f 67 bd
       -1.065994e-12 -0.10261151 -0.0006494453 -0.056548912
000060 d5 45 23 ba 21 cc 14 b8 6f 76 19 b8 41 47 68 2a
       -0.00062283623 -3.547606e-05 -3.6588342e-05 2.063046e-13
000070 76 c4 80 ac ff cc ae bd bf 80 36 bb fd 33 11 2d
       -3.6597904e-12 -0.08535194 -0.0027847735 8.2538395e-12
000080 8a 42 c4 2d 58 9a 17 36 a6 f8 4f 39 80 cc 8b 2c
       2.231217e-11 2.2590593e-06 0.00019833687 3.9733217e-12
000090 85 7d f8 38 99 f0 64 2b 76 da a1 ac 8b 2f 8d af
       0.00011848941 8.133577e-13 -4.6001493e-12 -2.5681532e-10
0000a0 44 c2 76 32 a1 e0 74 ae 91 e6 07 aa a2 95 62 30
       1.43632555e-08 -5.5678687e-11 -1.2070402e-13 8.243096e-10
0000b0 db 50 70 39 db 96 92 bd 14 92 40 ad 90 d2 b0 b3
       0.00022918305 -0.0715768 -1.0946372e-11 -8.23394e-08
0000c0 c7 b4 88 aa b9 e6 8c 2a 73 af 3a 37 a7 29 7f 37
       -2.4283892e-13 2.5029092e-13 1.1127314e-05 1.5208882e-05
0000d0 b3 4d 81 ac 48 1b 1a 2b 83 26 29 2c e5 55 8a 27
       -3.675027e-12 5.474965e-13 2.4037723e-12 3.839582e-15
0000e0 ee 93 ee 38 5f 2d b2 38 fd 07 41 2b 1a a6 81 32
       0.000113762784 8.4961524e-05 6.857846e-13 1.509311e-08
0000f0 97 b8 80 30 c4 89 28 2d f4 95 92 2c 5f 4a 31 2d
       9.365689e-10 9.5802845e-12 4.1662177e-12 1.0077799e-11
000100 0d cc 5f 32 f2 74 d5 29 09 f8 d6 ab d6 da 86 37
       1.3026704e-08 9.479387e-14 -1.5274458e-12 1.6075948e-05
000110 c6 b0 8e 2d 0f 75 da 2f bc 9a 9f 30 7e 15 47 b9
       1.6222034e-11 3.9737144e-10 1.1612751e-09 -0.00018986125
000120 e9 cf 8d 38 18 ac 6c 37 4c df 1b 37 0c 93 9c 33
       6.76213e-05 1.4106765e-05 9.29071e-06 7.291064e-08
000130 8d bd 35 b4 e4 58 30 2a 37 58 2b 29 46 62 3f ad
       -1.6925897e-07 1.566278e-13 3.804614e-14 -1.0878914e-11
000140 d2 26 94 aa 68 8e fe 38 be 7b f6 31 55 97 23 2a
       -2.6317018e-13 0.00012138189 7.17361e-09 1.4529812e-13
000150 50 26 c3 28 56 0d ab b9 f6 eb 5e 34 f4 df 8e b2
       2.1665964e-14 -0.00032625598 2.0761203e-07 -1.6632818e-08
000160 a5 d5 14 af 21 49 9e b8 6b 8f 17 2e 97 72 16 2b
       -1.3536423e-10 -7.5476484e-05 3.4460806e-11 5.344973e-13
000170 58 30 25 39 74 70 9b ad 58 d9 40 38 08 0c f3 31
       0.00015753636 -1.7671399e-11 4.5978784e-05 7.0735986e-09
000180 a1 4f a3 2d 5e 4b 87 ad 71 7d fd a9 28 2b 81 b9
       1.8566317e-11 -1.5381193e-11 -1.12572176e-13 -0.0002463695
000190 10 36 19 b1 61 e1 f6 a9 90 3d a5 2a b1 cc 56 aa
       -2.2295161e-09 -1.09636916e-13 2.9352605e-13 -1.9078035e-13
0001a0 a5 87 63 a9 45 94 19 b9 67 1b 88 2c 1d 17 14 ab
       -5.0521778e-14 -0.00014646452 3.8683948e-12 -5.261224e-13
0001b0 dc e7 a1 2c c9 81 18 b5 97 12 c6 ad d9 c2 5c 2b
       4.6016368e-12 -5.6813275e-07 -2.251825e-11 7.8430106e-13
0001c0 5d 23 dd b6 e2 8e 8d 37 f2 69 3a 2f 1b 54 c5 2c
       -6.59043e-06 1.6875045e-05 1.6954241e-10 5.6084143e-12
0001d0 31 2b c7 a5 0b 4d 04 36 69 83 2d 2b 93 73 cb ac
       -3.4550265e-16 1.9714378e-06 6.1644315e-13 -5.7824383e-12
0001e0 df 96 32 ab 94 cd 32 ab 07 ec c5 2a e7 3e 8a 32
       -6.344768e-13 -6.35236e-13 3.5158007e-13 1.6093919e-08
0001f0 50 94 32 2f 1a 30 95 a9 cc f8 91 31 cc f5 a9 a9
       1.6241697e-10 -6.6252735e-14 4.2483403e-09 -7.5477466e-14
000200 5c 17 88 29 43 5d 7c b2 76 d0 3c 2c 82 d7 9e b0
       6.0436655e-14 -1.4689536e-08 2.6832126e-12 -1.1557264e-09
000210 e8 90 b1 ae 6a e8 d2 ab 63 80 c5 2b f1 6d dc 2f
       -8.0747686e-11 -1.4985905e-12 1.4033326e-12 4.0095885e-10
000220 98 84 8c 37 24 02 bc 2e c0 8b e7 aa ce 4f 1a 3a
       1.6751044e-05 8.5496304e-11 -4.1130814e-13 0.00058865256
000230 5d c4 17 be 27 f6 20 3d 97 79 f8 3d c4 ba 22 bd
       -0.14821 0.03929725 0.121325664 -0.039728895
000240 b1 ed 1c 3e fe ae bf bd 50 5f 06 3e 4a 11 f5 bc
       0.15325047 -0.09359549 0.13122296 -0.02991547
000250 86 bf 2a 3e 26 7b ff 3d b2 99 ac bd 9f 59 73 3d
       0.16674623 0.124746606 -0.084277526 0.05941164
000260 b6 ac 74 3d 9d 07 bc 3d cd 0b 97 3d 37 c9 6f bd
       0.059735022 0.091811396 0.07375298 -0.058541503
000270 c2 f3 87 2e cf c4 bf bb ef 03 19 3c f3 fc e2 3d
       6.182389e-11 -0.005852319 0.009339317 0.110834025
000280 dd 5d 17 3d 3c 8c 06 b6 aa f8 96 aa 8b 07 34 39
       0.03695475 -2.0049183e-06 -2.6817898e-13 0.00017168948
000290 b6 a1 4e 39 f4 24 1a 3d b8 6c 1f bd a4 59 82 39
       0.00019705933 0.037632897 -0.03892204 0.0002486232
0002a0 5d 8d 78 39 aa 7d 8c b8 8e 26 36 af 57 b4 23 b9
       0.00023703785 -6.699127e-05 -1.6566501e-10 -0.00015612073
0002b0 79 0c b0 b9 de 18 06 2c d6 c8 b3 30 fd 7c fa b4
       -0.0003357863 1.905635e-12 1.3081045e-09 -4.665707e-07
0002c0 3e 48 49 af fd de 9a af 7b fb 62 b9 49 be 44 39
       -1.8306509e-10 -2.817088e-10 -0.00021646723 0.00018762903
0002d0 a4 0a 00 39 e6 36 af bd 13 e0 0f b3 3c 47 60 a9
       0.00012210995 -0.08555393 -3.3498576e-08 -4.9799777e-14
0002e0 e9 cd 8f b2 cf a8 66 2b 72 de 2b b6 9a b3 21 b9
       -1.6741028e-08 8.1946684e-13 -2.5610466e-06 -0.00015421063
0002f0 ff e4 ae b8 d2 5b b0 b9 b2 dc b8 ad bf 07 82 2a
       -8.3396204e-05 -0.00033637747 -2.1016387e-11 2.3098014e-13
000300 c5 82 b1 2a 2f 5e ff ac c5 30 18 aa b9 01 96 2a
       3.1532256e-13 -7.2579924e-12 -1.3517232e-13 2.6646548e-13
000310 96 cb a7 b9 f5 4f 04 39 3c f2 a6 b9 14 a2 64 2c
       -0.00032004406 0.00012618287 -0.00031842466 3.249072e-12
000320 2f 56 83 38 2d 35 1e 2e 18 67 9c ad b7 cd 05 2b
       6.26262e-05 3.597227e-11 -1.778093e-11 4.753658e-13
000330 8e 09 ad ac 0d d2 b0 2a 7e e1 40 29 e2 cd 01 2f
       -4.9180165e-12 3.1409632e-13 4.2828147e-14 1.1805626e-10
000340 f1 82 bd aa d0 6d 42 35 b8 f6 a3 ab 2c aa 8f 32
       -3.3664003e-13 7.243043e-07 -1.1650325e-12 1.6724776e-08
000350 d7 52 06 b0 2f b1 b9 2e eb 78 83 a5 55 0b 81 af
       -4.886664e-10 8.4443e-11 -2.2806815e-16 -2.3473015e-10
000360 a1 02 d9 38 3b 47 97 36 f9 e6 b4 ab 98 12 1f 36
       0.00010347856 4.508443e-06 -1.2853877e-12 2.370367e-06
000370 12 02 64 2b f5 63 d5 ab a8 d2 39 2f 89 1a 70 ae
       8.1004745e-13 -1.5162304e-12 1.6900492e-10 -5.459325e-11
000380 6b ea 57 b9 9a 4b 39 aa 1e 07 12 b4 62 6a 4b 2a
       -0.00020591325 -1.645753e-13 -1.3599899e-07 1.8066931e-13
000390 dd fc 52 aa c1 21 40 af 8f b4 9d 2c 4f 82 1c 38
       -1.8739476e-13 -1.747429e-10 4.4822544e-12 3.7314658e-05
0003a0 ff 88 78 2b 0c 00 f2 aa 75 19 3b ad 0e f8 03 38
       8.829742e-13 -4.2987868e-13 -1.0635372e-11 3.1463853e-05
0003b0 12 0a 65 ab a1 f3 b4 ab d8 a8 0a ab a4 3e d4 35
       -8.137112e-13 -1.285739e-12 -4.9261767e-13 1.5813462e-06
0003c0 35 de 8f b9 5c e9 c4 ab 78 db 6d ac 4c bb f6 ae
       -0.00027440643 -1.3991408e-12 -3.3801555e-12 -1.12200554e-10
0003d0 28 8c 10 39 28 09 69 b3 89 c4 cf a9 78 61 76 b9
       0.00013785122 -5.4257868e-08 -9.22674e-14 -0.00023496698
0003e0 a4 e5 0e 30 0a 36 ea 2b 9d 8f 4b b2 c3 13 65 ad
       5.198564e-10 1.6641699e-12 -1.1848809e-08 -1.3021531e-11
0003f0 17 a3 b6 ad 76 5a 6f aa a2 dd a6 b0 84 c0 3d 2a
       -2.0763431e-11 -2.1258849e-13 -1.2141081e-09 1.6853364e-13

nns.0.0.bias f4 [64]
000000 54 6f 47 bd ad 8f bb bc 5a 31 56 bc f1 6e 30 3c
       -0.048690155 -0.022895658 -0.01307329 0.010768638
000010 95 16 fe 38 2f b0 2f 3d 28 d5 ba 3c 61 4a 1f bd
       0.0001211587 0.04289263 0.022806719 -0.038889293
000020 43 ce b2 3c 69 98 1e bd 8f b7 c9 3c 5b 61 27 bc
       0.021826869 -0.03871957 0.02462366 -0.010216082
000030 46 ae b6 b7 04 84 11 b7 af 28 7b bb 0a 30 23 3c
       -2.1777243e-05 -8.673411e-06 -0.003832381 0.009960184
000040 c4 1f 2a bc e7 1f 35 bd da 63 c7 30 9c 91 e3 3b
       -0.01038355 -0.044219878 1.4507535e-09 0.006944848
000050 88 74 bf b6 54 9f 37 3c 99 49 1c bb 8c 92 17 3b
       -5.7058096e-06 0.01120742 -0.0023847579 0.002312812
000060 ef 0b b7 bb 41 ad c1 bb d3 84 7e 3a 83 b2 b6 b5
       -0.0055861394 -0.005910546 0.00097091234 -1.361201e-06
000070 a1 b5 6b b8 8a eb 8a 3d 23 1e ec 3c 06 c2 00 3d
       -5.619752e-05 0.06783207 0.028822964 0.031435035
000080 93 bd 81 3c 74 82 b8 bc 09 30 18 bc 65 99 f6 b6
       0.015837466 -0.022523142 -0.009288796 -7.349229e-06
000090 4a 10 83 3c 8d 42 7a 3b 2b dd c0 36 ab 54 03 bb
       0.015998978 0.003818664 5.7477932e-06 -0.002003948
0000a0 99 8e ac bb 15 fc 8c bd 95 23 38 3d ca 17 65 3c
       -0.0052660224 -0.06884018 0.04495581 0.013982723
0000b0 aa c6 83 bd e5 5d 29 39 06 06 83 bb 3f 3c 37 b7
       -0.064343765 0.00016152074 -0.003998521 -1.0921677e-05
0000c0 0f df 24 3d 25 9a cc 3c 86 97 03 bd e3 52 3f 3a
       0.040251788 0.024975846 -0.032126926 0.0007298423
0000d0 64 74 3d bc d9 8e 79 3b 2d ef de 3b 91 0c 0f b9
       -0.011563394 0.0038079529 0.0068034143 -0.00013642224
0000e0 f3 8e 0f bd 6d ea 84 31 4d bc be 3c 1a 7a 01 bd
       -0.035048436 3.8683567e-09 0.023283148 -0.031610586
0000f0 25 9d 29 b7 ef b4 1c bd d4 46 9e bb 34 74 fe 3b
       -1.0109773e-05 -0.03825849 -0.0048302207 0.0077653173

nns.0.2.weight f4 [64, 64]
000000 8e 42 aa bd 2b 7c 78 bd 14 4e bd bd 0e fa 2d 3e
       -0.083134755 -0.06066529 -0.09243408 0.1698992
000010 1c 2c 7b 3d 10 38 1c be 8d 95 28 3d 7d b1 f4 3d
       0.061321363 -0.15255761 0.041158248 0.11947916
000020 05 6f 76 be 6a 00 39 be cf 23 d1 bd a4 e0 ce 3c
       -0.24065788 -0.18066564 -0.10211908 0.025253601
000030 67 e2 ce 3d c6 20 b3 3d a6 e0 b5 3c d5 d5 f6 3c
       0.101017766 0.087464854 0.022201847 0.03013126
000040 d7 5a f8 3d 88 4a 37 3d 3e 4c 71 bc 93 82 72 bc
       0.12126701 0.044748813 -0.01472765 -0.014801639
000050 0f f8 16 bd 66 32 6a 3b 42 7d fa 3d d3 cc 04 bd
       -0.03685766 0.0035735606 0.12230922 -0.032421898
000060 d2 6e 7a 3b 01 e8 4a 3d 94 89 28 be 56 5d 6c 3d
       0.0038213027 0.049537662 -0.16458732 0.0577062
000070 c7 47 c5 b9 be 88 fa 3d 09 21 6b 3d b4 61 ea bc
       -0.00037628246 0.12233113 0.05740455 -0.028611042
000080 ae 41 a8 3d e9 0f 56 bd 05 c4 56 be d3 93 92 3d
       0.082156524 -0.052261267 -0.20973213 0.071571015
000090 1c 7a 33 3c 90 53 b8 bb f5 43 5a bb d3 f7 81 b9
       0.010954406 -0.005625196 -0.0033304666 -0.0002478944
0000a0 86 b9 c3 3c 5e 70 37 bc f1 c4 6a 3d 8b 2f 3f 3e
       0.023892175 -0.011196224 0.057316724 0.1867048
0000b0 65 35 1c bd ca dc 86 bd b9 70 7f 3d 17 d9 20 be
       -0.03813686 -0.06585081 0.06236336 -0.15707813
0000c0 cd 0c 8d bd 29 8d a0 3d a6 88 13 bc 44 88 84 3c
       -0.06887207 0.07839424 -0.0090047475 0.016178258
0000d0 68 5d ca bc 2b 77 ed 3d be cc c8 bd 7f 1c 22 bd
       -0.024702743 0.11594995 -0.098046765 -0.039577957
0000e0 e4 39 1c be be 2e 9f 3b 2a 3e 86 3d 3c c1 f8 3d
       -0.15256459 0.004857867 0.065548256 0.121462315
0000f0 0d 92 0a bc a6 02 86 bd e2 4e 19 bc e9 4c d9 3d
       -0.008457673 -0.06543474 -0.009357186 0.106103726
000100 c1 6f 92 bd 6a a9 a5 3d dd 51 2b 3d 93 32 bc 3c
       -0.071502216 0.08088954 0.041826118 0.022973334
000110 52 81 d2 3d 60 6f ba 3d 23 a5 90 bd 04 72 1d be
       0.10278572 0.09103274 -0.07062747 -0.15375525
000120 75 af 3d bd 32 b1 9c bd 55 c6 ae 3c 8f 27 1d 3d
       -0.046309907 -0.07650985 0.021334806 0.038367804
000130 37 18 a5 3d 17 81 03 3d b7 97 41 bd f9 ab a9 3d
       0.08061259 0.03210553 -0.047263827 0.08284754
000140 e7 e0 36 3e 60 fc 06 be 72 b1 62 3b 0e 87 e7 bd
       0.17859231 -0.13182211 0.003459063 -0.113050565
000150 67 3e da 3c 95 75 07 3c 6f cc 14 3e 41 82 ab 3b
       0.026641084 0.00826778 0.1453111 0.0052340333
000160 33 9b f7 bc 43 76 75 bd 78 59 3a bb 08 6e 29 bd
       -0.030225372 -0.059927236 -0.0028434675 -0.0413647
000170 36 31 93 bb 36 7a e4 3d e7 0f 82 bd b4 a2 b4 bd
       -0.0044919504 0.111561224 -0.063506894 -0.08820096
000180 0b ad 23 be 7a 12 88 3c 18 cd 1b 3e 39 95 15 bb
       -0.1598398 0.016610373 0.15214956 -0.002282454
000190 2e b6 8f bd 01 f6 89 ba 06 02 42 3d d2 be 51 bb
       -0.0701717 -0.0010525585 0.04736521 -0.0032004607
0001a0 8c 27 0c be fe 7d 8c bd de fe 55 bd f8 1c 25 be
       -0.13686961 -0.068599686 -0.052245013 -0.16124332
0001b0 b4 86 8f bc d1 e7 95 bd c0 23 ab bd 2f e6 5d 3c
       -0.017520286 -0.07319606 -0.08356428 0.01354365
0001c0 1d e3 91 bc 2e 6c 0c 3c 70 50 3e be 5b 06 4b be
       -0.017808491 0.008570714 -0.18585372 -0.19826643
0001d0 99 66 6f 3d 6f 79 37 be 02 a7 91 3c 2a 8e 6b bd
       0.058447454 -0.17917417 0.01777983 -0.057508625
0001e0 b2 2d 8e 3c c0 d3 a4 bb 04 5d eb bd 5a fc e3 bd
       0.017355774 -0.0050301254 -0.11492351 -0.111321166
0001f0 39 69 15 bc c1 16 13 bd 4d 0d 35 3d 87 ae 29 be
       -0.009119325 -0.03591037 0.044202138 -0.16570483
000200 12 98 41 be 6e 9f 14 bd ed 3c 31 be 65 5f 75 3d
       -0.18905666 -0.036284856 -0.17308398 0.05990543
000210 e7 ed 31 3c cd 30 fe 3b 5d 60 d4 3d 35 a0 08 be
       0.010859943 0.0077572824 0.10369942 -0.13342364
000220 91 78 f9 bd 14 9f 45 bd 6b 95 1b bc 25 12 58 3e
       -0.12181199 -0.04824741 -0.009496073 0.21100672
000230 91 c2 f5 bc 04 61 09 be de 84 05 3c f7 60 c7 3c
       -0.030000003 -0.13415915 0.008149354 0.024338229
000240 96 e3 61 3c 52 07 0f 3e f2 59 88 bc c0 0f 30 3e
       0.013787171 0.13967636 -0.016644452 0.17193508
000250 44 93 cf 3d 3d 98 d2 39 37 2d fd 3d 98 d6 af b9
       0.101355106 0.00040167748 0.1236214 -0.00033538486
000260 32 8e 4d 3c 1a 60 01 bd 58 c8 a9 bd ed 09 79 bc
       0.012546109 -0.03158579 -0.08290166 -0.01520012
000270 bb f0 27 b9 b2 4c 31 3e 94 32 33 3c 21 c3 e1 3d
       -0.0001601604 0.17314413 0.010937352 0.11023546
000280 2f 18 1b be 51 ea 4d bc 2d 46 57 be 77 2a 91 bb
       -0.15145944 -0.012568072 -0.21022864 -0.004430111
000290 99 1e 76 3c 9a 7f c4 bc 69 66 09 3e fc 6a b0 3a
       0.0150219435 -0.023986626 0.13417973 0.0013459618
0002a0 aa 54 c2 bd ea 64 12 3e 19 9a a0 bd 46 0d 98 bd
       -0.09488805 0.14296308 -0.07841892 -0.07424407
0002b0 7d ab 18 3e e6 83 2a be eb fb 67 bd bf a1 a6 3c
       0.14909168 -0.16651878 -0.056636732 0.020340798
0002c0 e9 12 39 3d fb ba ce 3b 60 b1 86 3d 82 a1 81 bd
       0.04518405 0.006308911 0.065768 -0.06329633
0002d0 46 09 82 3d 46 b1 a5 bb 95 6b e3 bc 4a 1e 3e 3d
       0.06349425 -0.005056533 -0.02776126 0.046415605
0002e0 26 89 2d bd f8 4d d4 3b 80 84 52 3d 94 ee 92 bd
       -0.042367123 0.006479021 0.051395893 -0.071744114
0002f0 21 74 f4 bc 71 f8 0d 3e 40 fd f6 bc ac 00 41 3c
       -0.02984053 0.13864304 -0.030150056 0.011779945
000300 35 cf e6 3d 7f bd 4d 3d 2c 2e a6 bd 1a c8 0e be
       0.1126999 0.050229546 -0.08114275 -0.1394352
000310 a4 a5 7d 3d e2 60 07 be 4a 31 15 be 0f 0f 8d 3d
       0.061925545 -0.13220552 -0.14569584 0.06887638
000320 12 1f b1 bc 77 87 b3 3d 96 67 e8 3d de 63 af 3b
       -0.02162126 0.08766072 0.113478824 0.0053524813
000330 db 38 61 bd 2e fb cb bd 0f 6d 30 bd c3 89 b3 3d
       -0.054985862 -0.09960018 -0.043072756 0.0876651
000340 1f d3 0d bd cf 58 64 bd 20 24 5d 38 c0 5c ff 3d
       -0.03462517 -0.055748757 5.272415e-05 0.124688625
000350 0e a7 e0 3c f2 fb e6 b9 6c 4e cb bd 8f 67 a5 39
       0.027423408 -0.00044056732 -0.09927067 0.0003154841
000360 26 12 28 3b 01 93 ff bd 52 92 8f 3d 46 43 a4 3c
       0.0025645583 -0.12479211 0.0701033 0.02005161
000370 c7 ee 00 bb a0 38 84 bc 75 c7 c9 bd 5f 42 f7 bd
       -0.0019673572 -0.016140282 -0.098524965 -0.12073206
000380 ea e3 24 3e b0 2d 74 3d c5 d0 13 3e 43 ed 2e 3d
       0.16102567 0.059613883 0.14435108 0.04270674
000390 0f 8c 0f be 16 ce 64 37 ea fa 1b be 2c 4b 65 bc
       -0.14018272 1.3637842e-05 -0.15232435 -0.013994973
0003a0 39 d3 f0 bd a1 0d f4 bd f0 c7 b1 bd c0 29 13 be
       -0.117590375 -0.11916662 -0.08680713 -0.14371395
0003b0 8b e2 e6 bc f2 e6 08 3e a5 f8 91 3d b7 f1 51 3e
       -0.028184196 0.13369349 0.07127503 0.20502363
0003c0 38 46 ed 3b 49 9f da 3c 16 29 2c 3e 6f 6e b7 bd
       0.0072410367 0.026687281 0.16812548 -0.089566104
0003d0 8c 8a 46 bc 91 ba 67 3e 54 a9 0c b9 71 fa f7 bc
       -0.012117993 0.22629763 -0.0001341452 -0.030270787
0003e0 71 21 31 be ca ae fa bb ba d7 d4 3d d1 f5 00 be
       -0.17297913 -0.007650231 0.10392709 -0.12593772
0003f0 c1 f2 9d 3c 51 a2 15 be b3 80 65 bc 80 76 d1 bd
       0.019280793 -0.146127 -0.014007735 -0.1022768

nns.0.2.bias f4 [64]
000000 a7 d2 e5 b6 4f 1f c1 36 b9 91 cb b5 f6 de a7 36
       -6.849255e-06 5.755493e-06 -1.516709e-06 5.002944e-06
000010 c1 3b 37 b6 bd 72 33 36 49 93 88 b6 6f f5 fd 35
       -2.7303906e-06 2.6739865e-06 -4.070262e-06 1.89214e-06
000020 03 19 b2 b7 ee 70 62 b5 fb 5f 91 36 ce 71 82 b6
       -2.12309e-05 -8.4355895e-07 4.3325103e-06 -3.8875505e-06
000030 78 ea 87 35 62 d9 b1 b5 e9 e2 1c 36 4c 20 cb b5
       1.0126523e-06 -1.3250794e-06 2.337789e-06 -1.5134078e-06
000040 f7 f4 18 b4 86 fc 8d 36 63 4a 30 36 0d 13 b9 b6
       -1.4245221e-07 4.231525e-06 2.6269342e-06 -5.5156474e-06
000050 59 f4 c7 36 d7 f9 88 36 35 45 dd 35 0c d9 f2 b6
       5.959108e-06 4.082201e-06 1.6485925e-06 -7.2374296e-06
000060 bd 74 93 b6 cc 80 ff 36 9c e0 00 b7 d3 2d b1 37
       -4.3945315e-06 7.614586e-06 -7.6816905e-06 2.1121383e-05
000070 52 01 13 35 8b 4c 14 b7 b8 8e e8 b6 7e 8d e4 b6
       5.476369e-07 -8.839309e-06 -6.9307534e-06 -6.8114014e-06
000080 7a 1f 73 b7 02 1d 7e 36 7d 90 a2 35 f2 0d 26 b7
       -1.4491257e-05 3.7865834e-06 1.2111992e-06 -9.897618e-06
000090 0f 27 35 b5 7d a3 71 b7 8e 34 92 35 7c 18 b6 b6
       -6.748459e-07 -1.44027845e-05 1.0893143e-06 -5.426873e-06
0000a0 9c f5 a3 36 e3 e0 db b6 0d 5b c1 33 8a 4f ad 37
       4.8863712e-06 -6.552889e-06 9.003825e-08 2.0660245e-05
0000b0 64 3c 51 34 9d a0 d0 34 11 d1 fa b6 75 15 bb 33
       1.9486612e-07 3.885988e-07 -7.474919e-06 8.711769e-08
0000c0 18 1e 35 38 79 52 62 b4 cc fb 52 b6 15 49 0f 37
       4.318179e-05 -2.1077894e-07 -3.1439004e-06 8.54048e-06
0000d0 29 8c 4f b4 32 82 2e 37 52 27 fb b4 be da 6e b7
       -1.9329367e-07 1.0401522e-05 -4.6781003e-07 -1.4236835e-05
0000e0 b1 8c b1 37 ba b7 d0 36 fb 8e 4d 34 61 97 15 b8
       2.1165559e-05 6.2202716e-06 1.9144129e-07 -3.566535e-05
0000f0 be 1b 0b 37 fb fa 52 34 72 3d 3f 37 c2 d6 47 b7
       8.291505e-06 1.964908e-07 1.13987935e-05 -1.19113265e-05

nns.1.0.weight f4 [64, 64]
000000 01 56 41 3e dc 5b 6e bd 2d af ac bb cb 78 d7 bd
       0.18880464 -0.058193073 -0.005269906 -0.10521086
000010 6e d4 3b bc c2 8a e7 3d a8 ef 32 3d c8 82 98 bd
       -0.011464221 0.11305763 0.043685585 -0.074468195
000020 06 3d 0c 3d 02 68 64 bd 9a 21 ec bd 98 0c 47 bd
       0.034237884 -0.055763252 -0.115298465 -0.048595995
000030 ed db 23 bd ef 26 85 3d d1 71 2e be 0a c4 b3 bd
       -0.04000466 0.065015666 -0.17035605 -0.08777626
000040 66 72 87 3d 73 10 9c bd bf 43 af 3d b2 53 9a bd
       0.06613617 -0.07620325 0.085578434 -0.07535495
000050 75 78 61 3e a2 56 3c 3e e2 59 10 3e d8 b4 3c be
       0.22018607 0.18392423 0.14096788 -0.18428361
000060 46 53 33 3e 92 a2 3f be ff 02 11 bd cc 6a be bd
       0.17512235 -0.1871436 -0.035403248 -0.09297714
000070 8b 4b b0 bc 86 21 c2 3d 45 94 a8 3d 55 4a 5a bd
       -0.021520397 0.0947905 0.08231405 -0.053293545
000080 0f fa ed bc 7f 40 26 be 45 c7 d2 3c 49 22 5d bd
       -0.029049901 -0.16235541 0.025729785 -0.053987775
000090 44 cd 2f be 7b 51 00 3e 17 80 54 3c 43 a1 d4 3d
       -0.17168146 0.12531082 0.012969992 0.10382321
0000a0 61 f8 db 3d 28 b6 31 3e 0f 1a 87 bd bb 17 f4 bd
       0.10740734 0.17354643 -0.06596767 -0.11918589
0000b0 03 02 01 3e 7d 79 4f be 42 05 8c bd 41 1e 56 3d
       0.12598424 -0.20261188 -0.0683694 0.052274946
0000c0 bb 2d ed 3c 47 b4 0d 3e 7f bb 71 be 6b f4 04 3e
       0.02895247 0.13838302 -0.2360668 0.12983863
0000d0 96 e3 50 3d c3 38 0a 3e 19 d1 0a be 07 6a 17 be
       0.050998293 0.13498215 -0.13556327 -0.1478654
0000e0 73 e8 26 3e 50 53 eb 3d c3 ed 2c be fb e1 64 be
       0.1629961 0.114905 -0.16887574 -0.2235183
0000f0 47 56 de 3d c3 ed 87 3c 36 a3 83 bd 69 cc 19 bb
       0.108563 0.016592866 -0.064276144 -0.0023467785
000100 6b 11 28 3e 34 90 53 3d f6 49 1e 3e 4e 68 2c be
       0.16412894 0.051651195 0.15457901 -0.16836664
000110 bf d9 3b 3d 3b 81 3e 3e 04 23 bf bc 07 ba 05 be
       0.045861956 0.18603985 -0.023332126 -0.13059245
000120 d9 b9 45 bc 14 3f 53 3a 6e 56 7a bd 2f bb b6 bd
       -0.012068235 0.00080584106 -0.061117582 -0.08922421
000130 a5 58 b4 3d 36 91 75 3d 31 57 12 be 46 ab 39 be
       0.0880597 0.059952937 -0.14291073 -0.18131742
000140 6a 27 44 3e 2c 59 87 bd 10 08 55 3d d6 2f 2b 3e
       0.1915566 -0.06608805 0.052009642 0.16717467
000150 a7 0a ce 3d fc 98 a8 bd 49 8a 8e bc ee ef e7 3b
       0.100606255 -0.082323045 -0.017399924 0.0070781624
000160 81 48 ed bc 18 e0 6a 3d 63 45 aa bd a9 27 3d be
       -0.028965237 0.05734262 -0.08314016 -0.1847216
000170 51 55 d1 bd 6b 1e 56 3d 31 c1 f0 3d b1 ce 74 3d
       -0.10221351 0.052275103 0.11755598 0.05976743
000180 a6 94 26 be ce d8 77 bc 8e 95 bd 3d 54 49 2d 3d
       -0.16267642 -0.015127374 0.09257041 0.04230626
000190 fe 41 10 3e 51 6e 11 be 2f 99 a3 bc 9b b1 0f 3e
       0.14087674 -0.14202239 -0.019970505 0.14032595
0001a0 ca 81 31 3d 8c fe 23 3e 13 20 1d 3e 50 70 05 be
       0.043336667 0.1601507 0.15344267 -0.13031125
0001b0 11 dc 3f 3d 59 29 34 3e f7 c4 14 be 71 b9 dd bd
       0.04684073 0.17593898 -0.14528261 -0.10826386
0001c0 5d 58 56 3d 51 0d 47 be 86 f8 8a bd 6a 24 d7 3d
       0.052330364 -0.19438674 -0.06785683 0.10504992
0001d0 00 31 b3 3d a8 8d e0 bd 3a c6 3f bd ad a2 32 be
       0.087495804 -0.10964519 -0.046819903 -0.17444868
0001e0 96 b4 b8 3d c0 28 1c 3e ca bd 19 3e 40 29 86 bb
       0.09018819 0.1524992 0.15013805 -0.004094273
0001f0 2d 31 22 be f1 2b 87 bd 7c a7 95 bc a6 94 70 bd
       -0.15839072 -0.06600178 -0.01826834 -0.058735512
000200 db 63 d1 3c cf 0f 47 3e 6b 9f 29 bc 2e 58 39 bb
       0.02556031 0.19439624 -0.01035295 -0.002828132
000210 d3 f3 1f 3e 2b 8d 40 3e df 9f ee bd b7 ea 09 be
       0.15620355 0.18803851 -0.11651587 -0.13468443
000220 4f ed 86 3d 38 34 30 be a3 f8 a8 bc 50 ae 0f 3e
       0.06588232 -0.1720742 -0.020626372 0.14031339
000230 32 72 21 be 45 a1 d2 3c ca d4 1e 3e 76 fb b6 3d
       -0.15766218 0.025711665 0.1551086 0.08934681
000240 44 5d 20 3d 6c 94 4e 3e b3 db a8 3d 84 80 3c 3e
       0.039151445 0.20173806 0.08245029 0.184084
000250 ea 5e 0e be 22 5a 43 3e f7 fe 9d bd f0 6b be ba
       -0.13903394 0.19077352 -0.07714646 -0.0014528017
000260 c2 b7 04 3e 33 d2 91 bd 82 2e 06 be f8 2b f4 bd
       0.12960723 -0.071201704 -0.13103679 -0.11922449
000270 be 9f 0c 3e c3 d5 32 be 54 55 2a be 7e 1e 4a 3e
       0.13732812 -0.17464356 -0.16634113 0.19738194
000280 37 8c e4 bd 22 a9 47 bd 4d 29 4f 3c 19 14 2f be
       -0.11159556 -0.048745282 0.012644124 -0.1709751
000290 f2 9f 99 bd 9c c1 5c 3e 1d e7 0c 3e c2 be 2f be
       -0.0750121 0.21558231 0.13760038 -0.17162612
0002a0 64 c8 4a 3e 0e 09 14 3e 77 29 04 3e b0 61 4a be
       0.19803005 0.14456579 0.12906443 -0.19763827
0002b0 48 9f 92 3d 44 47 05 bd 64 77 46 3e be 5d 46 be
       0.07159287 -0.032538667 0.19381481 -0.19371697
0002c0 f9 de 2f 3e d5 2d 29 be d1 ce 0c 3e b0 ed eb bb
       0.17174901 -0.1652139 0.13750769 -0.0071999654
0002d0 2c 52 5c bb 6c 63 d8 3d 27 ef 23 3e 74 be 7e 3c
       -0.0033618314 0.10565838 0.16009198 0.015548337
0002e0 22 f8 96 3b ec db 3b be 78 6a 6c bd 20 5c 01 3e
       0.0046072165 -0.18345612 -0.057718724 0.12632799
0002f0 95 07 42 3d bc 7f da 3a 12 d6 01 be dc 6e 1c 3e
       0.047370512 0.0016670148 -0.12679318 0.15276664
000300 07 d9 a2 3d 6e 0b ae 3c c0 04 0d 3a f9 b8 13 be
       0.07951551 0.021245684 0.0005379431 -0.1442603
000310 c4 8e ef bb f4 b0 4d be 13 ab 3f 3e bf 6f fc bc
       -0.00731072 -0.20087034 0.18717603 -0.030815003
000320 f8 76 7f 3b 33 d3 d6 3d 4d 1e f2 3d db 18 3b 3e
       0.0038980823 0.10489502 0.11822186 0.182712
000330 f4 b2 70 bd 24 24 d3 3d 0a c0 1f 3c 55 24 d9 3c
       -0.058764413 0.10309628 0.0097503755 0.026506582
000340 c6 72 07 be 58 8f 0a bd 68 c6 a1 bd af ea 17 3d
       -0.13227376 -0.03382811 -0.07899171 0.037089046
000350 64 d1 85 3d dc 5b 16 be 0c 4b 77 bc 44 3a 78 bd
       0.06534079 -0.14683479 -0.015093576 -0.06060244
000360 c7 2b 5a 3e 6b 81 96 bb df f5 3d be 15 53 cd 3b
       0.21305762 -0.0045930645 -0.18550824 0.0062660077
000370 b0 a3 df bd d0 53 1b 3e e3 8d 95 3d d2 89 fb bd
       -0.10919893 0.1516869 0.07302453 -0.122821465
000380 8f a6 e5 3c 42 79 42 be 4c 33 88 bd a7 ec 5b bd
       0.028033523 -0.18991569 -0.06650409 -0.053692486
000390 c0 9f 02 3d 2a b3 be bd 4d 9a f8 bd 72 4e 4f bd
       0.03189063 -0.093115166 -0.121388055 -0.05061192
0003a0 e8 69 21 bd ad 6c fa 3d 50 c2 32 3e be 53 17 3e
       -0.03940764 0.122277595 0.17456937 0.14778039
0003b0 7c 7f 37 3e 3e 7e f9 bc 72 03 c0 3d 6c 9b d9 3d
       0.17919725 -0.030455705 0.09375657 0.106253475
0003c0 20 69 1b 3e cd 3c 32 be 9b 66 10 3e 4a d1 8e 3a
       0.15176821 -0.17406006 0.14101641 0.0010896113
0003d0 cb 01 29 3d f7 4e 63 be bf 91 1c bd ed ce 07 be
       0.041261476 -0.22198091 -0.03822493 -0.1326253
0003e0 a7 1b 56 3d af ab 3a 3b bf 38 e3 3d 36 8f 66 3d
       0.052272465 0.002848368 0.11094808 0.05628892
0003f0 9b d3 58 bd c7 c1 01 3e 28 e9 44 be 11 83 81 bd
       -0.052936178 0.12671576 -0.19229567 -0.06323827

nns.1.0.bias f4 [64]
000000 f5 f9 f5 3b 6a 46 f6 bb 8d d9 8d 3c 27 49 32 bc
       0.007506604 -0.007515718 0.01731565 -0.010881699
000010 0d 70 3a bc 4e 61 fe 3b 0f 3d 08 3d fd c2 bc 3a
       -0.011379254 0.0077630645 0.033261355 0.0014401373
000020 0a fc fe 3b 13 d0 27 3b af 39 ad 3c 5f 6a 75 bd
       0.0077815102 0.00256062 0.02114567 -0.059915897
000030 8e e4 90 ba aa 40 ab 3b e7 18 b2 bc 58 50 c4 bc
       -0.0011054443 0.0052262144 -0.02174039 -0.023964092
000040 10 fd 2a 3c 26 27 a6 3c 83 cc 1f 3c e6 45 0a 3c
       0.010436311 0.02028234 0.009753349 0.008439517
000050 ff ca bd bc db 9b 30 3c 57 70 a9 3c 13 51 c3 3c
       -0.023168085 0.010779346 0.02068345 0.02384237
000060 0c 9f 97 3b c9 67 49 3c d0 9e 88 3c 08 6c 5b bb
       0.004627114 0.012292811 0.01667729 -0.003348114
000070 12 1f 86 3c 88 39 85 bc 52 62 53 bc 8e 85 54 bc
       0.016372237 -0.016262785 -0.012901859 -0.012971295
000080 97 f1 0e bd d2 bc 02 3d c1 a1 f3 3c 95 23 3e 3c
       -0.034898367 0.031918354 0.029740216 0.011605163
000090 48 9d 00 3d d5 76 72 3d 18 06 d1 3c c1 9a 11 3d
       0.031399995 0.05919536 0.025515601 0.035547975
0000a0 38 d9 f2 3c bc ab 58 bd ea 17 15 bc 14 cd 74 3b
       0.029644594 -0.052898154 -0.00909994 0.0037353681
0000b0 8c b2 22 bc b8 6e 8d 3b 47 27 e5 bb 43 37 85 3c
       -0.009930264 0.004316177 -0.0069932076 0.016261702
0000c0 28 6e 26 bd c3 71 b2 bc 0b 22 6c 3c d0 06 81 3c
       -0.040632397 -0.021782761 0.014412413 0.015750319
0000d0 56 6a 53 bd 36 7f fe 3b f0 bb bd 3c ec 24 28 b9
       -0.05161508 0.0077666296 0.023160905 -0.00016035483
0000e0 40 4c 2c bc 24 e0 3a bc 9f 68 4f bd de 28 26 bc
       -0.010516226 -0.011405978 -0.050636884 -0.010141579
0000f0 77 ad 93 bb 2a 9f 63 bc 29 ca 90 bb 8d ef 98 3c
       -0.0045067626 -0.013892928 -0.0044186306 0.018668914

nns.1.2.weight f4 [64, 64]
000000 35 e2 f9 bd eb 51 ac bd 36 29 b7 bd 8d 46 29 3e
       -0.12201349 -0.08414062 -0.08943407 0.16530819
000010 f0 26 21 be ef a3 16 be 90 66 cb 3d f0 18 b6 bd
       -0.1573751 -0.14710973 0.099316716 -0.08891475
000020 f2 a5 85 bd 1e 59 41 bd 9d 3e 2d 3a 81 27 58 3d
       -0.06525792 -0.04720413 0.00066087564 0.05277205
000030 ea b2 e1 3d f2 14 36 3e 78 1f 26 be 98 a3 06 3e
       0.11020453 0.17781428 -0.16222942 0.13148344
000040 bb 05 fd 3d 27 54 da 3d 58 61 d8 bd eb b1 a2 3d
       0.123546086 0.10660582 -0.10565442 0.079440914
000050 5b ca 5e bd 36 66 95 3d 75 6c ad bd e5 b4 9f 3d
       -0.0543922 0.07294886 -0.08467952 0.07798175
000060 d7 4b 09 3e c7 ad 00 bd f3 e7 10 bd b0 0e 28 3e
       0.13407837 -0.031415727 -0.035377454 0.16411853
000070 b6 4c 36 bd 4a 2d 1a be dd 1f 04 3e e7 4b 03 3d
       -0.04450675 -0.15056339 0.1290278 0.032054808
000080 b4 94 5a 3b 8c 4f 51 3c 6b c3 de 3d c4 9c 30 3d
       0.0033352794 0.012775313 0.10877117 0.043118253
000090 58 85 b3 bd 24 0a aa bd c3 d6 d7 3a d9 73 6e bd
       -0.08765668 -0.083027154 0.0016467202 -0.05821595
0000a0 3b bf 7f bd df 5f 1f be 45 eb 2f 3e c1 9b b6 3c
       -0.06243823 -0.15563916 0.17179592 0.022291066
0000b0 bc fd e0 bd 1c 22 89 bd a2 85 48 3e e3 f2 31 be
       -0.10985896 -0.06695959 0.19582227 -0.1737781
0000c0 cd b9 1b 3e f8 7d ca bd a7 c0 53 3d 16 e4 12 3e
       0.15207596 -0.09887308 0.0516974 0.1434482
0000d0 9e ab 4d bc ff 2a 93 bd 9e 65 4d 3d f8 51 a9 3d
       -0.012553124 -0.07185935 0.050145738 0.082675874
0000e0 2b f6 9f 3d 73 e9 20 3d df 47 c4 3d fe 77 f4 bb
       0.07810625 0.039285135 0.09584021 -0.0074605932
0000f0 97 63 c5 bc fd f7 fa 3d 3d c1 bb bd 0c f8 9d bd
       -0.02409534 0.12254331 -0.09167717 -0.07713327
000100 1d 69 0d be bd e8 c4 bd 0b 07 39 be 62 a1 8d 3d
       -0.13809629 -0.09614704 -0.18069093 0.06915547
000110 0b 7e cf 3c ad 92 11 be 4d 38 1c 3d 6a 8a 8d 3d
       0.025328657 -0.14216109 0.03813963 0.06911166
000120 10 3c 51 bd 30 cc 9c bc 3b 4d 02 be 0a aa 9c bd
       -0.05108267 -0.019140333 -0.12724774 -0.0764962
000130 c9 df 08 be 62 3b bf bd 9a 56 f3 3d 3c 2b 7e bd
       -0.13366617 -0.09337498 0.11881752 -0.06205295
000140 b9 eb ec 3d 2c bc 57 3e 17 8c 0d 3d 01 b0 de bd
       0.11568398 0.21067876 0.03455743 -0.10873414
000150 18 3b 1f be e9 52 b4 3d 57 1e e7 bd f2 58 1a 3e
       -0.15549886 0.08804876 -0.11285084 0.15072992
000160 b2 56 f7 3d c0 4d 01 be 90 43 c0 bd f9 16 b4 bd
       0.12077083 -0.12627316 -0.093878865 -0.08793444
000170 29 5e e8 bd 03 ba 7b 3c 15 d4 b2 bd 97 0c 2f 3e
       -0.113460846 0.015364173 -0.08731858 0.17094646
000180 88 f5 d9 3b 05 af 39 3e e0 61 e1 3d 17 c6 10 be
       0.006651584 0.18133171 0.11004996 -0.14138065
000190 18 4b c7 bd 0b d1 94 bd b4 db 8c 3d 10 a5 9c bc
       -0.0973112 -0.07266434 0.068778425 -0.019121677
0001a0 f5 f3 74 bd 4e fb 0d 3d c2 e1 48 bc 21 41 03 3d
       -0.059802968 0.03466349 -0.012260856 0.032044534
0001b0 42 3c 1a be 19 aa 20 3e 8c 3b 80 3d 1b 83 42 bd
       -0.15062049 0.15689887 0.06261358 -0.047488313
0001c0 5b ff 9b bd 62 00 dc bd fe e7 2e 3e 68 74 01 be
       -0.076170646 -0.107422605 0.17080685 -0.12642062
0001d0 f7 dc 11 be bd 65 3a 3e ba 93 0a 3e 88 92 64 3d
       -0.14244448 0.18202873 0.13532916 0.055803806
0001e0 91 28 5b 3c cd 69 3f 3e 9b 2e 0d 3e 3d e3 3c 3d
       0.013376371 0.18692704 0.1378731 0.04611515
0001f0 1c e6 4f 3d 26 33 31 3c 92 47 cf 3d bc 1b a0 3d
       0.05075656 0.010815417 0.10121073 0.0781779
000200 58 99 88 bd a8 80 99 3d 2d b8 00 be 2d 63 05 be
       -0.06669873 0.07495242 -0.12570257 -0.13026114
000210 0c 9e 6a bb 5b dc 63 3d 78 8e fd 3d ea 74 a0 3c
       -0.003579977 0.05563007 0.123806894 0.019586999
000220 77 88 26 be cc 66 48 bd bd c4 b4 bd ba 57 f7 3d
       -0.16262995 -0.04892616 -0.08826587 0.120772794
000230 70 0b b6 3d 65 02 cd bb 8c 02 31 be 72 8f d8 bd
       0.088889 -0.006256389 -0.17286128 -0.10574235
000240 34 79 89 bd 72 36 12 3d e2 37 bc 3d de 83 27 be
       -0.06712571 0.035696454 0.09190346 -0.16358897
000250 8a b6 0f 3d 0a 57 49 be 44 4d 74 bc bc 36 b6 3d
       0.035086192 -0.19662109 -0.014911 0.088971585
000260 40 f3 85 bd 4e c0 0d 3e 18 a2 7e bd be 86 26 3d
       -0.06540537 0.1384289 -0.062166303 0.040655844
000270 77 d3 c6 bd ac 01 24 3d 66 19 f2 3c d4 27 c2 bd
       -0.097083025 0.040040657 0.029553127 -0.09480253
000280 98 83 19 3e c8 f5 4f 3e f4 06 38 3e 74 94 3a 3d
       0.14991605 0.20308602 0.17971402 0.045551732
000290 8e 57 19 be 1c b9 9e 3d 2e db 92 bd de ca d4 3d
       -0.14974806 0.077501506 -0.071707115 0.10390256
0002a0 9e e1 41 3e 07 35 1a 3e 4e 39 1a 3e 8e b7 14 bb
       0.18933722 0.15059291 0.15060923 -0.0022692415
0002b0 5e f5 69 3d 33 7a 8e bd c7 73 a3 ba b7 08 31 3d
       0.057118766 -0.069569014 -0.0012470417 0.0432212
0002c0 24 95 ae 3d 75 51 d3 3d 24 c5 49 be da d6 22 be
       0.0852454 0.10318271 -0.1970411 -0.15902272
0002d0 a4 cb 1e 3e 3e 79 9a bc 00 85 be 3d 42 18 9e 3c
       0.1550737 -0.01885664 0.093027115 0.019298676
0002e0 8b 5c 4e 3c 4d bd 5f 3d 2e fc 71 be 4a e7 12 be
       0.012595306 0.05462389 -0.23631355 -0.14346042
0002f0 af 2d 0e 3d a5 c0 d3 3d 31 0f ff 3d fb e6 13 3e
       0.034711536 0.103394784 0.124540694 0.14443581
000300 f4 85 3a be 4b 8d 15 bc 92 c3 d7 3d ad 7f 9e bd
       -0.18215162 -0.009127925 0.10535349 -0.07739196
000310 11 df e5 bd 7b 40 df 3d d9 b8 0b be 6b 71 12 3e
       -0.11224187 0.109009705 -0.13644733 0.14301078
000320 9c f0 2a 3d 32 14 44 3e 04 f2 3e be 0c 82 1a be
       0.04173337 0.19148329 -0.18647009 -0.15088671
000330 f9 9b 14 bd eb 62 19 3e 93 49 05 3d b8 ff 36 be
       -0.03628156 0.1497914 0.03254087 -0.17870986
000340 50 1a 32 be 2b 80 26 3e 2d 3b 4d 3e 72 b2 1a 3e
       -0.1739285 0.1625983 0.20042105 0.15107134
000350 b5 cf 36 3e 19 1d 02 be 68 20 38 3d a1 eb 0f 3e
       0.17852671 -0.12706412 0.04495278 0.14054729
000360 96 88 a4 bd 9c f2 04 3d 0b b0 3e 3e 9b 91 08 3e
       -0.08033864 0.032457933 0.18621843 0.13336794
000370 88 9a d7 3d bc 8c 3c be e8 a0 0d bc dc 76 e0 3d
       0.10527521 -0.18413061 -0.00864432 0.109601706
000380 8f a0 58 3d 9b 56 d5 3d 42 55 c1 bd e5 42 18 be
       0.052887496 0.10416909 -0.0944009 -0.14869268
000390 e8 2d 24 be d3 81 ed bd 03 a2 42 be 14 9c f9 bd
       -0.16033137 -0.11597028 -0.19007115 -0.12187973
0003a0 92 90 97 3d 4c a2 d2 3d e7 b2 66 be 84 57 d2 3b
       0.074006215 0.10284862 -0.22529183 0.006419124
0003b0 1e 6b d1 bd 93 f8 62 be 7d b7 00 be cb 9a 12 be
       -0.10225509 -0.22165136 -0.12569995 -0.14316861
0003c0 48 d6 c2 bc 25 25 24 3c 4e c8 3b be 25 5a 8d 3c
       -0.023783818 0.010018622 -0.18338129 0.017254898
0003d0 73 22 d3 bd 1e f2 b4 bd 89 ae b2 bd 7d 1a b4 3d
       -0.10309305 -0.08835243 -0.08724696 0.08794115
0003e0 16 f8 de bc 9f 1c e7 bd a4 0e 0e 3e 15 dc df 3d
       -0.027217906 -0.11284756 0.13872772 0.10930649
0003f0 62 dc 72 bd 9d 3f 2e 3d b9 c0 e4 bd 94 b1 59 3b
       -0.059292205 0.042541135 -0.111695714 0.0033217417

nns.1.2.bias f4 [64]
000000 6d 6d 77 36 35 73 83 35 2d df 4c 37 1b 6c d3 b7
       3.6869562e-06 9.79379e-07 1.221131e-05 -2.52035e-05
000010 99 a7 8b 37 c9 0a 05 35 9a f9 ff 35 13 2d eb b5
       1.6648135e-05 4.9562055e-07 1.9071624e-06 -1.7521983e-06
000020 2b 31 a9 b5 97 49 1a 36 31 4c 0c b7 16 1b 2d b7
       -1.2605791e-06 2.2990623e-06 -8.36239e-06 -1.031791e-05
000030 cc 2d d0 b4 ff cd 3e 33 8d ca 6e 37 4d 61 18 34
       -3.877634e-07 4.4425175e-08 1.42330655e-05 1.4191501e-07
000040 e2 de dd b5 24 45 71 b6 06 7b 3c 36 9c 3b 1f b6
       -1.653065e-06 -3.5952044e-06 2.8085792e-06 -2.3727544e-06
000050 0c 5b 2c 37 69 b5 1a 37 f7 56 f1 b2 25 8b f3 36
       1.0273197e-05 9.221353e-06 -2.809564e-08 7.258163e-06
000060 cb ca b9 b6 3a f0 46 b6 6b f9 de 34 3c bd 6e b6
       -5.537038e-06 -2.964413e-06 4.1532198e-07 -3.5574913e-06
000070 43 03 ea 36 4d 81 78 36 08 bb 00 34 06 17 8e 37
       6.974123e-06 3.7030143e-06 1.198897e-07 1.693844e-05
000080 a8 06 9b 35 4b f6 9a b7 28 2b bb 36 61 5c 8e b5
       1.1550337e-06 -1.847292e-05 5.5780583e-06 -1.060671e-06
000090 e5 46 91 b4 65 d7 70 35 71 cf 4b 36 3a c1 86 b7
       -2.7059937e-07 8.972041e-07 3.0370104e-06 -1.6064023e-05
0000a0 45 bd 0e b5 e4 fc ac b6 39 91 85 35 35 08 ab b7
       -5.3174546e-07 -5.15544e-06 9.951538e-07 -2.038861e-05
0000b0 3e 86 9f 35 f8 33 ed b7 0d 11 35 b6 10 6b d4 b5
       1.1885493e-06 -2.8276801e-05 -2.6981027e-06 -1.582639e-06
0000c0 03 7c af b5 41 ac b7 36 db d4 76 38 48 40 3e b6
       -1.3074608e-06 5.473878e-06 5.8849208e-05 -2.8349623e-06
0000d0 89 ec 2e 37 29 1a ca b6 a1 45 09 35 46 98 b7 b6
       1.0426281e-05 -6.0231146e-06 5.11378e-07 -5.471552e-06
0000e0 86 ef cf b6 85 3d 66 b7 7a 6a 52 b7 8a 98 d3 36
       -6.196965e-06 -1.3723392e-05 -1.2541766e-05 6.306048e-06
0000f0 dd d0 97 34 9a 71 80 b6 cd 88 0c b7 7b 0a a9 b5
       2.827791e-07 -3.8279222e-06 -8.376502e-06 -1.2594531e-06
