weight/IMDB-BINARY/Client_3.pth (torch, 260953 bytes, 24 tensors)

bns.0.running_mean f4 [64]
0	0x409f9eab	4.9881186
1	0x410252f5	8.145253
2	0x405f92c5	3.493333
3	0x40c27fde	6.078109
4	0xbf39462a	-0.72372687
5	0xc0d9ab26	-6.802142
6	0xc0dd7bc0	-6.921356
7	0x4123c5aa	10.235758
8	0xc001e3c5	-2.029527
9	0x414ea611	12.915544
10	0xc0a0d293	-5.025705
11	0xc0c196fe	-6.0496817
12	0x40dedda8	6.9645576
13	0x3d6cb997	0.05779418
14	0xc1065b25	-8.397252
15	0xc0523b15	-3.284856
16	0xbfa7f985	-1.3123022
17	0xc0fbd0ce	-7.869239
18	0x40fda23c	7.926054
19	0xbff962cc	-1.9483275
20	0x40ade307	5.4339633
21	0x40edf650	7.4363174
22	0xc00f8b72	-2.242886
23	0x40be5266	5.9475584
24	0x408beca3	4.3726363
25	0xc111531d	-9.082791
26	0x3fc31396	1.5240352
27	0xc106e2eb	-8.4304
28	0x40d2eec4	6.591646
29	0x41120a13	9.12746
30	0x414baef0	12.730209
31	0xc10821da	-8.508265
32	0xc0f3bcd0	-7.6167984
33	0xc091f39a	-4.5609865
34	0x41571c35	13.4443865
35	0x4004d1a3	2.0752952
36	0xbdd82243	-0.1055341
37	0xc0dbab03	-6.8646255
38	0xc036d6e3	-2.8568656
39	0xc09201ef	-4.562736
40	0xc08f5543	-4.479158
41	0x40a6f1a7	5.2169986
42	0xbf6a3163	-0.9148161
43	0xc0806d18	-4.013317
44	0xbf67b6f1	-0.9051352
45	0xc132cf2d	-11.17558
46	0xc0fa1b0b	-7.815801
47	0xbfa5171b	-1.2897676
48	0xc09c678f	-4.8876414
49	0xc0868ea5	-4.2049127
50	0xbf7de2b1	-0.9917403
51	0xc13a3751	-11.638505
52	0x3f68c72b	0.90928906
53	0x3f15d5ab	0.58529156
54	0x40b90e3a	5.7829866
55	0xc054edb0	-3.3270073
56	0x40e44dc0	7.134491
57	0x413e9776	11.911978
58	0x3ffd134b	1.9771513
59	0x4020dc4e	2.5134463
60	0xc093ebeb	-4.6225486
61	0x400bd70b	2.1850002
62	0x403fa506	2.9944472
63	0x41074cdb	8.456264

bns.0.running_var f4 [64]
0	0x3f1a85a3	0.60360163
1	0x4001ec2b	2.0300395
2	0x3e288b07	0.16459285
3	0x3effe17d	0.4997672
4	0x3eccd283	0.40004358
5	0x3f4f673e	0.8101691
6	0x3f1e751c	0.61897445
7	0x402c1315	2.6886647
8	0x3e75212c	0.23938435
9	0x40359e5a	2.83779
10	0x3f307414	0.6892712
11	0x3f29a973	0.66274184
12	0x3f9106dd	1.133022
13	0x3e3338db	0.17502157
14	0x3f8e9d28	1.114171
15	0x3ece63f0	0.4031062
16	0x3e244549	0.16042055
17	0x3fb8cede	1.4438131
18	0x3fab87d4	1.3400826
19	0x3e1f0dac	0.15532559
20	0x3f14f08f	0.58179563
21	0x3fb6ee0e	1.4291399
22	0x3efe37cc	0.49651945
23	0x3f227c81	0.6347123
24	0x3e730a19	0.2373432
25	0x3ffbe5d7	1.9679517
26	0x3e6ad5d9	0.22933139
27	0x3f80ec65	1.0072142
28	0x3f908272	1.1289809
29	0x3ff0f8d0	1.8825932
30	0x405ddf55	3.466756
31	0x3fbc580e	1.4714372
32	0x3ff6bbe1	1.9276086
33	0x3f32ab88	0.69792986
34	0x406d4345	3.7072308
35	0x3e2ce2de	0.16883418
36	0x3e20d9c9	0.15708078
37	0x3f48abca	0.7838713
38	0x3ecec32f	0.40383288
39	0x3f31f0bd	0.6950796
40	0x3ed2de2f	0.41185138
41	0x3f2ccfef	0.6750478
42	0x3f10e2eb	0.5659625
43	0x3e7ca5bf	0.24672602
44	0x3ef598b6	0.47968072
45	0x401a464e	2.410541
46	0x3f8fea4c	1.1243377
47	0x3e5ae329	0.21375717
48	0x3ebdd5d1	0.3707719
49	0x3ee81b13	0.45333156
50	0x3f49810d	0.7871254
51	0x40522ce2	3.2839894
52	0x3eb0fb09	0.34566525
53	0x3e226c23	0.15861563
54	0x3fabe9fb	1.343078
55	0x3ecc0c3e	0.3985309
56	0x3fa99ffa	1.3251946
57	0x402f3233	2.737439
58	0x3e0cb78d	0.13741894
59	0x3e6fef5d	0.23431154
60	0x3eebda9f	0.46065232
61	0x3e503f8d	0.20336743
62	0x3e709bd0	0.23496938
63	0x3f998474	1.1993546

bns.1.running_mean f4 [64]
0	0x40817a59	4.046185
1	0x419c98ef	19.574675
2	0xc1cb92c4	-25.446663
3	0x40ced018	6.462902
4	0x419eeae0	19.864685
5	0x419b9b2d	19.45077
6	0x42088599	34.130466
7	0x40b51920	5.659317
8	0x415b6f8f	13.714736
9	0x41266e9b	10.402003
10	0xc187b3f4	-16.962868
11	0xc20ebbe5	-35.68349
12	0x416ac26e	14.672468
13	0xc122031b	-10.125758
14	0xc18792af	-16.946623
15	0xc114bd8b	-9.296275
16	0x400e799c	2.2261724
17	0x411dc6aa	9.861002
18	0xc0ed11fb	-7.408445
19	0x3fb592d8	1.4185438
20	0x41dfec57	27.9904
21	0x41369c5f	11.413177
22	0xbfa0b27c	-1.2554469
23	0xc1b72d0c	-22.896996
24	0x4181806e	16.18771
25	0x41a738fd	20.902826
26	0x41efacdd	29.959406
27	0x4038bcdf	2.8865278
28	0x41e51135	28.633402
29	0x40860839	4.1885037
30	0xc1bdc7d5	-23.722574
31	0xc1bac2e9	-23.345171
32	0x418fd999	17.981249
33	0xc1982e11	-19.022493
34	0xc17351b8	-15.207451
35	0xc11678ee	-9.404524
36	0x40d2f6b9	6.5926175
37	0xc1536fe0	-13.214813
38	0x41195f78	9.585808
39	0xbf47910f	-0.77955717
40	0x4151fb09	13.123788
41	0x41d3b21c	26.461967
42	0xc219064f	-38.25616
43	0x414272dc	12.153042
44	0xc1b4c748	-22.597305
45	0x4185eec1	16.74158
46	0x410b8876	8.720816
47	0x41100b0d	9.002698
48	0x412a2b62	10.6355915
49	0xc1b695d8	-22.823166
50	0x413da616	11.853048
51	0x4133a7cf	11.228469
52	0xc0461f87	-3.0956743
53	0xc09a99bb	-4.831266
54	0x41a9b37c	21.212639
55	0xc0ebbecf	-7.367042
56	0x41bbb146	23.46156
57	0x41eaa8a9	29.332354
58	0xbfd1d5e6	-1.6393402
59	0xc167adad	-14.479901
60	0xbe431811	-0.1905215
61	0xc153dfc5	-13.242131
62	0xc137fe26	-11.499548
63	0x3fca34f6	1.5797412

bns.1.running_var f4 [64]
0	0x4107f6bf	8.497741
1	0x4214ddd1	37.216618
2	0x41d2eb4f	26.364897
3	0x4244c9b3	49.19697
4	0x41eea92e	29.832607
5	0x42b87053	92.21938
6	0x42793758	62.304047
7	0x42372996	45.79061
8	0x41912360	18.142273
9	0x42c45966	98.17461
10	0x42ff1ae6	127.552536
11	0x4093adf9	4.614987
12	0x41175fb5	9.460866
13	0x40f9e1c4	7.8088093
14	0x416e6703	14.900149
15	0x41141eb9	9.257501
16	0x413038f5	11.013906
17	0x42c628fd	99.080055
18	0x4263f19b	56.985943
19	0x420a6f3e	34.608635
20	0x426ec30d	59.69048
21	0x42f6359a	123.10469
22	0x42f43cff	122.11913
23	0x424ddc61	51.465214
24	0x41e7e5c9	28.9872
25	0x42d80f5f	108.03002
26	0x431f5cc2	159.36234
27	0x421dbb65	39.433002
28	0x42851fcf	66.562126
29	0x42006468	32.098053
30	0x4296d500	75.416016
31	0x42a2b4d2	81.353165
32	0x42488e96	50.139244
33	0x43915689	290.67606
34	0x41dd73c4	27.681526
35	0x42391070	46.266052
36	0x425af0e5	54.73525
37	0x42ed1d57	118.557304
38	0x4256c9fb	53.697247
39	0x419fdd45	19.983042
40	0x4316dc84	150.86139
41	0x43519baf	209.60814
42	0x415b5c71	13.710069
43	0x4228d917	42.212
44	0x43041047	132.06358
45	0x4293fae1	73.99
46	0x428928cd	68.57969
47	0x42a1ba3b	80.86373
48	0x41a607f3	20.753881
49	0x4297991a	75.79903
50	0x411429c5	9.260198
51	0x423800c8	46.000763
52	0x41be9589	23.823015
53	0x421af27e	38.73681
54	0x410a929d	8.660794
55	0x426b3610	58.802795
56	0x4308ea54	136.91534
57	0x41bdc937	23.72325
58	0x421bd38b	38.956585
59	0x4255374b	53.303997
60	0x417d219e	15.820707
61	0x41392b80	11.57312
62	0x41be5926	23.79353
63	0x4256563f	53.584225

bns.2.running_mean f4 [64]
0	0xc0e3d466	-7.1196775
1	0xc20067d1	-32.101383
2	0x4132da06	11.178228
3	0xc208cc2f	-34.199398
4	0xc0e05bc9	-7.0112042
5	0x4207ba39	33.931858
6	0x3fb06bda	1.3782914
7	0xc11782ce	-9.469435
8	0xc0ff269f	-7.9734645
9	0xc1a0c353	-20.095373
10	0x41c9a9ed	25.207972
11	0x415ddb89	13.866097
12	0xc10dbe80	-8.859009
13	0xc24d210e	-51.28228
14	0xc138163e	-11.50543
15	0xc0db0777	-6.844661
16	0xc0b7cd45	-5.7438073
17	0xc19e9848	-19.824356
18	0x414cc49c	12.798
19	0x41f8c3c2	31.095585
20	0x407f2010	3.986332
21	0x3f85c6c7	1.0451287
22	0xc14fb34f	-12.9812765
23	0x420d560b	35.334026
24	0xc13e7168	-11.902687
25	0x422bce35	42.951374
26	0x42083a45	34.056904
27	0x41a46f5d	20.554377
28	0x41fc9873	31.574438
29	0xc14a6c4a	-12.651438
30	0x41192557	9.571616
31	0xc18f7541	-17.932253
32	0xc12afcb4	-10.686695
33	0xc1de49c5	-27.78602
34	0xc1dad354	-27.353188
35	0x41c73a98	24.90361
36	0x41052b95	8.32314
37	0x4105b3d6	8.356405
38	0x3f9dd1e3	1.2329677
39	0x41faadae	31.334805
40	0xbfe96878	-1.8235006
41	0x41d63499	26.775682
42	0xc1b00952	-22.00455
43	0xc10f79fc	-8.967281
44	0xc02a3b9d	-2.6598885
45	0x41b03c1b	22.029348
46	0xbf8ba7e7	-1.0910615
47	0xc20d17b8	-35.273163
48	0x412fed6f	10.995467
49	0x418ae61b	17.362356
50	0xc12d2e58	-10.823814
51	0xc1aa66da	-21.30022
52	0x409223ce	4.5668707
53	0xc15094ac	-13.036297
54	0xc235fdd1	-45.497868
55	0xc1977688	-18.932877
56	0x3fcc82ba	1.5977395
57	0xbf6c06f2	-0.921981
58	0xc0983a93	-4.75715
59	0x3ef3467e	0.4751472
60	0xc1029943	-8.162417
61	0xc124cc2a	-10.299845
62	0xc21de57f	-39.474117
63	0xc13576a7	-11.341468

bns.2.running_var f4 [64]
0	0x42bc9eb0	94.30994
1	0x435ec8c1	222.7842
2	0x4325ff81	165.99806
3	0x424f9106	51.891624
4	0x429de0f2	78.93935
5	0x42da809b	109.25118
6	0x42cfec84	103.961945
7	0x424ede39	51.717014
8	0x41d93bdc	27.154228
9	0x4213c6dc	36.9442
10	0x430e31e9	142.19496
11	0x40b2740a	5.576665
12	0x42331b39	44.776585
13	0x4379c0f3	249.75371
14	0x4229e1ea	42.47062
15	0x410509fb	8.314937
16	0x410e5f6f	8.898299
17	0x419366a2	18.425114
18	0x415cf031	13.8086405
19	0x42f800e3	124.00173
20	0x4301a081	129.62697
21	0x41e1fb58	28.247726
22	0x428669cb	67.20663
23	0x4230b8a0	44.180298
24	0x42d77235	107.72306
25	0x43f45c60	488.72168
26	0x41da7aeb	27.310019
27	0x424c6bb0	51.105164
28	0x42695337	58.331264
29	0x40e110c6	7.0332975
30	0x41ce68a9	25.801104
31	0x425d2af1	55.291935
32	0x421681e2	37.62684
33	0x41f8cb9c	31.099419
34	0x4301cd90	129.80298
35	0x41dbdca0	27.482727
36	0x4132903c	11.160213
37	0x4123f00a	10.246103
38	0x4161f129	14.121377
39	0x43a1caf1	323.58548
40	0x416469a9	14.275796
41	0x4224bc19	41.18369
42	0x421b5d5c	38.84117
43	0x41653e9b	14.327785
44	0x420de4c0	35.47339
45	0x4230167d	44.02196
46	0x41c1ff28	24.249588
47	0x43e8bb38	465.46265
48	0x42a51215	82.53532
49	0x41df77a8	27.933426
50	0x41fb0f77	31.382551
51	0x41140ff3	9.253894
52	0x413b0d74	11.690784
53	0x42f7b800	123.859375
54	0x4318e2aa	152.8854
55	0x43488e0d	200.55489
56	0x4080f01a	4.0293093
57	0x418fc8cc	17.973045
58	0x426766bc	57.850327
59	0x41c3846a	24.439655
60	0x422ee77f	43.72607
61	0x4171f743	15.122867
62	0x43012e70	129.1814
63	0x40cf8f58	6.486248

nns.0.0.weight f4 [64, 136]
0	0xb82d95a8	-4.1385792e-05
1	0xb8826edd	-6.219533e-05
2	0xae61ffea	-5.1386374e-11
3	0x3d21fe26	0.039549015
4	0xbd206540	-0.03915906
5	0x3df236a6	0.118268296
6	0xbc888dc0	-0.016669154
7	0xbddd8a0f	-0.10817348
8	0xbd81602b	-0.06317171
9	0xbd8d54d8	-0.06900948
10	0xbd44f42d	-0.048084427
11	0xbce0f30d	-0.027459646
12	0xbafb4677	-0.001917078
13	0xba90b9fb	-0.0011041755
14	0xbd90ebe4	-0.070762426
15	0x3bc7b857	0.006094973
16	0xbc22b009	-0.009929665
17	0xbe0bbb09	-0.13645567
18	0xbc963bcb	-0.018339058
19	0xbcf92a47	-0.030415667
20	0xbad68c9d	-0.001636881
21	0x35b577fa	1.3520469e-06
22	0x33739a74	5.671832e-08
23	0x38f2ed42	0.00011583652
24	0xb9a3d4b6	-0.00031248265
25	0xb12c5631	-2.5078288e-09
26	0x276d0e61	3.2898152e-15
27	0xba6a41f5	-0.000893622
28	0x330af6ef	3.2355214e-08
29	0x2dc1a769	2.2015905e-11
30	0xbb22e017	-0.0024852806
31	0xbaac13d6	-0.001312847
32	0x32f6c3de	2.872724e-08
33	0x32fbf809	2.9333039e-08
34	0xb9cc8924	-0.0003901209
35	0xb6862c0c	-3.998639e-06
36	0xb4d2efda	-3.9290063e-07
37	0xbab19357	-0.0013547939
38	0xac0453d0	-1.8804854e-12
39	0xab350e7a	-6.432421e-13
40	0x32eb2339	2.7373618e-08
41	0x30779172	9.0064767e-10
42	0xaf223018	-1.47509e-10
43	0xb921dab5	-0.00015435631
44	0xad14ff5b	-8.469526e-12
45	0xb25e4a4b	-1.2938993e-08
46	0xb20e0cef	-8.268429e-09
47	0x2fe7d2ee	4.216853e-10
48	0x2db767e2	2.0850825e-11
49	0x3439163c	1.7237556e-07
50	0x293f634a	4.249664e-14
51	0x2a93344e	2.614874e-13
52	0xb0a26d11	-1.181805e-09
53	0x328e1ccf	1.6544076e-08
54	0xb8db66a3	-0.00010461851
55	0xaf312e39	-1.6114478e-10
56	0x39a0f15e	0.0003069741
57	0xb8c726fd	-9.4963216e-05
58	0xa8fad57e	-2.7848163e-14
59	0xb8119a0c	-3.471416e-05
60	0x2e3e067b	4.3206754e-11
61	0x39c99267	0.00038446786
62	0x331e4ca8	3.685696e-08
63	0x32a53603	1.923309e-08
64	0x37deb786	2.6549922e-05
65	0xb9b62bed	-0.00034746472
66	0x29445439	4.3593794e-14
67	0x2c0fda63	2.0442751e-12
68	0xb96050cc	-0.00021392404
69	0x2c55a9ae	3.0363312e-12
70	0x351df727	5.884671e-07
71	0xb2015153	-7.527279e-09
72	0xaa127431	-1.3007717e-13
73	0x2e1522d1	3.39096e-11
74	0xaa6caebc	-2.1021634e-13
75	0x2f7964ed	2.2682274e-10
76	0x2d9e5ba7	1.8003222e-11
77	0x2a866db9	2.3879317e-13
78	0x2c7ed348	3.6212856e-12
79	0x2b9f5a1d	1.1322641e-12
80	0x38793a5c	5.9420578e-05
81	0x39b0d64a	0.00033728994
82	0x36230893	2.4293884e-06
83	0x30a74734	1.2171086e-09
84	0xabf48c67	-1.7376212e-12
85	0xa9e374a4	-1.0101059e-13
86	0x2946ee0b	4.41713e-14
87	0x2e6ea040	5.4257265e-11
88	0x2e67bcb5	5.2690925e-11
89	0xa9d797b4	-9.574234e-14
90	0xab25020d	-5.862262e-13
91	0xaf64ee68	-2.0821178e-10
92	0xae478d3e	-4.537281e-11
93	0x2c2e2d8c	2.475217e-12
94	0xab076db0	-4.8113857e-13
95	0xabd6e8d3	-1.5270236e-12
96	0x2b75a788	8.727398e-13
97	0xabb12885	-1.2587853e-12
98	0x2902bc88	2.9029323e-14
99	0xb2baa8a0	-2.1729932e-08
100	0x2875bee9	1.3641629e-14
101	0x3826ce24	3.9769468e-05
102	0x2e84e307	6.042993e-11
103	0x398f34e2	0.00027314486
104	0xb9a45d46	-0.00031350012
105	0xaa89715d	-2.441475e-13
106	0xb021676c	-5.871843e-10
107	0x39bc57ef	0.0003592367
108	0xab0c5bbe	-4.986531e-13
109	0x38f50fcb	0.00011685452
110	0x2de82b3a	2.6394543e-11
111	0x2f792db1	2.2662651e-10
112	0xaa12b60e	-1.3030568e-13
113	0x2ad5a613	3.7951638e-13
114	0x38e4829d	0.00010896216
115	0xb4bd96bb	-3.5313664e-07
116	0x394880d5	0.0001912148
117	0x2fae65b3	3.1722677e-10
118	0x34e7ec84	4.319919e-07
119	0x2a2bcf39	1.5259746e-13
120	0xb801c853	-3.0942563e-05
121	0xb7259e87	-9.871676e-06
122	0x39ce9967	0.00039405675
123	0xb076562a	-8.9616725e-10
124	0x3081526a	9.409409e-10
125	0xadba9bdf	-2.1214972e-11
126	0xa9e99bad	-1.0374284e-13
127	0x30accaaf	1.2572253e-09
128	0x2a7dcb36	2.2541417e-13
129	0xa9ebf32e	-1.04782814e-13
130	0x2a3c25ed	1.6710912e-13
131	0x328ddc11	1.6514635e-08
132	0x2c80483a	3.6459976e-12
133	0xab5ff7b4	-7.956927e-13
134	0x2d35e302	1.0339065e-11
135	0xb9aa9f86	-0.0003254378
136	0x333b5f5d	4.3626063e-08
137	0xae75fa4e	-5.5928866e-11
138	0x2c49aa8d	2.8658493e-12
139	0x3cf118e9	0.029430823
140	0xbe28ee1b	-0.1649708
141	0x3c08ee14	0.0083575435
142	0xbd99dfb3	-0.0751337
143	0x3d92c220	0.07165933
144	0x3e0a2ae7	0.13492928
145	0xbd864995	-0.065570034
146	0xbd70a7bb	-0.05875371
147	0xbe06c179	-0.13159741
148	0xbdcaea0b	-0.099079214
149	0x3dbd5873	0.09245386
150	0xbdc24d03	-0.09487345
151	0xbcb718b0	-0.02235064
152	0xbd85ffcf	-0.06542932
153	0x3dc3e326	0.095648095
154	0x3dad734b	0.08469256
155	0x3d611610	0.05495268
156	0xbd6649ec	-0.05622284
157	0xbd8e3867	-0.06944352
158	0xbdcde107	-0.10052686
159	0xbe056b42	-0.13029197
160	0xbd5e5069	-0.054275904
161	0x2d60d924	1.2781141e-11
162	0x2c761677	3.4971173e-12
163	0xbdea7bc9	-0.114493914
164	0xbd8a7663	-0.06760862
165	0xaa365501	-1.6194339e-13
166	0xbddeb3c9	-0.10874135
167	0x3c62d91a	0.013845706
168	0xbc7d8373	-0.0154732345
169	0x3c6e6c12	0.014552133
170	0x3d2f3816	0.042778097
171	0xba80ed8a	-0.0009836417
172	0x27c8aab0	5.569621e-15
173	0x3bed017d	0.0072328434
174	0x2c362101	2.5882076e-12
175	0xb285196c	-1.5494798e-08
176	0x3cd6c4be	0.02621686
177	0xad1283d5	-8.328412e-12
178	0xb813c34c	-3.5229416e-05
179	0x2ad1b11b	3.724875e-13
180	0x2f8f1451	2.6025984e-10
181	0x2d9240e5	1.6627097e-11
182	0x2c0092fa	1.8271482e-12
183	0xad37767d	-1.0428655e-11
184	0xab4e65ae	-7.332701e-13
185	0xac0766ca	-1.9241713e-12
186	0x2e7e122e	5.776906e-11
187	0x2ae21b04	4.016441e-13
188	0x28fb38ac	2.7891175e-14
189	0x2f3cc371	1.7167935e-10
190	0xb32ce847	-4.0258126e-08
191	0x37a65756	1.9829411e-05
192	0x2dc4e54d	2.238445e-11
193	0xb98e6b9f	-0.00027164535
194	0x288a898f	1.5380734e-14
195	0xb674c5e7	-3.6474028e-06
196	0xa920cb60	-3.5703536e-14
197	0xab790996	-8.8475874e-13
198	0xb2ce6115	-2.4025704e-08
199	0x3d90f269	0.07077486
200	0x35723a30	9.02367e-07
201	0xaf11b248	-1.3251011e-10
202	0x2e87a7b4	6.168879e-11
203	0xb6fd02c0	-7.5403077e-06
204	0xb92271b6	-0.00015491885
205	0xb71c5737	-9.318631e-06
206	0xa9ba8f8a	-8.2849594e-14
207	0xab95287a	-1.0598321e-12
208	0xadc2169e	-2.206529e-11
209	0xa96500fd	-5.0849072e-14
210	0x389f6c11	7.60184e-05
211	0xb95ca285	-0.00021041378
212	0xb9a4748e	-0.00031367358
213	0x2fa2091e	2.9474106e-10
214	0x2bd85366	1.5370871e-12
215	0xb8274c5f	-3.988703e-05
216	0x2b8eef52	1.0156132e-12
217	0xaf0e74b1	-1.2956282e-10
218	0xaa3febed	-1.7046061e-13
219	0xaa7feb3a	-2.273016e-13
220	0x2a1f9a51	1.4175576e-13
221	0xadf52690	-2.78704e-11
222	0x30b3ab91	1.3072726e-09
223	0xb52b8fd6	-6.3911773e-07
224	0x3720ac48	9.5768555e-06
225	0x38422dbb	4.6295794e-05
226	0xb97aa327	-0.00023902637
227	0x2f3d992a	1.7243865e-10
228	0xae73c5fc	-5.542765e-11
229	0x30b20d21	1.2954936e-09
230	0xacbb7fd8	-5.329053e-12
231	0xa895e88d	-1.6643176e-14
232	0x2e29255f	3.8459343e-11
233	0x2da49e42	1.8714922e-11
234	0xac71bbfb	-3.435251e-12
235	0x2d20b621	9.135388e-12
236	0xaab1af55	-3.1563177e-13
237	0x2a735c2e	2.1614717e-13
238	0xb73e46b6	-1.1341346e-05
239	0x37ecf7b9	2.8248747e-05
240	0xb89cc11d	-7.47463e-05
241	0xb9b3c82f	-0.0003429069
242	0x2d5d18f9	1.2567941e-11
243	0x39c231d7	0.00037039697
244	0x3221addb	9.410964e-09
245	0xa9ba48b0	-8.2726686e-14
246	0xb49f9e87	-2.9731402e-07
247	0xb6e2dcf3	-6.7610467e-06
248	0x2a30f795	1.5717837e-13
249	0x36966355	4.481912e-06
250	0xb3c7565e	-9.28237e-08
251	0xb8c75e2e	-9.506602e-05
252	0x2a85961f	2.3729713e-13
253	0x296dec51	5.2829543e-14
254	0xaf12db43	-1.335652e-10
255	0x2e86e95e	6.135069e-11

nns.0.0.bias f4 [64]
0	0xbb4095f1	-0.0029386247
1	0xbce0e6d4	-0.027453817
2	0x39b8b600	0.00035230815
3	0x3d3d8b7a	0.046275593
4	0x3cfcd4f4	0.030863263
5	0x3d95e2b4	0.07318631
6	0x3d81f0fd	0.06344793
7	0x3d360653	0.044439625
8	0x3aa5c537	0.0012647276
9	0x3c5f5de8	0.013633229
10	0xbcdd3756	-0.027003925
11	0xbafd97bf	-0.0019347592
12	0xbc858d2a	-0.016302664
13	0xbc821b1f	-0.015882073
14	0xba83aa52	-0.0010045266
15	0xbd85c94e	-0.065325364
16	0xbd1df45b	-0.038563114
17	0xbc94ac7c	-0.018148653
18	0xbd218dd9	-0.039441917
19	0x3d114ecf	0.03547555
20	0x3bbd8db0	0.0057847127
21	0xbb78977e	-0.0037932093
22	0x3d4ca697	0.04996356
23	0xbc684e52	-0.014178829
24	0x3d611a59	0.054956768
25	0x399128a3	0.00027686832
26	0xba164525	-0.0005732349
27	0x37862616	1.599178e-05
28	0xbc29c8ad	-0.010362786
29	0xb6fac8a3	-7.473938e-06
30	0xbd4f979b	-0.05068169
31	0xbc8c32db	-0.017114094
32	0x39207d37	0.00015305435
33	0x3d977afa	0.07396503
34	0x3d5ab7cf	0.05339795
35	0x36c75805	5.940909e-06
36	0xbd2eff63	-0.042724025
37	0x3cd23c8d	0.025663638
38	0xbd43273c	-0.04764484
39	0xbd559600	-0.052145004
40	0x3c5eeb10	0.013605848
41	0x3c1b1aa7	0.009466804
42	0xba91d3c9	-0.0011125739
43	0x3a43a166	0.000746271
44	0xbd5d9ada	-0.054102756
45	0x3ccc6a11	0.02495292
46	0xbb95dfc4	-0.004573794
47	0xbd37bad1	-0.044855896
48	0x3cddb60c	0.027064346
49	0x3cc9b589	0.024622696
50	0x3cba38ce	0.022732165
51	0x370a46e8	8.24195e-06
52	0xba10311f	-0.00055004837
53	0xbd81d46d	-0.06339345
54	0xb90465cf	-0.00012626428
55	0x3d81e945	0.06343321
56	0x3cb57c98	0.022154137
57	0xbd6d1d49	-0.057889257
58	0x3d00c2ba	0.031435706
59	0x3d904398	0.070441425
60	0xb621ca63	-2.4108674e-06
61	0xbc06895d	-0.008211461
62	0x3a22813b	0.00061990664
63	0x3bfd5f19	0.007732284

nns.0.2.weight f4 [64, 64]
0	0x3d1892d9	0.03724942
1	0x3db1d29d	0.086827494
2	0xbe3e5d1b	-0.18590204
3	0xbde0b01a	-0.10971089
4	0x3cf0f657	0.029414339
5	0x3e0faecc	0.14031523
6	0x3c5aa450	0.013344839
7	0x3e4faa3a	0.2027978
8	0x3d669c06	0.05630114
9	0x3cfd13c7	0.03089322
10	0x3d6bd6f3	0.05757804
11	0xbe04895a	-0.1294302
12	0xbd8a3954	-0.06749216
13	0xbe01e539	-0.12685098
14	0x3bff1ae3	0.0077851876
15	0x3c0364ec	0.008019667
16	0x3da0dfb4	0.07855168
17	0xbd890bd3	-0.066917084
18	0xbc8ec0bc	-0.017425887
19	0x3de44d51	0.111475594
20	0x3c590e7d	0.013248083
21	0x3da8bc0e	0.082389936
22	0xbe3101a5	-0.17285784
23	0x3dab4856	0.08363406
24	0xbcc18628	-0.023623541
25	0x3e1725fc	0.14760584
26	0x3da5663a	0.08076139
27	0x3d02d538	0.031941622
28	0xbe459b82	-0.19297603
29	0x3c8a8661	0.01690978
30	0x3e07387e	0.13205144
31	0xbe2c6b31	-0.16837765
32	0xbdcb8c63	-0.09938886
33	0xbdf27005	-0.11837772
34	0x3e05d12d	0.13068075
35	0x3dadaaac	0.08479819
36	0x3b8e6c6a	0.00434642
37	0x3d74d5d8	0.05977425
38	0xbd45db0a	-0.048304595
39	0xbc26dc20	-0.010184318
40	0x3d26f0f6	0.040757142
41	0x3db1ee5e	0.08688043
42	0xbd9424b3	-0.07233562
43	0xbdbdefbd	-0.09274242
44	0xbe26dd3e	-0.16295335
45	0xbe34c860	-0.17654562
46	0xbcff16c8	-0.031138793
47	0x3d3c29ff	0.045938488
48	0xbd9db63a	-0.077007726
49	0x3e5e10ee	0.21686146
50	0x3b652834	0.003496659
51	0xbc4847da	-0.012224162
52	0xbc0c541b	-0.008564974
53	0x3ddfbfbe	0.10925244
54	0xbda1c62e	-0.07899128
55	0x3e286b6e	0.16447231
56	0x3ddf8aae	0.10915123
57	0xbe07c1d6	-0.13257536
58	0xbcbc6593	-0.022997653
59	0xbd6d3f3f	-0.057921644
60	0x3e6d813f	0.23193835
61	0xbdcd0516	-0.10010736
62	0xbdf0ec87	-0.11763864
63	0xbcebf38c	-0.028802656
64	0x3c4bc723	0.012437615
65	0xbd986acb	-0.07442244
66	0xbda62b30	-0.08113706
67	0x3bc2085d	0.005921407
68	0xb9e1c02e	-0.0004305853
69	0x3c0cf33b	0.008602913
70	0xbe06c89a	-0.13162461
71	0xbd6809ba	-0.0566499
72	0x3c1d8a81	0.009615541
73	0xbc7ec49f	-0.015549808
74	0x3e0d32f1	0.13788964
75	0xbe181b2a	-0.14854112
76	0x3978528e	0.00023681877
77	0x3d653b65	0.055964846
78	0xbd637387	-0.055530097
79	0x3e2488cd	0.1606781
80	0xbd296133	-0.041352462
81	0x3e2ff681	0.17183878
82	0x3b9dba71	0.0048134853
83	0x3e4f6a97	0.20255505
84	0xbdf1a567	-0.11799126
85	0xbd30eb14	-0.043192938
86	0x3e2a1255	0.16608556
87	0x3d73fdfa	0.059568383
88	0xbe3bd776	-0.1834391
89	0x3e1fc972	0.15604189
90	0xbcdda102	-0.027054314
91	0xbde33616	-0.110943004
92	0x3d651cf1	0.055935804
93	0x3df82d3f	0.12118005
94	0xbc8b580e	-0.017009761
95	0x3db8784a	0.09007318
96	0x3b33d853	0.0027442172
97	0x3d32c646	0.04364612
98	0xbcc07668	-0.02349396
99	0x3ca091ea	0.019600827
100	0xbd04f2dc	-0.03245817
101	0xbde0914c	-0.10965213
102	0xbd5af8ee	-0.053460054
103	0x3d1a0ec5	0.03761174
104	0x3dcbdde7	0.09954434
105	0x3d04e671	0.03244633
106	0xbcda3d21	-0.026640477
107	0x3e033b59	0.12815608
108	0x3d8738ec	0.06602654
109	0x3dac793c	0.08421561
110	0x3dceb94e	0.10093938
111	0xbde97d0e	-0.114008054
112	0x3d2485dd	0.040166724
113	0xbe3ab5cc	-0.18233413
114	0xba3965d2	-0.00070723624
115	0x397fff17	0.00024413723
116	0xb8389c2f	-4.4014476e-05
117	0xbded10b6	-0.11575453
118	0x3c156483	0.009118202
119	0xbe259c01	-0.16172792
120	0x3c985ac8	0.018597975
121	0xbdddd194	-0.108309895
122	0x3dfd3840	0.123642445
123	0x3ded1928	0.11577064
124	0x3de3b0d5	0.111177124
125	0xbe05c8e6	-0.13064918
126	0x3de8ebbc	0.11373088
127	0xbdd88ecd	-0.10574112
128	0xb7e1144a	-2.6831538e-05
129	0xbd51919d	-0.05116426
130	0xbe3e6e77	-0.18596826
131	0x3d7eb614	0.062185362
132	0xbcc46a6c	-0.023976527
133	0xbdec1845	-0.115280665
134	0xbd9d6d58	-0.07686871
135	0x3e330a8e	0.17484495
136	0xbca8eefb	-0.020621767
137	0x3b905916	0.004405151
138	0x3e4a92a0	0.19782495
139	0x3d3d3f5b	0.046203
140	0x38fe2590	0.000121186604
141	0x3e08a2df	0.1334338
142	0x3db4e3b8	0.088324964
143	0x3e2d201f	0.16906784
144	0xbe18d2f8	-0.14924228
145	0x3e39e72d	0.18154593
146	0x3d58764a	0.052847184
147	0xbd0662f9	-0.03280923
148	0xbcd7412d	-0.026276195
149	0xbdc43574	-0.09580508
150	0xbe16e465	-0.14735563
151	0x3bd12343	0.0063823774
152	0x3d73d2f0	0.059527338
153	0x3d2c9fcf	0.042144593
154	0xbd3b4ae0	-0.045725703
155	0xbcafbadb	-0.021451404
156	0x3dce6bfc	0.1007919
157	0x3e39f4ce	0.18159792
158	0x3deb4c61	0.114891775
159	0xbd49c7ee	-0.049262933
160	0x3b88e7b7	0.004178013
161	0x3e058087	0.1303731
162	0x3d597c5f	0.053097125
163	0x3db20a2f	0.086933486
164	0x3bd76b77	0.00657409
165	0x3e0d1476	0.13777336
166	0x3c91ab06	0.017781746
167	0x3de99140	0.11404657
168	0x3e00c22d	0.12574072
169	0xbe0bcddd	-0.1365275
170	0x3a8d462d	0.001077836
171	0xbe26fea1	-0.1630807
172	0x3e06fc1e	0.13182113
173	0xbda4b0e3	-0.08041551
174	0xbdd07ac6	-0.10179667
175	0xbe2ee3be	-0.17079064
176	0xbceff6a3	-0.02929241
177	0x3e241ac1	0.16025831
178	0x3c6e00c3	0.014526549
179	0x3bc3182d	0.0059538097
180	0x3b66ab10	0.0035197176
181	0x3db4bb75	0.08824817
182	0xbb8363bb	-0.0040096915
183	0xbde3221a	-0.11090489
184	0xbda582c6	-0.08081584
185	0x3e3cccff	0.18437575
186	0x3d873e6f	0.06603705
187	0x3d1e33eb	0.03862373
188	0xbd4b5a12	-0.049646445
189	0xbe2af2f0	-0.16694236
190	0x3e36dff1	0.17858864
191	0xbe00e4bd	-0.12587257
192	0xbb152a84	-0.0022760937
193	0xbdbdba26	-0.092640206
194	0x3d9b3c97	0.07579916
195	0xbcdff0f2	-0.027336571
196	0xb9affecb	-0.00033568437
197	0xbe10a971	-0.14127137
198	0x3d6af4b8	0.05736229
199	0x3ce18716	0.027530234
200	0xbdb614a1	-0.088906534
201	0x3b8ceaef	0.004300467
202	0x3dce0538	0.10059589
203	0x3e0bb98d	0.13645001
204	0xb8f63592	-0.00011740172
205	0x3e3e52b9	0.18586244
206	0x3e087dba	0.13329211
207	0x3df10b27	0.11769705
208	0x3d598f48	0.05311516
209	0xbde50faf	-0.11184632
210	0x3bdf5c7f	0.0068164463
211	0xbe40aa26	-0.18814906
212	0x3be59df3	0.0070073544
213	0xbd356e96	-0.044294916
214	0xbd9b50b6	-0.07583754
215	0x3d21bbed	0.03948586
216	0x3e172303	0.1475945
217	0xbd7ed482	-0.062214382
218	0x3e2993bc	0.16560262
219	0x3e12feb0	0.14354968
220	0xbddfb0c7	-0.109223895
221	0xbdc2895c	-0.094988555
222	0x3c1a18a4	0.009405289
223	0x3a96d4d4	0.001150752
224	0x38cf62a1	9.8889e-05
225	0xbe1f178c	-0.15536326
226	0xbe2595df	-0.16170453
227	0x3e078ebd	0.13238044
228	0x3e43a0e4	0.19104344
229	0xbd37a9e8	-0.04483977
230	0x3de93354	0.11386743
231	0x3e3b7f2b	0.1831023
232	0xbe1a5ed2	-0.15075234
233	0x3e1ea680	0.15493202
234	0x3aab3233	0.0013061225
235	0xbca21bbd	-0.019788617
236	0xbe12e8be	-0.14346597
237	0x3d94c758	0.07264584
238	0x3d8f1bcf	0.06987726
239	0xbdc6603b	-0.09686323
240	0x3c13c75d	0.0090197
241	0xbe140788	-0.14455998
242	0x3d649eca	0.055815496
243	0x3c525db0	0.01283972
244	0xba173c69	-0.00057691947
245	0xbe3fef34	-0.18743593
246	0xba1435ff	-0.0005653798
247	0x3e4f8586	0.20265779
248	0x3df11f12	0.11773504
249	0x3c19e250	0.009392336
250	0x3d99ffaf	0.07519471
251	0x3dfae8cb	0.12251433
252	0xbd9ffcaa	-0.07811864
253	0x3dfea8e5	0.12434558
254	0x3e3fadab	0.18718593
255	0xbc96016f	-0.01831123

nns.0.2.bias f4 [64]
0	0xb5a36334	-1.2173318e-06
1	0x37836551	1.5663596e-05
2	0x3606fc8e	2.0114562e-06
3	0x35c30b85	1.4531985e-06
4	0xb58e9bbf	-1.0625153e-06
5	0xb79e9589	-1.89047e-05
6	0x36efa390	7.1417962e-06
7	0xb6728593	-3.613856e-06
8	0x3503609c	4.894189e-07
9	0x386cafc1	5.643047e-05
10	0xb61a076a	-2.2952104e-06
11	0xb79db35c	-1.879938e-05
12	0x37be91ed	2.2717717e-05
13	0xb6609a64	-3.3468468e-06
14	0xb59ddbd3	-1.1761389e-06
15	0x3741c819	1.1550285e-05
16	0x3491382b	2.7049222e-07
17	0x35c79bed	1.4872036e-06
18	0x358cf443	1.0501902e-06
19	0xb3a57b5f	-7.705852e-08
20	0x36413cb7	2.8794582e-06
21	0xb2ffd28b	-2.9781651e-08
22	0x333ecb24	4.4422578e-08
23	0x36dfaf44	6.6663215e-06
24	0xb69991a0	-4.5767083e-06
25	0xb7403917	-1.1457384e-05
26	0x36d406ca	6.3188827e-06
27	0x35b92e01	1.3796963e-06
28	0x36b88001	5.498529e-06
29	0x3747f9bd	1.1919471e-05
30	0xb6516186	-3.1200193e-06
31	0xb657c160	-3.2150056e-06
32	0x34a0030f	2.9804548e-07
33	0x358373ea	9.793996e-07
34	0x37262577	9.903094e-06
35	0x371e8ffc	9.451058e-06
36	0x3588783a	1.016778e-06
37	0xb6934c70	-4.38984e-06
38	0xb7907081	-1.7218526e-05
39	0xb6ad3073	-5.161442e-06
40	0x37586c5e	1.28998345e-05
41	0x36d07c47	6.213351e-06
42	0xb6b7e402	-5.4803686e-06
43	0xb661f042	-3.3667461e-06
44	0x356b44f8	8.7644685e-07
45	0x376d3752	1.4139181e-05
46	0xb5f3b8ef	-1.8158734e-06
47	0x3680dd7a	3.8404805e-06
48	0x372ad58b	1.0182509e-05
49	0x377c44e5	1.5036411e-05
50	0xb6770ac3	-3.6812132e-06
51	0x37107f8d	8.612767e-06
52	0xb684d678	-3.958874e-06
53	0x378a002d	1.6450964e-05
54	0xb6015330	-1.927092e-06
55	0x35448f1b	7.3223936e-07
56	0x37c33fd8	2.3275541e-05
57	0x37887825	1.626841e-05
58	0xb538c8a3	-6.8837306e-07
59	0xb51cdf80	-5.8439764e-07
60	0x348e04d6	2.645308e-07
61	0xb65e25b4	-3.3102524e-06
62	0x35ab736a	1.2774083e-06
63	0xb70bc391	-8.3305795e-06

nns.1.0.weight f4 [64, 64]
0	0xbe4921ac	-0.19641751
1	0x3dfc39b6	0.12315695
2	0xbc982102	-0.018570427
3	0x3e2e3226	0.17011318
4	0x3d346c7f	0.044048782
5	0x3e21b7fd	0.15792842
6	0x3dec9add	0.11552975
7	0xbe66b2db	-0.22529165
8	0xbe2edae9	-0.17075695
9	0xbe588e13	-0.21147947
10	0x3dbc26e4	0.09187105
11	0xbc30aa15	-0.010782738
12	0x3e31d180	0.17365074
13	0x3e5f91bb	0.21832936
14	0x3dba5e03	0.090999626
15	0x3dedfbbb	0.116202794
16	0x3e300f20	0.1719327
17	0xbe2fb61b	-0.17159311
18	0x3d519558	0.051167816
19	0xbdc1c25b	-0.094608985
20	0x3de90fbd	0.11379955
21	0x3deb4d68	0.114893734
22	0x3d9bf529	0.0761512
23	0x3d91eee1	0.07125641
24	0xbd96d607	-0.07365041
25	0x3d3a3ff6	0.045471154
26	0x3d9d64ad	0.07685218
27	0xbdb5b493	-0.088723324
28	0x3d72ced5	0.05927928
29	0xbdbdd0b2	-0.09268321
30	0xbcc533fb	-0.024072638
31	0xbd46cc52	-0.0485347
32	0xbe08ae58	-0.13347757
33	0xbdd09d81	-0.101862915
34	0xbda3e930	-0.08003461
35	0x3e3c8927	0.18411694
36	0xbd1af5e1	-0.037832145
37	0xbe0ed81d	-0.13949628
38	0x3e2b49c5	0.1672736
39	0x3d6e91a3	0.05824436
40	0xbd6606ee	-0.056158952
41	0xbdc922cc	-0.0982109
42	0x3e239248	0.1597377
43	0xbe2ae8f8	-0.16690433
44	0xbd71929d	-0.058977712
45	0xbd0c7490	-0.03429085
46	0xbe44f21f	-0.19232987
47	0xbd3d1f4b	-0.04617242
48	0xbd03c6f0	-0.032172143
49	0x3e00c96f	0.12576841
50	0xbd856406	-0.065132186
51	0x3de592cd	0.11209641
52	0xbdd68160	-0.10473895
53	0x3e0e2c45	0.13884075
54	0xbd975a95	-0.07390324
55	0xbc0864d3	-0.00832482
56	0xbe61936e	-0.22028896
57	0x3dbcfa7b	0.09227463
58	0x3e0b7c24	0.13621575
59	0x3d5ab0bb	0.0533912
60	0x3d2b53f6	0.04182812
61	0xbd789059	-0.060684536
62	0x3c6f299d	0.014597324
63	0x3df4a8a1	0.11946226
64	0xbe1a4fbd	-0.1506948
65	0x3e151410	0.14558434
66	0xbdb674c0	-0.08908987
67	0x3e4979cc	0.19675368
68	0x3e0fd8ba	0.14047518
69	0xbd0f78fe	-0.035027497
70	0x3dff1c74	0.12456599
71	0x3db53c7f	0.08849429
72	0xbdecb6be	-0.11558293
73	0xbe18d03e	-0.14923188
74	0xbd46c53c	-0.04852794
75	0xbd7c87ce	-0.06165295
76	0x3c7b4fd7	0.0153388595
77	0xbcbfc1b0	-0.023407787
78	0xbdb0ee79	-0.08639235
79	0xbd577eef	-0.052611288
80	0xbd5bf0a1	-0.05369628
81	0x3da91a72	0.08256997
82	0x3d5e7124	0.054307118
83	0x3d97c9d0	0.074115396
84	0xbded3cc6	-0.11583857
85	0x3c1e5456	0.009663662
86	0xbddb46fd	-0.10706899
87	0x3c9bd3e7	0.019021941
88	0x3d53dcdb	0.051724296
89	0xbd928eba	-0.07156129
90	0xbe087244	-0.13324839
91	0xbe070544	-0.13185602
92	0xbc404ca8	-0.011737026
93	0xbd0bd204	-0.034135833
94	0xbe10a0d7	-0.14123856
95	0x3d495c4f	0.049160298
96	0xbe4cd970	-0.20004821
97	0x3e3d7cbd	0.18504615
98	0xbd89df94	-0.06732097
99	0xbd879125	-0.06619481
100	0xbd8c4c70	-0.06850517
101	0xbcbc1291	-0.022958072
102	0x3e3efa82	0.18650249
103	0xbe145650	-0.1448605
104	0xbe29fbb7	-0.16599928
105	0xbd8430c9	-0.064546175
106	0xbe219b63	-0.15781932
107	0xbd3363c0	-0.0437963
108	0xbc9c390b	-0.019070169
109	0x3dede83b	0.1161656
110	0x3e193a83	0.14963727
111	0xbe27e5c6	-0.16396245
112	0xbe0bd199	-0.13654174
113	0xbccf4c02	-0.025304798
114	0x3d5f0bdf	0.05445468
115	0xbbd1b388	-0.0063995756
116	0xbd8147bd	-0.06312511
117	0xbdf7fcdb	-0.12108775
118	0x3d9e4eea	0.077298954
119	0xbe0efd79	-0.1396388
120	0x3dd2f125	0.10299901
121	0xbe0e5b81	-0.13902093
122	0xbe2a6e52	-0.16643646
123	0xbe126b38	-0.14298713
124	0x3e199171	0.14996888
125	0xbe22a882	-0.15884593
126	0x3d4a2b52	0.04935772
127	0x3e1cc744	0.15310389
128	0x3dc5bff5	0.096557535
129	0xbe303ce2	-0.17210725
130	0x3e14cb6d	0.14530726
131	0x3e4088ac	0.18802136
132	0xbe4169f9	-0.18888082
133	0x3e2f40b5	0.17114528
134	0xbe335607	-0.17513286
135	0x3dddbf5e	0.10827516
136	0xbcf0ac1f	-0.029378949
137	0x3cc44b82	0.023961786
138	0xbd9f4ace	-0.0777794
139	0xbe261aed	-0.16221209
140	0xbdabbb29	-0.08385307
141	0xbdebfb45	-0.11522535
142	0xbde7907f	-0.11306857
143	0xbc2d8cd9	-0.010592663
144	0x3d8eded1	0.069760926
145	0xbe2fa148	-0.17151368
146	0x3e02650f	0.12733863
147	0xbe17ae1e	-0.14812514
148	0x3d9cb6a3	0.07652023
149	0x3e625e6a	0.22106329
150	0x3e1181a6	0.14209613
151	0xbdfc744d	-0.1232687
152	0x3e45d75d	0.19320436
153	0x3dbbdcdd	0.09172986
154	0x3e11860c	0.14211291
155	0xbe1071e8	-0.14105952
156	0xbd0a2faa	-0.033736862
157	0xbdb30c58	-0.08742589
158	0xbd8bcbe7	-0.06826001
159	0x3d5f6061	0.054535273
160	0x3e542382	0.2071667
161	0xbe08f21c	-0.13373607
162	0x3dae5273	0.0851182
163	0xbe3d718a	-0.18500343
164	0x3df4ef9f	0.119597666
165	0xbc94a98b	-0.01814725
166	0xbe62d8c3	-0.22153
167	0xbdd888c9	-0.10572965
168	0xbd9c3dfc	-0.0762901
169	0xbd80ff83	-0.06298735
170	0x3e46d836	0.19418415
171	0xbe4d8634	-0.20070726
172	0xbe05c2af	-0.13062547
173	0xbd3de815	-0.04636391
174	0xbde3f378	-0.11130422
175	0xbdcf9607	-0.10136037
176	0x3e459773	0.19296055
177	0x3ccf57d6	0.025310438
178	0x3c55112e	0.013004584
179	0x3dadc3ed	0.084846355
180	0xbdebefd0	-0.1152035
181	0xbd9a82cb	-0.07544478
182	0x3e2dc6fb	0.16970436
183	0x3d54f576	0.051991902
184	0x3e20efb3	0.15716438
185	0xbe3e5483	-0.18586926
186	0x3d10596a	0.035241522
187	0xbe0d18c6	-0.13778982
188	0x3e59a887	0.21255694
189	0x3e02e108	0.12781155
190	0x3e0430ea	0.12909284
191	0x3dcc85df	0.099864714
192	0x3d854de6	0.065089986
193	0xbe42a396	-0.19007716
194	0xbc766c8c	-0.015040528
195	0xbe3ffb95	-0.18748315
196	0x3e4a547d	0.19758792
197	0xbd3be921	-0.045876626
198	0x3c8040e5	0.015655944
199	0xbce29264	-0.027657695
200	0x3d71ccaa	0.059033073
201	0xbe38e485	-0.18055923
202	0x3d30e5f6	0.043188058
203	0x3dc232a6	0.09482317
204	0xbe58590e	-0.21127722
205	0x3df2a4a0	0.11847806
206	0x3e22ca8a	0.15897575
207	0xbc659229	-0.014011898
208	0xbe0ad3df	-0.13557385
209	0xbe332c15	-0.17497285
210	0x3dae2abe	0.08504246
211	0x3e216fe8	0.15765345
212	0x3dc09f0c	0.09405336
213	0xbc62b3c8	-0.0138368085
214	0x3e166912	0.14688519
215	0xbd45c028	-0.048278958
216	0xbd7b2522	-0.06131471
217	0xbd2345a8	-0.03986135
218	0xbd03cd3c	-0.03217815
219	0x3e20513a	0.15655985
220	0xbe516486	-0.20448503
221	0xbd8ba7d1	-0.06819118
222	0x3e310d08	0.17290127
223	0x3e3a1c75	0.18174918
224	0x3de8bf35	0.11364595
225	0x3de6bc09	0.112663336
226	0xbd1b7eb7	-0.03796264
227	0x3de0bc6c	0.109734386
228	0x3df99901	0.12187386
229	0x3d9e42b9	0.0772757
230	0xbde467f4	-0.1115264
231	0x3cdeb701	0.027186872
232	0xbd5a4bca	-0.053294934
233	0x3e03e24a	0.12879291
234	0xbe4843c2	-0.19557098
235	0x3cc134bc	0.023584716
236	0xbe393888	-0.18087971
237	0xbd6b389a	-0.057427026
238	0x3de0e0c1	0.109803684
239	0xbd1bec9e	-0.038067453
240	0xbdaac917	-0.08339136
241	0x3e107a82	0.14109233
242	0x3e258df5	0.16167434
243	0xbde02e9e	-0.109463915
244	0x3d5c13e4	0.053729907
245	0x3e38d8cc	0.18051451
246	0x3e447cea	0.19188276
247	0xbdaf1d3d	-0.08550499
248	0x3dea824d	0.11450634
249	0xbe50fb28	-0.20408309
250	0x3d32edcb	0.04368381
251	0x3e3ac6fa	0.18239966
252	0xbdc6a371	-0.09699143
253	0x3d67cc22	0.05659116
254	0x3e18664f	0.14882778
255	0xbc123fea	-0.008926371

nns.1.0.bias f4 [64]
0	0xbd1eb7d9	-0.03874955
1	0x3bc27569	0.0059344065
2	0xbc224ce0	-0.009906024
3	0x3d0a1094	0.033707216
4	0x3d04a76f	0.03238624
5	0x3cbf8b17	0.023381753
6	0xbbd4716c	-0.0064832475
7	0x3c604d21	0.013690264
8	0xbbff162f	-0.007784627
9	0x3c53d0a5	0.012928163
10	0x3a2b838e	0.00065427355
11	0x3cb11dba	0.02162062
12	0x3c147a9d	0.009062436
13	0x39bdfe5a	0.00036238396
14	0xbcb5352a	-0.022120077
15	0xbb8ca1aa	-0.004291733
16	0x3b35feb1	0.0027770216
17	0x3d421dea	0.04739181
18	0x3ced12e3	0.02893967
19	0xbc3d721c	-0.01156285
20	0x3c756400	0.014977455
21	0x3d0015ef	0.031270918
22	0xbd3abcce	-0.045590214
23	0xbb34c2d5	-0.002758195
24	0x3d25e99c	0.04050599
25	0x3cb31bd8	0.021863863
26	0xbc2ce974	-0.010553706
27	0x3cab66cb	0.020923039
28	0xbc9ec0c8	-0.019379035
29	0x3c6ced82	0.014460923
30	0xbc482110	-0.012214914
31	0xbb0d4cea	-0.0021560737
32	0x3c861546	0.016367566
33	0x3b8360c7	0.0040093395
34	0x3bbaaec8	0.005697105
35	0xbc291ccf	-0.01032181
36	0xbcfcb572	-0.030848239
37	0x39ce380e	0.00039333146
38	0xbc510a51	-0.012758807
39	0x3cffb973	0.031216359
40	0x3aa4702e	0.0012545639
41	0x3b1ebacf	0.0024220233
42	0x3d3ea738	0.04654619
43	0x3c94e032	0.01817331
44	0x3c885ff2	0.016647313
45	0xb954b716	-0.000202861
46	0xbc6e3d84	-0.014541034
47	0x3ba1b66a	0.0049350755
48	0xbd2e1659	-0.04250178
49	0xba4ed9d6	-0.00078907365
50	0xbd0ce3d7	-0.034396973
51	0x3aec3c7b	0.0018023396
52	0xbc08737e	-0.008328317
53	0x3d358aa9	0.04432169
54	0x3af4b890	0.0018670727
55	0x3c8f41c6	0.017487418
56	0xbb69d04d	-0.0035677135
57	0xbd2d85d9	-0.042363975
58	0xbc80ae4f	-0.015708117
59	0x3c0c85f6	0.008576861
60	0x3d02bb0c	0.031916663
61	0x3bff33c9	0.0077881557
62	0xbbdf83e6	-0.0068211434
63	0xbcac248f	-0.021013526

nns.1.2.weight f4 [64, 64]
0	0x3d935864	0.071945935
1	0xbbbc4747	-0.0057458016
2	0xbd1c9a25	-0.03823294
3	0x3e12a935	0.1432236
4	0xbc611a80	-0.013739228
5	0x3e0f9634	0.14022142
6	0xbdf0652e	-0.117380485
7	0x3c80e654	0.015734829
8	0x3e1985c8	0.1499244
9	0x3e294cfe	0.16533276
10	0x3d23c10f	0.039979037
11	0x3e0a81ab	0.13526027
12	0x3c53daf2	0.012930619
13	0xbe0870db	-0.13324301
14	0xbe1f2a72	-0.15543535
15	0x3e27cd1d	0.16386838
16	0x3db91e1e	0.090389475
17	0x3cf92bb2	0.030416343
18	0x3cd0d4de	0.025492128
19	0xbdb2143f	-0.08695268
20	0xbe4e0589	-0.20119299
21	0xbe03db25	-0.12876566
22	0x3e0a79fa	0.13523093
23	0x3cd87504	0.026422985
24	0x3c9c1b85	0.019056091
25	0x3e18ddfa	0.14928427
26	0x3e532c75	0.20622428
27	0xbdf3f73a	-0.11912389
28	0x3d9d7658	0.07688588
29	0xbe231d92	-0.15929249
30	0x3df266b4	0.11835995
31	0x3d87559f	0.06608128
32	0xbe17f6da	-0.1484026
33	0x3d5b1ea5	0.05349602
34	0x3da923e2	0.08258797
35	0xbdeb657c	-0.11493966
36	0xbe4320a4	-0.1905542
37	0x3cd85920	0.026409686
38	0xbd902364	-0.07038
39	0x3d3e0961	0.046395663
40	0x3df02e30	0.117275596
41	0x3d82b226	0.06381635
42	0x3e0c15ef	0.13680242
43	0x3db41954	0.087938935
44	0xbe29abb4	-0.16569406
45	0xbe139810	-0.14413476
46	0xbce9db78	-0.028547034
47	0x3ddf8be3	0.10915353
48	0x3d07d31a	0.033160307
49	0xbdf89de4	-0.1213949
50	0xbdff9d2a	-0.124811485
51	0xbdb2032c	-0.08692011
52	0x3e3966d7	0.18105637
53	0x3c646d1d	0.01394203
54	0xbe3b74a2	-0.1830621
55	0xbdd0e5a0	-0.102000475
56	0x3e04cf7f	0.12969778
57	0x3d49f906	0.049309753
58	0x3d64fdbf	0.055906054
59	0x3d9ca53b	0.07648703
60	0xbe2aaa0d	-0.16666432
61	0xbe262de1	-0.16228439
62	0x3c8e0bd2	0.01733962
63	0x3d1ff542	0.039052255
64	0x3d154242	0.03644014
65	0x3d1276c5	0.0357578
66	0x3e1dfece	0.15429232
67	0x3d94ec49	0.0727163
68	0x3d9f0d63	0.07766225
69	0x3dd92ced	0.10604272
70	0xbda551d2	-0.080722466
71	0xbe311c3f	-0.17295931
72	0x3a594697	0.0008288412
73	0x3e2c844a	0.1684734
74	0xbdac5777	-0.0841512
75	0x3d6df388	0.058093578
76	0x3e179926	0.14804515
77	0xbbed48c7	-0.0072413418
78	0xbdf77054	-0.12081972
79	0xbd572e90	-0.05253464
80	0xbc75124f	-0.014957978
81	0x3e2b7c67	0.16746674
82	0xbdb66fbe	-0.08908032
83	0xbd454cc6	-0.04816892
84	0xbdf5be74	-0.11999217
85	0xbd94a5fc	-0.072582215
86	0xbe244e9a	-0.16045609
87	0xbd859154	-0.0652186
88	0xbdd5bd41	-0.10436488
89	0xbc201ae3	-0.009772035
90	0xbdbc5f76	-0.09197895
91	0x3d82f5bf	0.063945286
92	0xbe49e669	-0.19716801
93	0x3e2892ce	0.16462252
94	0x3e0f4b17	0.13993488
95	0x3c85751c	0.016291194
96	0x3d6bfa87	0.05761197
97	0x3e06e302	0.13172534
98	0xbd378399	-0.044803236
99	0x3cf899a9	0.030346708
100	0x3d18045d	0.037113536
101	0xbcd9cec4	-0.026587851
102	0xbd9386ac	-0.07203421
103	0xbe3ff83f	-0.18747042
104	0xbe0caf72	-0.13738802
105	0x3de336be	0.110944256
106	0xbe353f65	-0.17699964
107	0x3d754cf0	0.059887826
108	0x3e15bf4d	0.14623757
109	0x3de30a9b	0.11086007
110	0x3d4626e2	0.048376925
111	0xbd579347	-0.05263069
112	0x3e311384	0.17292601
113	0x3e35963a	0.17733088
114	0xbd0c555c	-0.034261093
115	0x3dcf1920	0.10112214
116	0x3d349589	0.04408792
117	0xbd980718	-0.07423228
118	0x3df51843	0.11967518
119	0x3e091710	0.13387704
120	0x3d32ebb9	0.043681834
121	0xbdf09046	-0.11746268
122	0x3e2537f7	0.1613463
123	0x3e0ff815	0.1405948
124	0x3c3dbcd0	0.011580661
125	0xbe20f1cf	-0.15717243
126	0xbd3fa7bf	-0.046790835
127	0x3cf754e6	0.03019185
128	0x3e17efef	0.14837621
129	0x3e12cf79	0.14336957
130	0x3d32dd8e	0.043668322
131	0xbe244cef	-0.16044973
132	0xbd40fb3a	-0.04711459
133	0x3d2331d7	0.039842453
134	0x3e216b9e	0.15763709
135	0x3e27da67	0.16391908
136	0x3d397d75	0.04528566
137	0xbd192c0a	-0.037395515
138	0x3ddf9c8f	0.10918533
139	0xbc648248	-0.013947077
140	0x3cf53662	0.029933158
141	0xbb889c7c	-0.004169045
142	0x3d4c495d	0.049874652
143	0xbdd72e29	-0.10506851
144	0x3e2d9fa8	0.16955435
145	0xbdf61af2	-0.12016858
146	0xbe29bde7	-0.16576348
147	0x3db23c2f	0.08702885
148	0xbdd56f52	-0.10421623
149	0xbe26a933	-0.16275482
150	0xbdd9f57d	-0.10642526
151	0xbe009b0d	-0.12559147
152	0x3e3759da	0.1790537
153	0xbe03b79d	-0.12863012
154	0xbdbae5dc	-0.091258734
155	0xbdf21c7d	-0.1182184
156	0x3d8366d9	0.06416101
157	0x3cb68953	0.022282278
158	0x3d334039	0.04376242
159	0x3d811002	0.063018814
160	0x3e0a4be9	0.1350552
161	0x3d4d3a30	0.05010432
162	0x3d33112b	0.043717545
163	0x3d1d9a59	0.038477276
164	0xbdd28826	-0.102798745
165	0xbe2ef831	-0.17086865
166	0x3de058cf	0.10954439
167	0x3d8f2816	0.06990068
168	0xbe108ebe	-0.14116952
169	0xbe04c575	-0.12965949
170	0xbd031a00	-0.032007217
171	0xbde19670	-0.11015022
172	0xbc282387	-0.010262377
173	0x3d38e44a	0.04513959
174	0x3d2c02dc	0.041994914
175	0xbe43ab56	-0.19108328
176	0xba143d00	-0.00056548417
177	0xbcc6a3f3	-0.024248099
178	0x3dee9465	0.11649398
179	0xbdf8005a	-0.12109442
180	0xbd7a0d8a	-0.061048068
181	0xbddbc307	-0.10730558
182	0x3e2c2b23	0.1681333
183	0xbcbd1fe8	-0.023086503
184	0xbdf16f96	-0.117888615
185	0x3dc041b1	0.0938753
186	0x3e2f7b1c	0.17136806
187	0xbe030f22	-0.12798741
188	0xbd169cc2	-0.03677059
189	0xbddab8f0	-0.10679805
190	0xbdfb6aa4	-0.122761995
191	0xbe38af5e	-0.18035647
192	0x3d98b333	0.074560545
193	0x3dfe6e0d	0.12423334
194	0x3e4182b4	0.18897516
195	0x3d1585dc	0.03650461
196	0xbdc5dd3b	-0.09661337
197	0x3e0a877a	0.13528243
198	0x3e083af9	0.13303746
199	0x3d9e9823	0.077438615
200	0x3d49ebd2	0.04929716
201	0x3e32ede9	0.17473568
202	0x3e1d6a5f	0.15372609
203	0xbde95709	-0.11393554
204	0xbe2b3f0c	-0.16723269
205	0x3db51d28	0.08843452
206	0xbdd87c62	-0.10570599
207	0x3dc3e5c5	0.095653094
208	0x3e17e72f	0.14834283
209	0x3e07685c	0.13223404
210	0xbdfd1220	-0.12356973
211	0x3cff728a	0.031182546
212	0x3d5b4722	0.053534634
213	0x3df7b661	0.12095333
214	0xbe0391fa	-0.12848654
215	0xbde6a038	-0.11261028
216	0x3d2d259a	0.042272188
217	0xbd17603e	-0.036957018
218	0x3e001f52	0.12511948
219	0xbc90e4e1	-0.017687263
220	0xbda263ba	-0.079291776
221	0xbe360246	-0.17774305
222	0xbdbab53c	-0.09116599
223	0x3e3f5933	0.1868637
224	0xbe0119f7	-0.12607561
225	0xbb80c976	-0.003930266
226	0xbd032a40	-0.032022715
227	0x3dafb922	0.08580233
228	0xbdac4b56	-0.08412807
229	0x3d750137	0.05981561
230	0x3e0f8c14	0.1401828
231	0x3d262e64	0.040571585
232	0x3c9fb10b	0.0194936
233	0xbda7fe75	-0.08202831
234	0x3e1b76a0	0.1518197
235	0x3e41b7f4	0.18917829
236	0x3dfc741b	0.12326833
237	0x3d482be1	0.04886997
238	0xbdc1038b	-0.09424504
239	0x3e117cb3	0.14207725
240	0xbd2fa80e	-0.04288488
241	0x3e509b41	0.20371725
242	0x3e219461	0.15779258
243	0x3e32f08f	0.17474578
244	0xbe45fc74	-0.19334584
245	0xbe1607af	-0.14651369
246	0x3e2f565c	0.17122787
247	0x3e0adfca	0.13561931
248	0xbcfb9e85	-0.030715236
249	0x3d8db365	0.069189824
250	0x3d7107d2	0.05884535
251	0xbe35537b	-0.17707627
252	0xbc81aad6	-0.015828531
253	0x3c8d348d	0.017236972
254	0xbcb8e546	-0.022570264
255	0x3d2a284c	0.041542336

nns.1.2.bias f4 [64]
0	0xb49bcafa	-2.9018685e-07
1	0x358b49a2	1.0377737e-06
2	0x363a1ee9	2.7734152e-06
3	0xb2a49399	-1.9159232e-08
4	0xb426cdca	-1.553482e-07
5	0xb523f868	-6.108371e-07
6	0x36c850b5	5.96986e-06
7	0xb4fa772c	-4.6652838e-07
8	0x35bf35ae	1.4246232e-06
9	0xb7a36e7b	-1.948256e-05
10	0xb5aa71c0	-1.2699093e-06
11	0xb3d23bd1	-9.7897676e-08
12	0xb4e1164a	-4.1925733e-07
13	0x35a160d8	1.202362e-06
14	0xb617e0af	-2.2631536e-06
15	0xb732b9aa	-1.0652855e-05
16	0xb676f21e	-3.6797787e-06
17	0x35c02f02	1.4318796e-06
18	0x36754307	3.654686e-06
19	0xb6055c8e	-1.9872418e-06
20	0xb4fa3032	-4.6601195e-07
21	0xb7181b7c	-9.066305e-06
22	0xb699d79e	-4.5848565e-06
23	0x35a30596	1.2146072e-06
24	0x35a4cec7	1.2279132e-06
25	0xb50a1f85	-5.1454873e-07
26	0x3600a0c4	1.9167064e-06
27	0xb5e1d6e6	-1.682635e-06
28	0xb4615dcf	-2.0988885e-07
29	0xb75f92bb	-1.3325999e-05
30	0xb5fe26ea	-1.89358e-06
31	0xb44d5478	-1.9122842e-07
32	0x3618028a	2.2651243e-06
33	0xb68c6d3e	-4.1850426e-06
34	0x369e778b	4.7226836e-06
35	0x35f5d7cf	1.8316731e-06
36	0x36b5f272	5.4224447e-06
37	0x37178c51	9.032971e-06
38	0xb54fca06	-7.740749e-07
39	0xb3af81fa	-8.172715e-08
40	0x3679cd67	3.7223451e-06
41	0xb680464c	-3.822881e-06
42	0xb4b87176	-3.4355224e-07
43	0x35f77049	1.8435613e-06
44	0x362064e5	2.3900586e-06
45	0xb5b36f51	-1.3368937e-06
46	0xb6fac48f	-7.473463e-06
47	0x36f3751e	7.2555986e-06
48	0xb60d99bd	-2.1100125e-06
49	0x34d2324f	3.9152152e-07
50	0xb4ab773f	-3.1937995e-07
51	0xb41b0758	-1.4438172e-07
52	0x3325c1cf	3.8593324e-08
53	0xb53fdf12	-7.1477655e-07
54	0x35e52dd1	1.7075164e-06
55	0xb40bd114	-1.3021446e-07
56	0xb598eea4	-1.1394336e-06
57	0xb598fccf	-1.139846e-06
58	0x360b809a	2.078747e-06
59	0x35f471c3	1.8212526e-06
60	0x349e1893	2.9447673e-07
61	0x360a1c99	2.0580248e-06
62	0xb64af948	-3.0245446e-06
63	0xb50dbd42	-5.2802e-07
