weight/IMDB-BINARY/Client_1.pth (torch, 260953 bytes, 24 tensors)

bns.0.running_mean f4 [64]
000000 bf c6 42 3e d7 c8 b4 c0 7d 65 ff 40 7b 70 48 40
       0.19021128 -5.6495166 7.9811387 3.1318653
000010 fd 73 68 c0 5a 0b 7b 40 da a7 d0 be bb 0e 3f 41
       -3.6320794 3.9225678 -0.4075306 11.941096
000020 c3 aa c2 c0 d6 e0 70 40 97 69 94 c0 73 e6 a3 c0
       -6.083345 3.763723 -4.6378894 -5.121881
000030 a0 72 8b 40 d8 d9 d9 c0 65 19 a2 40 4e 51 11 c1
       4.3577423 -6.8078423 5.0656 -9.08235
000040 71 6a a0 c0 ab 0a 13 41 0c b3 44 40 09 de 95 c0
       -5.0129933 9.1901045 3.0734282 -4.683354
000050 ae 51 ef bf 60 d5 fa c0 f4 f9 07 c0 0f 24 89 40
       -1.8696802 -7.8385468 -2.124631 4.2856517
000060 2c 6c 83 40 43 97 48 be 6d 02 4c c0 59 98 36 3f
       4.1069546 -0.19588952 -3.187648 0.71326214
000070 2d 17 06 41 c6 5b 43 c0 f6 17 d7 c0 64 38 91 c0
       8.380658 -3.0524764 -6.721675 -4.5381336
000080 10 a6 97 40 0a 89 31 41 a8 b0 f0 40 a6 86 c0 c0
       4.7390213 11.095957 7.5215645 -6.0164366
000090 c7 c4 5a bf ad ad 2b 3f cc 3c 06 41 d2 42 9e c0
       -0.8545651 0.67061883 8.389843 -4.945657
0000a0 a3 87 d9 40 e6 4f 99 40 47 a3 ff bf e8 01 f3 c0
       6.797807 4.791003 -1.9971703 -7.5939827
0000b0 13 b7 e1 c0 d5 6e 5c 41 a0 00 58 c0 87 8b 19 bf
       -7.053598 13.777059 -3.3750381 -0.59978527
0000c0 53 66 b4 40 5a cd a8 bf f4 a3 f1 40 e7 09 f9 c0
       5.6374907 -1.3187668 7.551264 -7.782459
0000d0 b3 1a 2f c1 85 76 7d 40 82 d8 8d c0 0f e8 b4 c0
       -10.944018 3.9603589 -4.432679 -5.6533275
0000e0 e5 74 b2 c0 6d af cc 3e 48 55 92 c0 ea 41 35 c0
       -5.5767694 0.3997759 -4.5729103 -2.832148
0000f0 8e 20 4f c0 0a 64 27 40 81 31 da bf f4 c8 48 40
       -3.236362 2.615481 -1.7046357 3.1372652

bns.0.running_var f4 [64]
000000 bc 21 5e 3d 2b 54 4f 3f 1a 39 c0 3f f1 ba 57 3e
       0.05423139 0.80987805 1.5017426 0.21067406
000010 30 83 b4 3e 54 f9 30 3e ed 2a 05 3e e4 b8 62 40
       0.35256338 0.17282611 0.13004656 3.5425348
000020 d9 ad 3e 3f 31 24 1b 3f af 95 20 3f 03 6a c0 3f
       0.7448402 0.606021 0.627284 1.5032352
000030 08 12 53 3f 94 5d 84 3f 67 31 b7 3e 54 11 47 40
       0.8244939 1.0341058 0.35779878 3.1104326
000040 a8 cb 72 3f 7f ab 16 40 06 4e 86 3e 53 17 b5 3e
       0.94842005 2.3542173 0.26231402 0.35369357
000050 52 f7 0d 3d 11 7c a4 3f 66 ba d0 3e e8 d0 ef 3e
       0.03465969 1.2850362 0.4076721 0.4683907
000060 8f 8c 42 3f ed b3 6e 3d f0 4d 6d 3e 5c fd 81 3e
       0.75995725 0.05827706 0.23174262 0.2538861
000070 20 14 b0 3f a2 2c 38 3e ac 7f ca 3f 94 50 01 3f
       1.3756142 0.17985776 1.5820212 0.5051358
000080 08 c5 e4 3f 7e af 0a 40 c0 fd 98 3f f6 64 7e 3f
       1.7872629 2.1669612 1.1952438 0.99372804
000090 9f 60 1b 3e 50 0a 22 3e b0 ce 84 3f 5f 9b a6 3e
       0.15173577 0.15824246 1.0375576 0.32540414
0000a0 34 80 3f 3f 9d cb b2 3e 33 77 1c 3e c0 4f 96 3f
       0.74805 0.3492097 0.15279846 1.1743088
0000b0 55 c5 02 3f 0b ad 86 40 b5 2f 07 3f 8e ac d5 3d
       0.51082355 4.2086234 0.5280717 0.10433303
0000c0 6f 04 25 3f 7e 09 98 3d 49 33 a6 3f 11 e7 c1 3f
       0.6445989 0.074236855 1.2984401 1.5148641
0000d0 4e fa 41 40 d1 10 e7 3e 3c e5 77 3f b5 ef a3 3f
       3.0309024 0.45130017 0.9683416 1.2807528
0000e0 54 19 19 40 94 3c 23 3e 9d d7 8e 3f 64 2a c9 3e
       2.392171 0.15941077 1.115955 0.39290154
0000f0 a6 07 9c 3e d8 0f 55 3e 0b 8f 4e 3e 53 e7 82 3e
       0.30474585 0.20806825 0.20171754 0.2556711

bns.1.running_mean f4 [64]
000000 fa e2 ab c0 de 69 18 c2 08 22 11 c1 4c 2b 1d 42
       -5.371457 -38.103386 -9.070808 39.292282
000010 ce 8a 07 41 95 b0 2f 42 18 25 41 40 62 e4 02 41
       8.471388 43.922443 3.017889 8.1807575
000020 fc 3e e0 41 94 91 09 c0 cf cb bf c1 8a 99 01 c1
       28.030754 -2.1495104 -23.974516 -8.099985
000030 b0 ec 50 40 7a 87 f1 c0 64 6b 06 42 33 62 0a c1
       3.2644463 -7.5477877 33.604874 -8.648974
000040 55 ee 09 42 ae 45 5e c1 b7 42 16 c1 94 e5 4e 40
       34.482746 -13.892012 -9.391288 3.2327623
000050 c0 fe bc 3f 4d 59 dd c1 d2 c5 a4 41 54 ce 59 c1
       1.4765244 -27.668604 20.596592 -13.612873
000060 e5 e8 23 c2 87 fa c5 41 c1 f9 5b 3e a5 c3 17 42
       -40.977436 24.747328 0.21481992 37.94106
000070 a0 35 66 c1 19 86 f8 41 22 cc 99 41 04 82 38 c0
       -14.388092 31.065477 19.224674 -2.8829355
000080 47 21 18 c1 3b e2 8e 41 ef 1b 06 42 96 28 9e c1
       -9.508124 17.860464 33.52728 -19.769817
000090 e4 4b 1c 41 81 e0 73 c1 d9 62 76 40 02 1b 87 41
       9.768528 -15.242311 3.8497832 16.888187
0000a0 46 39 84 c0 f5 8b 84 41 a1 21 90 c0 1c c4 85 41
       -4.1319914 16.568338 -4.504105 16.720757
0000b0 f4 b2 20 c2 a0 d9 3a 42 25 21 33 42 a7 b8 03 42
       -40.17476 46.712524 44.782368 32.930325
0000c0 c5 f1 13 c2 7a 53 da 41 5e 87 75 c1 25 ae c8 c1
       -36.986103 27.29076 -15.345549 -25.085032
0000d0 cb 46 42 42 02 ed 58 42 88 ef fd c1 bd 04 66 c1
       48.569134 54.231453 -31.741959 -14.376157
0000e0 3c 6a fe bf 3d 0c 21 c1 a1 ae 07 c1 c0 fe c1 c1
       -1.987617 -10.065488 -8.480134 -24.24939
0000f0 80 e5 86 41 a9 fd 8d 41 55 c1 f6 40 7e ca 1c 42
       16.86206 17.748857 7.7111 39.197746

bns.1.running_var f4 [64]
000000 fe 36 4f 43 f5 ea 7d 44 2f 7c 24 42 9d d7 3f 43
       207.21481 1015.6712 41.121273 191.84224
000010 aa 22 f1 42 8d a4 a5 43 46 6f f9 42 95 7f 58 43
       120.5677 331.28555 124.71733 216.49837
000020 db 77 c8 42 17 2a 46 43 cf a7 ee 42 e4 d4 ca 42
       100.23409 198.16441 119.32775 101.4158
000030 71 27 d2 43 51 ad 88 43 66 a3 20 43 8a 7e 9e 43
       420.30814 273.35403 160.63828 316.9886
000040 ce c9 1a 43 52 ea 9d 43 f0 b2 8c 43 6e 82 3d 43
       154.7883 315.83063 281.39795 189.50949
000050 ee 6d c8 42 1d 89 93 43 17 0d 1e 42 4b f7 c3 41
       100.21471 295.0712 39.512783 24.495749
000060 28 13 04 44 1c f2 de 43 9d c3 2b 43 17 74 20 43
       528.2993 445.89148 171.76411 160.45348
000070 b5 87 84 43 e1 b4 cb 42 ae 04 21 44 39 82 3e 43
       265.0602 101.85328 644.0731 190.50868
000080 3b a5 b4 41 ea 1d 6e 43 df 16 2c 43 27 e3 83 43
       22.580679 238.11685 172.08934 263.77463
000090 69 63 46 43 96 46 3d 43 b0 69 de 42 9a ca 63 43
       198.38832 189.27573 111.20642 227.79141
0000a0 1b 04 41 43 f6 b5 0f 44 13 ba 68 43 08 84 bc 41
       193.01604 574.84314 232.72685 23.564468
0000b0 52 f0 9a 42 50 16 c0 43 b6 8b 84 43 0b d9 ab 42
       77.469376 384.17432 265.0915 85.92391
0000c0 ba 48 fb 43 8a 11 2c 44 e9 82 c2 42 be 7a b5 43
       502.56818 688.27405 97.255684 362.95892
0000d0 58 cf 69 43 37 ef 2c 44 66 ea 11 44 29 87 bc 42
       233.80994 691.73773 583.6625 94.263985
0000e0 7c 97 92 43 6a 0d 9f 42 5c d8 4d 43 07 7e e7 42
       293.18347 79.5262 205.84515 115.74615
0000f0 c8 15 21 43 da bc 4c 43 95 71 7a 42 ad ce e8 43
       161.08508 204.7377 62.61092 465.61465

bns.2.running_mean f4 [64]
000000 eb 67 a8 41 ab 34 d0 41 65 08 05 42 e2 32 78 41
       21.050741 26.025717 33.258198 15.512423
000010 95 fc 82 41 b5 10 a8 40 70 fc ae 41 5d 45 e5 41
       16.373331 5.2520394 21.87326 28.658869
000020 11 4a d6 3f ef 85 91 41 cd b3 09 42 dd 1c 6a 41
       1.6741353 18.190397 34.425587 14.632047
000030 78 6c b0 c1 88 4a e9 c0 72 55 ee c1 6f fe ff c1
       -22.052963 -7.290348 -29.791721 -31.999235
000040 92 42 0d 41 e3 90 c9 c1 b7 6c 15 c1 bc 8b 29 c1
       8.8287525 -25.195745 -9.339042 -10.596615
000050 4d a8 b0 c1 89 37 af c1 4b b4 85 41 90 8b 16 c2
       -22.082178 -21.902117 16.713034 -37.63629
000060 37 04 b8 c1 7b 69 d8 c0 7c 66 a2 c1 37 be 33 41
       -23.002058 -6.762876 -20.300041 11.233939
000070 e9 e3 4d 41 f6 cc 3d c0 7e e1 b9 41 b5 68 0e c1
       12.868142 -2.9656348 23.235104 -8.900563
000080 57 4e 76 41 6d 39 ff 41 5c 1f a9 3f 22 a4 46 bf
       15.394126 31.90304 1.3212695 -0.77594197
000090 93 fd c0 41 f1 f9 f2 c0 44 0c 3b 40 dc b8 10 42
       24.123816 -7.5930104 2.9226236 36.180527
0000a0 74 96 33 c0 39 26 57 c1 7e 90 b2 41 db 74 66 c1
       -2.806058 -13.446832 22.320553 -14.403529
0000b0 9a 20 c4 41 1c e5 e1 41 4c 79 98 41 46 8c 9a c1
       24.515919 28.23687 19.059227 -19.318493
0000c0 16 4d b7 c1 37 91 12 c0 30 9a 1d 40 41 35 17 c1
       -22.91264 -2.2901132 2.4625359 -9.450501
0000d0 b4 8a 20 c2 1f 02 f9 c0 fc b8 c3 41 7f c3 2d c2
       -40.135452 -7.781509 24.465324 -43.440914
0000e0 6b b2 73 c1 65 79 fa c1 d4 64 0c c2 7d c2 14 42
       -15.231059 -31.309275 -35.098465 37.18993
0000f0 89 d5 13 c1 92 c6 36 c1 ab 74 b2 41 78 d2 18 41
       -9.239633 -11.423479 22.306967 9.551384

bns.2.running_var f4 [64]
000000 ec 77 3f 43 36 4a a0 43 33 e4 14 43 ee f6 0c 43
       191.46844 320.57977 148.8914 140.96457
000010 3e 97 fd 42 fd b5 1d 43 9e df 5c 42 c0 3f 2f 44
       126.795395 157.71089 55.218376 700.9961
000020 b7 20 06 43 23 e8 30 44 83 84 44 43 a3 90 7b 42
       134.12779 707.62714 196.51762 62.891247
000030 75 7e 9e 43 cb 84 e8 41 f3 9e 4d 43 bd e6 71 43
       316.98795 29.06484 205.6209 241.90132
000040 71 19 c2 42 c1 57 86 43 fd 15 4b 42 ae 0f 1c 41
       97.04969 268.68558 50.771473 9.753828
000050 f6 d7 bc 43 99 07 e3 42 55 b0 27 44 86 34 40 43
       377.6872 113.51484 670.7552 192.20517
000060 e6 0d 6a 43 7c 24 b7 43 46 49 07 43 27 f8 47 42
       234.05429 366.28503 135.28622 49.992336
000070 d2 8f f0 41 d1 20 8c 43 fa 46 e5 42 7d e1 c2 43
       30.070225 280.25638 114.638626 389.76163
000080 0b 93 10 43 96 95 82 43 ef 04 3f 43 cb b5 9e 43
       144.57439 261.16864 191.01927 317.42026
000090 c1 51 4c 43 e0 73 dc 42 0b 9f 05 43 c4 5f cb 43
       204.31935 110.22632 133.62126 406.74817
0000a0 67 cf 7b 43 c2 9b c1 42 cb f4 ef 42 4b 4a 25 44
       251.81017 96.804214 119.97811 661.1608
0000b0 65 9d 52 43 63 55 f6 42 e2 44 10 42 30 51 31 42
       210.61482 123.16677 36.06727 44.329285
0000c0 f9 0c b1 42 81 b8 cb 42 93 08 8c 42 3d 18 01 42
       88.52534 101.86036 70.01675 32.27367
0000d0 ea cb 14 44 0d dc 19 43 b9 35 77 44 79 3c 9a 44
       595.18616 153.85957 988.8394 1233.8898
0000e0 f4 78 8b 43 70 56 80 43 be ed 85 44 e1 88 5f 43
       278.94495 256.6753 1071.4294 223.53468
0000f0 a8 b4 a6 43 47 bf 45 42 0e 20 82 42 6f cf 82 42
       333.41138 49.436794 65.06261 65.40514

nns.0.0.weight f4 [64, 136]
000000 51 63 36 2e 02 47 91 aa 44 92 a0 38 97 55 09 bd
       4.147022e-11 -2.5806446e-13 7.6566386e-05 -0.03352889
000010 e6 e8 42 bd f6 a5 e3 bd 7e 48 be bd f5 78 b1 bd
       -0.04758539 -0.11115639 -0.092911705 -0.08665649
000020 c6 8e 2c bd f9 be 8c bc e1 04 6b bb 53 44 93 bd
       -0.042128347 -0.017180907 -0.0035861062 -0.07190766
000030 ff e5 89 bc ca 76 47 3c 5d 1a ef bb 7b cc ad 2a
       -0.016833303 0.012174318 -0.007296844 3.087286e-13
000040 17 49 49 bc d1 87 41 3c 2c 74 f0 3b 7a 22 14 3c
       -0.012285492 0.011812166 0.0073380675 0.009041423
000050 4c 1c 38 3d 96 d6 48 ac 77 92 1b b3 72 5a 95 38
       0.04494886 -2.8540829e-12 -3.622196e-08 7.1217204e-05
000060 1f e8 ca b8 96 62 a1 a9 67 20 84 b2 fe 60 89 37
       -9.6753465e-05 -7.166938e-14 -1.5381557e-08 1.6376838e-05
000070 c1 5e 95 b7 78 4d 26 b6 66 0f 03 af 5f af b2 31
       -1.7806307e-05 -2.478102e-06 -1.1919851e-10 5.200419e-09
000080 9f 8e 57 b8 f9 7f e1 bc 5a 0a f1 aa 66 dd 03 2d
       -5.139282e-05 -0.027526842 -4.2817383e-13 7.495648e-12
000090 5f 0e 72 2a 08 94 32 2b 1b a5 3b ad 53 e0 00 aa
       2.1498904e-13 6.344374e-13 -1.066638e-11 -1.1446512e-13
0000a0 03 c2 b3 b0 24 eb 70 2a 66 5d b0 a9 bd 48 df 3b
       -1.3079106e-09 2.1397863e-13 -7.832172e-14 0.006814091
0000b0 97 5b a5 aa a6 0f 8e 39 7c 1e 4b 2d 53 1b d4 31
       -2.937344e-13 0.0002709601 1.1545983e-11 6.1731185e-09
0000c0 3f 86 83 2c 4e e8 22 ad 37 a7 54 2a 4e 62 6e 2d
       3.7381482e-12 -9.260216e-12 1.8887397e-13 1.3550562e-11
0000d0 e6 8c 22 29 29 44 82 32 bf cc 97 2e 8d cb 9a b8
       3.6093436e-14 1.5164987e-08 6.903055e-11 -7.3812065e-05
0000e0 70 fb 33 ac 3d 6a e3 b1 c1 3e c1 ad 30 87 60 b8
       -2.5577006e-12 -6.6186474e-09 -2.1969428e-11 -5.3531665e-05
0000f0 75 ce 11 b3 6b 6a 45 2e 41 20 66 b9 57 ac ce b5
       -3.3948215e-08 4.4887132e-11 -0.00021946525 -1.5398354e-06
000100 a7 9e c9 ad 34 22 1d ab d0 3f 78 2f 81 ed 34 ad
       -2.292151e-11 -5.582507e-13 2.257814e-10 -1.0284552e-11
000110 6b 39 35 ad 42 af b1 30 c0 88 79 2f 76 40 2d ac
       -1.0301408e-11 1.2928256e-09 2.2695001e-10 -2.4620562e-12
000120 fa 4b b8 2d e8 61 34 ab e9 59 78 b7 c9 79 59 32
       2.0952119e-11 -6.408472e-13 -1.4802886e-05 1.2658753e-08
000130 ed 17 81 ab 0f eb 69 29 34 ca 6a af e3 f9 c9 2c
       -9.172642e-13 5.1940274e-14 -2.1354013e-10 5.7405066e-12
000140 bf c5 dd 30 cb bb 7c 29 59 7d 3a 2f f9 a2 9f 2b
       1.6136069e-09 5.6118125e-14 1.6961134e-10 1.1342863e-12
000150 31 4a 1c a9 f1 79 74 2b 3b 7c c5 b9 19 15 cd b9
       -3.470331e-14 8.685544e-13 -0.00037667327 -0.00039116366
000160 4c 16 c9 aa eb b7 3d 28 a7 ef bb b9 4c ac f6 ab
       -3.5720244e-13 1.05314884e-14 -0.00035845974 -1.7527173e-12
000170 24 80 f1 36 9b 84 24 ab e4 b4 9c 33 f8 af 63 ab
       7.1972772e-06 -5.844853e-13 7.29722e-08 -8.0890806e-13
000180 27 21 78 af ad 6d dc 2e 34 fe 2f 2c 68 72 b1 30
       -2.2567247e-10 1.0023924e-10 2.5010107e-12 1.2910961e-09
000190 6d f3 c4 29 bd 58 36 b5 10 d6 a2 aa 47 53 82 39
       8.746376e-14 -6.7929415e-07 -2.8925516e-13 0.0002485758
0001a0 56 44 63 ac 56 94 df 35 25 89 81 39 90 bd 94 2b
       -3.2296574e-12 1.6657966e-06 0.00024706978 1.0568647e-12
0001b0 bc 43 0d 2a 2f 24 ac ab 0c cf 71 2e 63 80 83 28
       1.2546816e-13 -1.2231378e-12 5.498095e-11 1.45996e-14
0001c0 e4 8e 78 2f 82 e9 f5 ac e1 c8 ff 2b 00 40 a5 a9
       2.2606234e-10 -6.9892434e-12 1.8174595e-12 -7.338574e-14
0001d0 4d 83 80 ae bd 79 f5 2e 66 73 bd 2a d7 84 2d 2c
       -5.84409e-11 1.1162935e-10 3.3653218e-13 2.465852e-12
0001e0 fd ae 1e ac fd 35 fc 2a 04 d5 5c 2f 5d ae 55 aa
       -2.2550288e-12 4.4801654e-13 2.0084562e-10 -1.8978695e-13
0001f0 fc cd 35 34 95 06 16 b7 59 b1 95 b9 9b 61 df 2a
       1.6931875e-07 -8.942229e-06 -0.0002855163 3.9680485e-13
000200 7e 1e d7 2a fc a7 9f 30 27 e2 7f 2c 2d 2a 3b b2
       3.821283e-13 1.1616517e-09 3.636322e-12 -1.0894422e-08
000210 90 66 9e a9 d9 2f 81 ae 1a 4a e6 29 39 bb 89 37
       -7.034401e-14 -5.87474e-11 1.02269064e-13 1.6418855e-05
000220 19 2c 42 b8 e1 c7 08 2f 40 7c 7f 2d 16 60 1f be
       -4.6294273e-05 1.2440139e-10 1.4522661e-11 -0.15563998
000230 4e 45 88 3c 36 cb 75 bc d5 71 95 bd f0 26 a6 bd
       0.01663461 -0.015002063 -0.07297102 -0.081128955
000240 f7 f0 27 3e 67 57 ab 3d 5c f6 f5 3d bb 1b e4 3d
       0.16400515 0.0836628 0.1200988 0.11138102
000250 95 36 6e bd 7b ef 8b 3d 47 a4 81 3d d5 a3 f1 b8
       -0.058157522 0.06832787 0.063301615 -0.000115222916
000260 59 ad 60 3d 28 03 e4 bc a8 d6 69 3c e8 15 af bd
       0.054852817 -0.027833536 0.014272369 -0.085491
000270 bd 84 7f 3c 6f 94 32 32 63 5d 24 3b 07 03 8c b6
       0.015595612 1.03947135e-08 0.0025080077 -4.1726776e-06
000280 5d c4 5b 36 42 05 85 ac b9 da 8a af 7f 69 22 aa
       3.2747841e-06 -3.780671e-12 -2.5257466e-10 -1.4425092e-13
000290 78 3c e3 38 64 d9 b9 29 5b 95 bb a9 a4 ec ed ae
       0.00010835467 8.2533616e-14 -8.330377e-14 -1.0819548e-10
0002a0 69 3c c0 2d 7f e5 5b 3d 0b fe 8e b6 5a 10 aa 38
       2.18547e-11 0.05368566 -4.2615043e-06 8.1092774e-05
0002b0 a4 f7 66 a9 21 3e 79 af 51 aa f4 a9 19 40 17 ac
       -5.1285053e-14 -2.2668491e-10 -1.0865322e-13 -2.1493972e-12
0002c0 d1 03 76 2c 95 bb 32 ac 43 c0 ca ab 07 7d a5 3c
       3.4960821e-12 -2.539945e-12 -1.4406327e-12 0.02020122
0002d0 38 a1 56 b9 dc 86 2e ab d4 67 7d 39 28 2d a6 ab
       -0.00020468689 -6.2004373e-13 0.00024166639 -1.1807543e-12
0002e0 4f 54 9b 2b fc fa 41 2b 90 c9 78 32 b5 fa fb 38
       1.1036813e-12 6.8915685e-13 1.448133e-08 0.000120153105
0002f0 0b 47 b1 2a e6 ec 0c 2b 31 bb 9b b9 28 fa a0 b4
       3.1490812e-13 5.0066754e-13 -0.00029703372 -2.9984335e-07
000300 e9 06 1a 2f 71 60 c9 b7 46 a9 b1 ab 65 72 23 2b
       1.4008673e-10 -2.4005976e-05 -1.2623589e-12 5.8067987e-13
000310 66 11 51 3d 07 02 ca 31 69 cb 0f 2f 11 5c 5e aa
       0.051041983 5.8792042e-09 1.307804e-10 -1.9749503e-13
000320 d4 1f ac ad e0 7c 13 ad 41 d0 4f ad 73 5c a5 b4
       -1.956827e-11 -8.38371e-12 -1.1812829e-11 -3.080091e-07
000330 25 3b f6 b0 1f bb 25 a9 d0 65 ca 2b 23 fa 01 2a
       -1.7915666e-09 -3.679966e-14 1.4381222e-12 1.1544285e-13
000340 ac 6d 99 39 f9 ca cf ac 29 29 f0 28 01 9f a3 2b
       0.00029264146 -5.9058283e-12 2.6663203e-14 1.1625979e-12
000350 28 78 80 b8 bf 29 1b b6 2f 8f 70 32 5e 5b fc 2a
       -6.1258965e-05 -2.31211e-06 1.4002395e-08 4.482759e-13
000360 45 9a 10 2d 9c 85 1b 38 65 72 75 36 73 ab ed 2a
       8.219707e-12 3.7079313e-05 3.6574431e-06 4.2218624e-13
000370 d4 27 f8 b6 88 03 77 2c be 64 77 2f d0 c3 89 ab
       -7.3956126e-06 3.5102771e-12 2.250031e-10 -9.788784e-13
000380 1c 63 98 b8 0e 91 87 ae 04 c1 67 ac 45 c0 c4 2d
       -7.2663854e-05 -6.164856e-11 -3.293422e-12 2.2368005e-11
000390 b6 8d b1 ab 03 cb 03 af 73 1f d9 aa bb e8 ea 2d
       -1.2615939e-12 -1.1986505e-10 -3.8568766e-13 2.6706073e-11
0003a0 f5 9d a9 a9 1f 14 17 ad 87 f0 9a 37 b8 56 ad b1
       -7.532509e-14 -8.587824e-12 1.8470235e-05 -5.0448214e-09
0003b0 e0 3f 5f b6 3a a5 15 36 01 c9 70 b9 df 44 75 af
       -3.326677e-06 2.2298905e-06 -0.00022963063 -2.2307088e-10
0003c0 29 58 42 2e 25 47 8a ab 3a 78 f4 b7 ea 84 a9 b9
       4.4188795e-11 -9.825236e-13 -2.9143052e-05 -0.0003233322
0003d0 f3 c9 43 2c 9c 68 26 b0 2a 96 b1 b4 92 a0 86 2e
       2.782327e-12 -6.0539107e-10 -3.3078078e-07 6.1221375e-11
0003e0 ac 5a 0b b9 88 22 19 38 11 a8 13 b6 cf 77 47 b9
       -0.00013289851 3.6510202e-05 -2.2002534e-06 -0.00019022751
0003f0 3e 1b 1e b5 0a 7f 22 b9 a2 f1 27 37 d4 23 b7 ad
       -5.889923e-07 -0.0001549685 1.0010235e-05 -2.0820602e-11

nns.0.0.bias f4 [64]
000000 d8 26 cf 33 6c bd b2 3c 40 0d 11 37 92 e7 b2 39
       9.646254e-08 0.021818839 8.6457585e-06 0.0003412334
000010 8a 07 66 b9 bc ea 38 38 e1 c8 be 3d 60 b1 00 bd
       -0.00021937318 4.4087632e-05 0.09315658 -0.031419158
000020 16 74 9e 3c 12 95 20 3d 8b a6 a5 32 16 75 33 3d
       0.019342463 0.039204665 1.9284263e-08 0.043812834
000030 5f 3b 5e bd f0 0c 16 3d a8 1d 7a bc a9 21 48 bc
       -0.05425584 0.036633432 -0.01526586 -0.012215056
000040 05 37 9b bc c1 04 36 3c a0 b2 f4 bc e3 73 26 3d
       -0.018947134 0.011109532 -0.029870331 0.040637862
000050 4a 18 b5 3a 2f d5 1b 3d 4f cb 23 bc 10 22 d7 bc
       0.0013816443 0.038045105 -0.009997203 -0.02626136
000060 5f 2f 35 3c 20 7d 68 3d 4e 95 5e bd c4 29 a9 3c
       0.011058657 0.056759953 -0.054341607 0.020649798
000070 61 77 b1 bc f2 e7 56 bb 59 9b 14 37 8e e7 7d 3c
       -0.02166337 -0.0032792059 8.857657e-06 0.0154971015
000080 fd 24 3a 3d dc f0 e9 3c 65 21 3a bb a2 60 e8 bc
       0.04544543 0.028557234 -0.0028401252 -0.02836639
000090 1f 93 cb b8 35 33 ca 3c c9 7f f7 3c 1a 9c 6b 3c
       -9.707198e-05 0.02468262 0.0302123 0.014380479
0000a0 a3 7f b1 bc 75 08 f5 ba 0c 0c 22 3b d9 c1 80 3d
       -0.021667307 -0.0018694537 0.0024726419 0.062869735
0000b0 67 40 93 bb 4f cc 05 3d ae 19 7b bd 08 4f 0d 3d
       -0.0044937613 0.032665547 -0.061303787 0.0344992
0000c0 df 2b a3 32 64 a9 ea 3c 2c 1d b3 bb ea 6a ba 3c
       1.8995648e-08 0.028645225 -0.005466124 0.022756059
0000d0 df e2 e7 bc 79 e4 32 bd 6d 1c b1 bd 3f d5 31 3d
       -0.028306423 -0.04367492 -0.08648 0.043416258
0000e0 08 01 9a bd af 9d 9b 3c 5d 25 db 39 69 dd 6c 3d
       -0.07519728 0.018996088 0.00041798773 0.05782834
0000f0 13 15 62 3d df ce 17 bd d0 4a 16 bd 6d e3 2f 3d
       0.05519588 -0.037062522 -0.03669244 0.0429415

nns.0.2.weight f4 [64, 64]
000000 70 59 ad bd 62 df 5c 3e 7a 6b 19 bb a7 20 af 3d
       -0.084643245 0.21569589 -0.0023410008 0.0855115
000010 d8 5e 6b bd 8e 10 68 ba 47 a2 02 be 54 5c 75 bd
       -0.057463497 -0.00088525645 -0.12757216 -0.059902504
000020 9e 91 d5 3c 95 6b f9 bd e6 6b e0 3c d1 33 79 3d
       0.026070412 -0.12178723 0.0273952 0.06084043
000030 38 49 65 3c e5 cc 11 3e 05 ef 87 bd 18 ce 28 be
       0.0139945075 0.14238317 -0.06637386 -0.16484869
000040 14 02 f8 bd dd 07 df bd 8f cd 07 be 22 74 be 3d
       -0.12109771 -0.10890172 -0.13262008 0.09299494
000050 36 30 1e 3e 1b ba 46 bd 88 63 1f 3e dd c2 cb 3c
       0.15448079 -0.048517328 0.15565312 0.024873191
000060 c9 b4 92 bd d6 d4 ea bc be 2f 30 bd b3 53 4f 3d
       -0.07163388 -0.028665941 -0.04301428 0.05061693
000070 3d f3 eb bc 69 28 d0 3d 84 b7 ca 3d dc dc ab 3d
       -0.028802508 0.101639576 0.09898284 0.08391735
000080 13 be cb bd 8b 4e 7e 3d b0 e5 f5 bd a1 ec 9d bc
       -0.09948363 0.062086623 -0.120067 -0.019277873
000090 62 af c7 bc 75 92 00 be df 7f 91 bd b0 e5 ca bd
       -0.024375621 -0.12555869 -0.071044676 -0.09907091
0000a0 37 b2 11 be d9 e6 44 3e 6a b5 0f bc c6 3f 52 3e
       -0.1422814 0.19228686 -0.00877128 0.2053214
0000b0 75 60 8a 3c b7 aa 81 bd ef 4b 65 3e aa e4 19 bd
       0.016891697 -0.063313894 0.22392248 -0.037571587
0000c0 54 e2 8a 3d 64 11 22 bd 58 e5 37 bd 87 1d 8a bc
       0.0678145 -0.039567366 -0.044896454 -0.016859783
0000d0 9e fb aa 3d 8b c9 13 3e cd e0 22 be 00 0c 30 3e
       0.083487734 0.14432351 -0.15906067 0.17192078
0000e0 e2 7f cb 3d 0c d9 19 bd d5 bf 86 3d 61 3d 1f bd
       0.09936501 -0.037560508 0.06579558 -0.038876895
0000f0 1c 1b 9d 3c b3 99 ed bd 3e bb 03 3d 98 4c 4a 3e
       0.019177966 -0.116015814 0.03216099 0.1975578
000100 1e 16 52 3c c2 24 df 3d 07 ca 5c bd 3b 9c 29 bd
       0.012822656 0.10895683 -0.053903606 -0.04140876
000110 d1 1b 21 bb 64 34 2d bb fc 75 00 be 3b de 01 3e
       -0.002458323 -0.0026428932 -0.12545007 0.1268243
000120 34 9b 15 bd 12 a6 33 be 1a 34 1f 3d 76 20 09 3c
       -0.036524966 -0.1754382 0.038868047 0.008369556
000130 93 76 68 bd 12 e8 32 be 65 da 4b 3d 48 da 8f bd
       -0.056753706 -0.1747134 0.049768824 -0.07024056
000140 7c fd 03 bd c7 93 9c bd 6e 1d 92 bd 9a 50 52 3d
       -0.032224163 -0.07645374 -0.071345195 0.0513464
000150 26 ac 3a be 0d ac e9 bd f4 35 4b 3e e5 21 c5 3d
       -0.18229732 -0.11409769 0.198448 0.096256055
000160 17 f6 92 3d 9c ab 17 be 8c 1d d1 bd 6c 03 30 bd
       0.07175844 -0.14811558 -0.10210714 -0.042972013
000170 1b 38 d4 bd bf 2e 14 3b d2 fe 6a bd 5c 52 e4 3b
       -0.10362264 0.002261087 -0.05737192 0.006967826
000180 e3 de 72 bc 13 93 9b bb 18 40 39 bc ea 8e c6 bd
       -0.014823648 -0.004747757 -0.011306785 -0.096952274
000190 51 4f a8 3b 84 80 ba bc 85 e3 30 be b3 d8 98 bd
       0.0051364084 -0.02276636 -0.17274292 -0.07463207
0001a0 c1 5f 1c bd 87 99 8e 3c 10 ce 91 bd f0 b1 24 be
       -0.038177256 0.017407192 -0.071193814 -0.16083503
0001b0 51 de 05 3b 5a c6 f4 bd c6 e8 1d bd 9b b0 bd 3d
       0.00204267 -0.11951895 -0.03855207 0.092622004
0001c0 3d 6e 80 bd 31 6b b2 3d 5a c8 19 3e d8 f9 da 3d
       -0.06271026 0.087118514 0.15017834 0.10692185
0001d0 b2 cb fc 3d e1 df 3b 3e d9 72 cf bd c0 0b 28 3c
       0.12343539 0.18347122 -0.10129327 0.010256708
0001e0 db a4 e1 bc 84 bb 57 be 85 f0 91 3a cd 37 2c 3e
       -0.02754443 -0.21067625 0.0011134302 0.16818161
0001f0 d2 73 15 bd ef 8f 38 3e 1d 4c 6f 3d 98 42 34 be
       -0.036487408 0.18023656 0.058422197 -0.17603528
000200 81 27 44 3c 45 1f 00 bc 27 d7 87 bc a3 b9 dc bc
       0.011972309 -0.007819955 -0.016582085 -0.026943987
000210 00 a4 d7 3d 61 5a 21 ba c4 1c c2 3d 70 11 ce 3d
       0.105293274 -0.000615513 0.09478143 0.1006192
000220 f8 90 e5 3c 16 19 08 3e cf 80 d5 3b 35 09 27 be
       0.028023228 0.1329082 0.0065155993 -0.16312106
000230 f4 0c 86 bc 4e 78 02 be 85 2f 1f be b0 1f 19 3e
       -0.016363598 -0.12741205 -0.15545471 0.14953494
000240 0b f9 96 3c 84 82 07 be 11 13 26 3e bc 6b 2d 3d
       0.0184293 -0.13233382 0.16218211 0.04233907
000250 7e 83 85 bd 67 1c d3 bd 58 63 44 3e ee 54 2b 3e
       -0.06519221 -0.10308152 0.19178522 0.16731617
000260 aa 07 8e bc a6 37 28 3e ac de 42 3d 42 e3 8c bc
       -0.017337639 0.16427478 0.047575638 -0.017198209
000270 50 85 7a ba 9b bd 20 3c f1 76 e3 3d bf bc 2b bc
       -0.0009556608 0.0098108305 0.11106671 -0.010482012
000280 d1 85 e6 3c 7f a5 58 3e 7d 5a 0f 3d 0e 8c 33 be
       0.02813998 0.21156882 0.034998406 -0.17533895
000290 4a e3 3f b9 14 47 00 be e3 3e 68 be 21 3b 82 3b
       -0.00018299851 -0.12527114 -0.2268024 0.003974334
0002a0 9c 01 f2 bd d0 45 fe bd b7 11 bd 39 c3 21 fa bc
       -0.11816713 -0.124156594 0.00036062088 -0.030533677
0002b0 45 f2 04 3c 22 b4 66 bd 0a 5c 22 3e f1 5f 07 3e
       0.008114402 -0.05632413 0.15855423 0.13220192
0002c0 42 60 10 3c e3 9b 78 3d eb 96 a9 3d a9 09 2e bb
       0.008812012 0.06069554 0.082807384 -0.002655605
0002d0 fd d2 42 3e 9f 14 bd 3d ce 6c bc 3d e1 12 d1 bd
       0.19025798 0.09232449 0.0920044 -0.10208679
0002e0 a9 d5 96 bd 22 f7 81 3d a9 93 94 b7 83 f5 0f bd
       -0.07364971 0.06345965 -1.7711734e-05 -0.035146248
0002f0 07 19 9d bd f4 61 dc bd cf f2 b6 bc 3d 4a b8 bd
       -0.07670789 -0.107608706 -0.022332577 -0.08998535
000300 b6 c4 38 3d 0e 99 09 3e 3f c0 c6 bd 44 bb c0 3a
       0.045109473 0.13437292 -0.09704637 0.0014704247
000310 75 ec 83 bd 8a 50 9f bc fb ef 79 3d b2 67 b5 3d
       -0.06441585 -0.019447584 0.06101988 0.08857669
000320 90 57 e2 bd 5c 8b db bc 69 75 3b bd 8d 7e 1d be
       -0.110518575 -0.02679985 -0.045766268 -0.15380307
000330 a8 98 12 be 4f 59 db bc c4 dd 25 be 68 12 12 be
       -0.14316046 -0.026775984 -0.16197878 -0.14264834
000340 af 27 0d be c4 f0 94 3d 30 22 4f 3e e4 f5 1d be
       -0.1378467 0.07272485 0.20227885 -0.15425831
000350 9e c9 26 be 3d 6b 26 3e 6d 16 19 3e 47 38 c1 bd
       -0.16287848 0.16251846 0.14949961 -0.09434562
000360 30 7a f8 bc 5b b9 39 3c 2b 62 8d bd 57 a2 0c be
       -0.030331701 0.011335696 -0.0690349 -0.13733803
000370 fc 74 13 be a9 d1 b8 bc 3f 84 4e 3d e0 66 b7 bc
       -0.14400095 -0.022560911 0.05041909 -0.022387922
000380 35 49 b7 3d 53 9f 36 3e 45 3b 7b bd d8 63 cb 3d
       0.0894951 0.17834215 -0.06133582 0.09931153
000390 ca 08 56 bc 0a 2d df 3d 8e 01 9f bc f9 83 98 bc
       -0.013063619 0.108972624 -0.019409921 -0.018617617
0003a0 e0 e8 1f 3e 63 53 27 3d d4 5b f6 bc 8e e7 83 3d
       0.15616179 0.04085101 -0.030073084 0.0644065
0003b0 d9 5c 8b 3d af 4d 5c bb 6c bf 69 bc 3a ef 18 be
       0.06804819 -0.003361564 -0.01426683 -0.14935008
0003c0 f7 72 40 3d b4 4d 1f be 2c 44 35 be ac 10 a4 3d
       0.04698464 -0.15556985 -0.17701787 0.080109924
0003d0 bf e3 23 3e bf a0 8c 3c be 67 10 be 9c 4d 1a 3e
       0.16004847 0.017166493 -0.14102075 0.15068668
0003e0 7c f8 05 3e f0 aa 20 3e 00 90 5f bd 1a 03 ee 3d
       0.1308307 0.15690207 -0.05458069 0.11621685
0003f0 88 c4 18 be e0 68 af bb 2f 3d 7f bd f9 9b 40 3e
       -0.1491872 -0.0053530782 -0.06231421 0.18809499

nns.0.2.bias f4 [64]
000000 52 49 4f 36 5c 76 21 b7 64 a2 4f 35 71 9a fb 36
       3.0888082e-06 -9.6239055e-06 7.734982e-07 7.4983623e-06
000010 f0 31 c3 b5 38 b8 79 37 5e ac 03 b6 61 88 8c 37
       -1.4543166e-06 1.4884448e-05 -1.9620852e-06 1.6752807e-05
000020 e5 98 6c b6 2e fc 10 36 60 64 40 35 91 8b 33 36
       -3.5255737e-06 2.160446e-06 7.167164e-07 2.6754317e-06
000030 11 82 cf b2 d3 50 30 37 6b d7 d1 36 b8 57 29 34
       -2.4157119e-08 1.0509236e-05 6.2537633e-06 1.5771263e-07
000040 95 f5 f7 32 3b 5f c1 33 ae 00 a7 36 be 5b 55 36
       2.8866262e-08 9.004585e-08 4.977067e-06 3.1792874e-06
000050 ee 4f b4 35 01 27 aa b4 1e 8d 5c 35 df 77 00 b7
       1.3434308e-06 -3.1693347e-07 8.216174e-07 -7.657304e-06
000060 ab 6d 83 37 7f 98 7c 37 53 d9 11 36 32 30 9a 35
       1.5667485e-05 1.5055876e-05 2.1733183e-06 1.1487921e-06
000070 1b d3 b0 34 6c 69 2a 34 1e 26 16 b7 e4 27 11 37
       3.2936154e-07 1.5870836e-07 -8.949572e-06 8.651961e-06
000080 1c b7 42 b6 5e 0c 68 36 55 4c 37 35 08 4b 75 36
       -2.9014836e-06 3.4577893e-06 6.828389e-07 3.6551519e-06
000090 49 c6 f3 36 e2 c5 e6 36 e7 6e 8a b6 0b ed b3 b6
       7.2650478e-06 6.8775707e-06 -4.125631e-06 -5.362211e-06
0000a0 aa 7a 9d b6 db 36 1c b6 b7 17 7d 36 90 6f 69 35
       -4.6932446e-06 -2.3277742e-06 3.7713742e-06 8.696161e-07
0000b0 88 35 00 b6 b1 5c 87 36 46 a7 70 37 6f f5 c3 37
       -1.9104646e-06 4.034104e-06 1.4344061e-05 2.33601e-05
0000c0 3b e9 80 b6 25 eb 8a 35 15 cf ae 35 3b 55 55 35
       -3.841849e-06 1.0350237e-06 1.3024279e-06 7.947271e-07
0000d0 3c cc 79 37 30 84 bf b6 a7 6d 2a b7 20 3e ea 36
       1.4889109e-05 -5.707632e-06 -1.015832e-05 6.9809757e-06
0000e0 4b df d8 b7 d9 ce cc b3 5a 81 95 36 b7 6c 5d b6
       -2.5853185e-05 -9.5371156e-08 4.4556045e-06 -3.2994847e-06
0000f0 62 ba 40 36 ce db a4 38 ce 3a 07 b7 b0 f1 bf b6
       2.8718719e-06 7.861071e-05 -8.060319e-06 -5.7203797e-06

nns.1.0.weight f4 [64, 64]
000000 d8 0d 37 3e 87 b6 fa bd eb 3e 2b 3e 78 4f 3b 3e
       0.17876375 -0.122418456 0.1672322 0.18292034
000010 d3 39 03 be 2d 6c 16 be 1e 87 7f bd 1f 98 16 be
       -0.12815027 -0.14689703 -0.062384717 -0.14706467
000020 1d 05 49 bd fd 75 d3 3d 25 d6 27 3e de e0 9a 3c
       -0.049077142 0.10325239 0.16390283 0.018906053
000030 3b ca e1 bd ea 84 e5 3d 46 d4 47 3d 72 f6 9f bd
       -0.110249005 0.11206992 0.048786424 -0.078106776
000040 75 3e e8 bd 54 8b e6 bd a9 9d b2 bd 6f 65 0a be
       -0.11340038 -0.112570435 -0.087214775 -0.13515256
000050 cd 05 b6 bd 2b 1e f0 3d cc 0f 11 be 7f 8c 88 bd
       -0.08887825 0.11724504 -0.14166182 -0.066674225
000060 63 28 ac bd b5 1a 4d 3d ac eb 80 3d 46 8f c8 3c
       -0.08406141 0.050074298 0.06294951 0.02448238
000070 16 70 53 3d 64 21 e9 bd f8 4b d5 bd c5 db 45 3e
       0.051620565 -0.11383322 -0.104148805 0.19322117
000080 a4 1c 84 bd ea 7c 0d be 29 04 8a 3d 62 99 95 bd
       -0.06450775 -0.13817182 0.06739075 -0.07304646
000090 62 58 22 3e c1 2a 95 3d 21 ac dd bd 08 70 33 be
       0.15854028 0.07283545 -0.108238466 -0.17523205
0000a0 b2 c0 a2 3b 6a 0b c5 3c f1 6a 38 3e c2 eb bf bc
       0.0049668187 0.024053294 0.18009545 -0.023427848
0000b0 95 9b 7e 3d ec 52 52 3e b8 77 df 3d 7d 0f b9 bd
       0.062160093 0.20539445 0.109115064 -0.09036157
0000c0 ac d6 aa 3d 51 f7 f8 3d 39 ff e4 39 1d ba 04 be
       0.08341727 0.12156547 0.00043677705 -0.12961622
0000d0 1a 62 ed 3d b2 e6 0b be f5 58 df 3d d3 c9 7e 3c
       0.11590977 -0.13662222 0.10905639 0.015551048
0000e0 6e dd aa 3d c1 1f 0e 3e 34 3c 40 be cf 44 0c 3e
       0.083430156 0.138793 -0.18772966 0.13698123
0000f0 59 94 7c 3c 3a 0b fe 3c f6 af 62 3d e9 71 c6 bd
       0.015416228 0.031011213 0.05534359 -0.096896954
000100 f0 9c 46 3e f5 c4 12 3d 04 06 5c bd 46 03 8c bd
       0.19395804 0.035832364 -0.053716674 -0.06836562
000110 28 81 49 3d 9a f4 63 3d 24 3e 0b be 7a 4b 37 be
       0.04919544 0.055653192 -0.13597924 -0.17899886
000120 27 49 77 3d 4f 87 27 be 91 69 9d bc 45 c7 d0 3c
       0.060372498 -0.1636021 -0.019215377 0.025485644
000130 af 8e 2d 3e 99 ab 19 be 36 e6 2c be 71 ea 38 be
       0.1694896 -0.15006866 -0.16884694 -0.18058182
000140 f5 f7 ee 3d c4 80 87 3d df 40 8b 3c df 28 0c 3e
       0.11668388 0.06616357 0.016998706 0.13687466
000150 8d 8b 88 bd ef 6e f4 3d ba f1 ac bd 68 ab 3c 3e
       -0.06667242 0.119352214 -0.08444543 0.18424761
000160 33 82 42 3e 79 d5 9d 3d 69 e8 8b 3b 69 bb 74 bd
       0.1899498 0.07706732 0.004269649 -0.05974904
000170 7b 49 5f be 52 d6 1d 3e d7 95 a6 bd cf 06 36 be
       -0.21805374 0.15413788 -0.081340484 -0.17776035
000180 ae c0 04 be 68 4d 22 bd 78 23 ce bc 56 03 e5 3d
       -0.12964126 -0.0396246 -0.025163397 0.11182277
000190 a5 09 ad bd 82 79 41 be 3e 06 87 bc 85 d9 0f be
       -0.08449105 -0.18894008 -0.016482469 -0.14047821
0001a0 71 ba 26 bd 88 d3 1d 3d 09 6d 92 3d af 47 67 3e
       -0.040705148 0.03853181 0.07149703 0.22585939
0001b0 77 2c e3 bc ae 5b 0a be 2f d9 05 be 8c 3c 59 3e
       -0.027731163 -0.13511536 -0.1307113 0.21214503
0001c0 f7 f9 cb bd ff 0d 38 bd 84 4c 42 be 9a 60 e5 3d
       -0.099597864 -0.044935223 -0.18974501 0.11200066
0001d0 74 96 aa 3d 89 b5 db bd 95 01 3e 3e d9 85 57 3e
       0.08329478 -0.107279845 0.18555291 0.21047153
0001e0 09 22 93 bd c9 6a 5f bd 4d 9e 32 3e da 79 6b 3e
       -0.07184226 -0.054545198 0.174432 0.22995701
0001f0 63 e3 c0 3d 00 0b 62 bd 5e d1 ac 3d e6 41 80 3d
       0.094183706 -0.05518627 0.08438371 0.06262569
000200 1d f1 4c be 73 b3 03 be 3a 91 37 3e 6c b3 84 3d
       -0.20013852 -0.12861423 0.17926493 0.064795345
000210 75 72 14 be 3a 9f 46 3e 56 e6 1d 3e 74 12 a8 3d
       -0.14496787 0.19396678 0.15419897 0.08206645
000220 1f 37 27 3c ec 00 a4 bc 21 35 37 3e be 3c 5a be
       0.010206013 -0.02001997 0.17891361 -0.21312234
000230 1b 64 3c bd 54 75 e4 bc d0 02 c9 bd e8 3c de bc
       -0.045993906 -0.027887978 -0.098149896 -0.027128652
000240 4b d4 b2 bd 02 68 5e bc ae a8 fa 3c 72 6c 59 be
       -0.08731898 -0.013574602 0.03059801 -0.21232775
000250 0f eb fe 3d 28 db 13 3d 51 3f b3 bb 64 70 40 bd
       0.124471776 0.036097676 -0.0054701944 -0.046982184
000260 53 15 80 3d 78 3f 46 bd f3 aa 3d be 90 2a fe 3d
       0.06254067 -0.048400372 -0.18522243 0.12410462
000270 06 70 4c 3d 41 9b 1f 3e 49 bc 8e bd d4 2f af 3d
       0.04991152 0.15586568 -0.06969506 0.08554044
000280 b6 fb 72 3e 81 f6 f5 bd 9b 85 9c 3d cd a7 4f 3e
       0.23728833 -0.120099075 0.07642671 0.20278855
000290 6a 88 07 3d 84 5f e4 3b 84 fe 28 3d ba 28 00 bc
       0.03308908 0.006969394 0.04125835 -0.00782221
0002a0 af ad 47 3e bb 6c ce bd 5a 6f 6b 3c be b4 00 3d
       0.19499849 -0.100793324 0.01436981 0.03142237
0002b0 74 62 d6 3d 54 de 37 3e f9 18 44 be 8a 64 41 be
       0.10467997 0.17955905 -0.19150151 -0.18886009
0002c0 cb bc 2c 3e 5d ad 8a bd 7a 04 1e 3e 11 70 1e bc
       0.16868894 -0.06771348 0.15431395 -0.009670273
0002d0 8d 8d f9 bd 4e 87 7d 3c 71 54 6f bb 55 31 8d bd
       -0.12185202 0.015474154 -0.0036518837 -0.06894175
0002e0 4b 1b 9a ba 77 ae 80 bd 69 97 09 be 6e 84 02 3e
       -0.0011757402 -0.062832765 -0.13436665 0.1274583
0002f0 98 d3 0e be 2c 8d be 3c e2 d1 29 3e aa 81 15 3e
       -0.13947904 0.023260675 0.1658397 0.14600244
000300 8d 67 d3 3d 7e cb 19 3c 91 3f ea 3d 4f 71 1c 3d
       0.10322485 0.009386895 0.114379056 0.038193997
000310 1f 5d 41 3e 3e 51 17 3e 4f f0 bf bd 65 d7 b7 bd
       0.18883179 0.14777085 -0.09372007 -0.0897663
000320 d6 c9 09 3e 50 1d 6b be 8a 5f 7f bd 03 9f 19 be
       0.134559 -0.229604 -0.062346973 -0.15002064
000330 fc 87 16 be b5 f9 b1 bd bf 5f a4 bd ff fd c9 bd
       -0.14700311 -0.08690206 -0.080260746 -0.09862899
000340 17 e4 f2 3d bd 55 49 be 10 9e 35 be 9a 63 d7 bd
       0.11859911 -0.19661613 -0.17736077 -0.10517044
000350 3c 81 d8 bd ba 8b b5 3c 4d 39 2d 3e d9 e3 f0 bd
       -0.105715245 0.022161353 0.1691639 -0.117622085
000360 e4 64 10 3d a9 8b cc bd 28 bf 08 be c6 e7 0a bd
       0.035252467 -0.099875756 -0.1335417 -0.033912443
000370 49 ae 53 bd c4 26 98 bd c6 69 ac bd 01 87 41 bd
       -0.051679883 -0.07429269 -0.08418612 -0.04724789
000380 39 3a 02 bd 1a c7 2f 3e 37 53 96 3d 81 59 1f 3e
       -0.031793807 0.17165795 0.07340091 0.15561487
000390 da d8 52 3e d5 d9 1f 3d 89 22 8b 3d bd b6 93 3d
       0.20590535 0.0390261 0.067936964 0.07212589
0003a0 cb 4c 43 bb 82 fd 1f bd 40 da 8b bd 57 11 12 be
       -0.002980041 -0.039060123 -0.06828737 -0.14264427
0003b0 91 63 5a 3e eb 3c 21 3e cc 4a d2 3d c8 0d 34 be
       0.21327044 0.15745895 0.102681726 -0.17583382
0003c0 dc 5c f3 bd 86 ab bb ba 5f f0 04 3d 3d 02 0e bd
       -0.11882946 -0.0014318086 0.0324558 -0.034670103
0003d0 65 ff 04 3e 19 d1 ae bd e4 82 ee 3d a7 35 02 bd
       0.1298805 -0.08535976 0.11646059 -0.031789448
0003e0 b0 b4 3b be f5 23 1e 3e f0 f1 dd bd f0 9b 0f 3e
       -0.18330646 0.15443404 -0.108371615 0.14024329
0003f0 0d 17 c2 3d 95 6d e6 bd 8b 3c 41 3d 0c d6 44 3e
       0.09477053 -0.1125137 0.04717688 0.19222277

nns.1.0.bias f4 [64]
000000 78 d4 3c 3a 38 e1 70 3d da 78 b2 bd 8d 07 8d bc
       0.0007203291 0.058808535 -0.08714457 -0.017215515
000010 b5 fd 43 3d 54 e4 a2 3d 25 8b e8 3d 8c 7d 38 bc
       0.047849376 0.079537064 0.11354665 -0.011260401
000020 f1 b9 7a bc ba 0b 89 3b 0d ea c3 bd 08 cf bd bd
       -0.015303121 0.004182306 -0.09566126 -0.09268004
000030 ca 3e 99 bc 56 c3 9a bd 36 7d a0 bd 43 70 a8 3d
       -0.018706698 -0.075567886 -0.07836382 0.08224537
000040 8c 1e 46 3d 62 c7 53 3d 46 59 8b 3b 5a fd 5e 3c
       0.048368976 0.05170382 0.0042525856 0.013610208
000050 79 29 6c 3d 07 54 a2 bd 81 a0 e1 ba 81 59 6d bd
       0.05765674 -0.07926183 -0.0017213972 -0.057946686
000060 e0 87 87 3d e9 e7 bb bd 10 a2 76 3d e1 4b 3a 3d
       0.06617713 -0.09175093 0.06021315 0.04548252
000070 30 eb 8b ba 23 3c 05 bd e9 01 8c bd 37 cb cd 3c
       -0.001067495 -0.032528054 -0.06836302 0.025121314
000080 27 3a f4 bc 0c 4b aa 3c 44 39 93 bc a4 b9 c0 bd
       -0.029812885 0.020787738 -0.017971642 -0.09410408
000090 95 0f be bc 68 c5 23 3b ca 64 21 bd 1a b5 5a bd
       -0.02320079 0.002498949 -0.03940276 -0.05339537
0000a0 99 3e 8a 3d 8f 7f 39 bd 82 c9 65 bd 20 f2 f9 3c
       0.06750221 -0.045287665 -0.056100376 0.030510962
0000b0 13 d5 a3 3d 85 fa 6a 3c 85 ad 9b 3d 6e f7 98 bd
       0.07999625 0.014341955 0.076014556 -0.074690685
0000c0 04 f1 7b 39 ce 2c 92 bb ac 66 f6 bc 12 71 1d bd
       0.0002402701 -0.0044609075 -0.030078255 -0.03843791
0000d0 13 8e 96 bd 39 db a9 3c 9c c7 6c 3d 0a f0 1a 3d
       -0.07351317 0.020734416 0.05780755 0.037826575
0000e0 8e e0 03 3c f1 80 02 bd ad 52 8a 39 59 4f 14 bb
       0.0080491435 -0.03186125 0.0002638301 -0.0022630303
0000f0 d0 22 83 bd 3c 6a 93 3d 65 8d 97 3d c0 39 f9 3c
       -0.06403124 0.07197997 0.07400016 0.030423045

nns.1.2.weight f4 [64, 64]
000000 f6 74 22 bc d0 00 87 3d e9 f1 37 bd 78 37 36 be
       -0.009915581 0.06591952 -0.044908438 -0.17794597
000010 f5 99 ec 3c ef 4d 8f 3d 4a e5 3f be 9e d1 db 3d
       0.028882006 0.069972865 -0.1873981 0.10733341
000020 02 6b 5e 3e d4 61 05 3e 07 71 ca 3d de 51 b6 3d
       0.21720508 0.130256 0.098848395 0.08902334
000030 c9 b5 b5 bd b5 31 67 3e e3 35 78 bd 29 dd 7d 3d
       -0.088725634 0.22577555 -0.060598265 0.061978493
000040 6a f6 06 3e 2c 69 49 bd fc 88 4e 3e aa 02 e9 3d
       0.13179937 -0.049172565 0.20169443 0.11377461
000050 32 ea 21 3e 63 d1 64 3e e0 da fc bd e6 bd e7 bd
       0.15811995 0.223455 -0.123464346 -0.11315517
000060 76 c4 20 3e 8c 78 95 bd ba b7 62 3d 52 37 c7 bd
       0.15699944 -0.07298383 0.055350997 -0.097273484
000070 b9 a6 06 3e 4c b0 0c 3d 31 40 4c bd fe 0b 0a 3e
       0.13149537 0.034347817 -0.049865905 0.13481137
000080 af fe b3 bd 11 fe ba 3d ad 18 64 be 26 f8 80 3d
       -0.087888114 0.091304906 -0.22275038 0.062973306
000090 83 5b 36 3e 4d fc 7e 3d 0b 7e 3c be 22 3c 4f be
       0.17808346 0.06225233 -0.18407457 -0.20237783
0000a0 7d ab 32 3e 17 85 e1 3c dd ff 24 3e 30 e3 26 3e
       0.1744823 0.027529282 0.16113229 0.16297603
0000b0 60 dd b9 bd 08 dd 51 bd f3 cd e8 3d cf a6 da bc
       -0.09075427 -0.051236182 0.11367407 -0.026690869
0000c0 b7 81 23 be d1 ae 27 be 21 2e fd bd e2 15 10 be
       -0.15967451 -0.16375281 -0.12362314 -0.14070848
0000d0 b3 d5 8d 3c ea 71 d8 3d 6e 1c 9f 3d ea 99 8a bc
       0.017313814 0.105686024 0.077690944 -0.016919095
0000e0 20 b6 1c 3d ed 97 2a 3d 41 e1 9a 3d 76 1e 46 bd
       0.038259625 0.041648794 0.07562495 -0.048368894
0000f0 d6 4c e6 bd 39 81 3f be dc db 20 3e f4 31 e5 bc
       -0.11245124 -0.18701638 0.1570887 -0.027977921
000100 46 f2 20 3e 7f 04 07 bd 6d 99 e7 bd de 0e 8d 3d
       0.1571742 -0.032963272 -0.113085605 0.06887601
000110 09 5f fe bd 7b e7 81 bd 8f ee 02 be 43 da 42 bd
       -0.1242047 -0.063429795 -0.12786315 -0.04757143
000120 e3 c4 c3 bc 21 d0 ec bc e5 a3 38 bd f6 9b cd 3d
       -0.023897594 -0.028907837 -0.045078177 0.10039513
000130 1a d9 d9 bd 84 f8 5f bd b0 ad 21 3d 8f 91 26 3e
       -0.10637112 -0.054680362 0.039472282 0.16266464
000140 17 51 51 bd 2a b3 c8 3d d6 c9 c1 3d e6 72 ff bd
       -0.051102724 0.09799798 0.09462325 -0.12473087
000150 83 33 30 be 2a 12 66 3e f8 e0 08 be 42 c8 86 3d
       -0.1720715 0.22467867 -0.13367069 0.06581165
000160 bb d3 4d be ce b2 be bc 95 31 01 3e 2b 17 06 be
       -0.201003 -0.02327862 0.1261657 -0.13094775
000170 a6 de 1a be ac b9 fb 3c 6e 6f 21 be 10 fe e2 bd
       -0.15123996 0.030728184 -0.15765163 -0.11083615
000180 f9 7e bf bd 54 99 f8 bc 56 55 07 bc 9c bf 27 be
       -0.0935039 -0.03034655 -0.008260092 -0.16381687
000190 d4 18 34 3e cd 8b 0e 3e 6d 6b d6 bd 3d a0 c4 bd
       0.17587596 0.13920517 -0.104697086 -0.096008755
0001a0 9e 1e 1a be d1 54 29 3e be ca f4 3d 69 e7 2a 3e
       -0.15050742 0.16536261 0.119527325 0.16689838
0001b0 63 64 e9 bd 8f b7 36 be 0a a7 f3 bd d1 1d 01 3e
       -0.113961 -0.1784346 -0.118970945 0.1260903
0001c0 2a aa 46 be 6d c4 09 3e 8e 82 05 3e a4 b4 08 3e
       -0.1940085 0.13453837 0.13038084 0.13350159
0001d0 9e 06 58 be 79 93 07 3e b5 ed 24 3e 17 79 07 3d
       -0.21096274 0.1323985 0.16106303 0.033074465
0001e0 ec 3d 3d 3e 56 26 00 3e 51 50 55 3d f6 ae 20 3e
       0.18480653 0.12514624 0.05207855 0.15691742
0001f0 ac cd 1c be e1 e6 07 3c 92 95 00 3d c4 d4 72 3c
       -0.15312833 0.008294792 0.03139264 0.014821235
000200 b1 65 0d 3d 29 45 4a 3d 0d 65 0b be 43 13 8c 3d
       0.03452081 0.049382363 -0.13612767 0.068396114
000210 36 ab 14 be ef a7 4a bc fa 99 49 be f6 0e 8c bd
       -0.14518437 -0.01236914 -0.19687644 -0.06838791
000220 d0 85 be bd e6 3e 47 bd a8 14 b7 bd 3d ef ec bd
       -0.093028665 -0.04864397 -0.08939487 -0.115690686
000230 6f 48 ef 3d 2c 96 07 3e c4 39 42 be 94 fd 55 3d
       0.116837375 0.1324088 -0.18967348 0.052243784
000240 39 73 41 bd f1 f5 74 bc 29 dd 5c 3e 0a 57 31 be
       -0.047229026 -0.014951215 0.21568741 -0.17318359
000250 5c 01 1b be 2d 48 ec bd 7f 09 08 3e 2b 36 5b 3d
       -0.15137237 -0.11537204 0.13284872 0.053518455
000260 86 67 2b 3e bd 82 a1 bd 4b 95 4e be 1b 4a 5a bd
       0.1673871 -0.078862645 -0.20174138 -0.05329333
000270 d0 ed 06 3e cd cb aa bc f1 c5 78 3d 05 74 fc 3c
       0.13176656 -0.020849133 0.060735647 0.030817041
000280 93 70 6e bd ba cb d6 3d 47 18 2c bd 89 23 22 be
       -0.058212828 0.104880765 -0.04201534 -0.15833868
000290 0d 6a 38 be 3f 12 8a bc 93 ff 4a bd c4 f6 fa bd
       -0.18009205 -0.016854404 -0.04956014 -0.12254098
0002a0 d2 87 26 3e 9f 6d 0a 3e b5 c6 b8 3d 79 e3 95 bd
       0.16262749 0.1351838 0.09022275 -0.073187776
0002b0 a3 de 05 3e e9 38 d6 bd 6e 8b 8b bd 0c 13 53 bd
       0.1307321 -0.104600735 -0.068137035 -0.051531836
0002c0 04 dd 50 3e cf 3b e2 bc e7 76 59 bd c4 1f 16 3e
       0.20396811 -0.02761641 -0.05309191 0.14660555
0002d0 1e cb f0 bb 00 a5 48 3e 74 68 54 3e 3f fd d7 3d
       -0.007348432 0.19594193 0.2074297 0.1054635
0002e0 ed c8 30 3b ae 03 0b be cc 13 de bd 44 fe fb bc
       0.002697523 -0.13575622 -0.1084362 -0.030760892
0002f0 7a 68 7c bd 0e d2 60 3e 78 6a 57 3e 32 1d 2c 3d
       -0.061623074 0.2195513 0.21036708 0.04202003
000300 6f 5b 5d bd 4d ff 11 3e da ba 02 3d d8 95 e0 bd
       -0.054042276 0.14257546 0.031916477 -0.109660804
000310 97 7a c1 3d a1 d4 33 3c 92 56 03 3e f9 09 b2 bc
       0.0944721 0.010975988 0.12825993 -0.021733271
000320 f8 27 0a 3e 43 65 2e 3d 08 c0 73 3d 06 2d fa 3d
       0.1349181 0.04257704 0.059509307 0.12215619
000330 b2 7c d6 bd 2b 80 29 bd 17 f9 09 be 0f 80 00 bd
       -0.104730025 -0.041381996 -0.13473926 -0.031372126
000340 bb f0 61 3d dc 64 43 3e 3e 0e 11 be e9 95 25 3e
       0.05516122 0.19081444 -0.14165589 0.16170467
000350 94 d8 64 3c 1d 23 ad bc da ae 01 be ef d0 13 3e
       0.013967652 -0.021134907 -0.12664357 0.1443517
000360 aa 2f 3a 3e df 2c 2e be 3b 6a e7 3d 57 f0 b0 bd
       0.18182245 -0.17009304 0.11299559 -0.08639591
000370 dc c1 e0 3d f0 01 1b be 34 39 78 3d 6f 04 05 be
       0.10974476 -0.15137458 0.06060143 -0.12989973
000380 df db 0c 3c a0 eb 1d be ea d5 2f 3e a7 7d 2f be
       0.008597343 -0.15421915 0.17171445 -0.17137776
000390 5e 80 c7 3d 69 4a c3 3d 5a b1 5e be cf d0 0d 3e
       0.09741281 0.09535677 -0.21747342 0.13849185
0003a0 a5 be 05 3e df 67 27 3e 8d d5 be 3d 82 60 41 bc
       0.13061006 0.16348217 0.09318075 -0.011802794
0003b0 3a 7e cc bc 36 6d 20 be d8 fd 73 bc e4 20 32 be
       -0.024962533 -0.1566666 -0.014892064 -0.1739536
0003c0 30 4f 44 3e e4 18 0e be 47 5a 58 3d a1 be d0 bd
       0.19170833 -0.13876683 0.05282047 -0.101926096
0003d0 f2 d8 0c 3e 60 72 cb 3d aa 6d 1a be bc 99 6c 3d
       0.13754633 0.09933925 -0.15080896 0.0577638
0003e0 58 46 0c 3e 58 1f fa 3d ee 93 9e bd ba a9 8b bd
       0.13698709 0.122130096 -0.07743059 -0.06819482
0003f0 5e e1 fc bc 9c b8 26 bd 52 0f a1 bb 8f a7 25 3e
       -0.030869182 -0.0407034 -0.0049151564 0.161772

nns.1.2.bias f4 [64]
000000 11 e6 86 b8 b3 c0 71 37 fa b1 95 36 34 09 00 37
       -6.432471e-05 1.4409586e-05 4.4612652e-06 7.631537e-06
000010 59 51 4c b6 03 48 68 34 bd 38 07 37 ad 67 15 37
       -3.044572e-06 2.1632881e-07 8.0598375e-06 8.905231e-06
000020 1f 4b 96 b5 78 71 e1 33 48 f2 c7 b7 c8 94 85 b5
       -1.1197734e-06 1.0498019e-07 -2.383547e-05 -9.952573e-07
000030 26 05 39 b5 ca 04 83 34 e2 dd 9a b7 09 67 26 36
       -6.892536e-07 2.4404136e-07 -1.8461553e-05 2.4795902e-06
000040 d4 ea 19 37 26 6d 59 33 be 26 32 b6 19 36 d6 b6
       9.174186e-06 5.062352e-08 -2.6546618e-06 -6.383995e-06
000050 7f 67 80 36 53 e1 ed b6 51 7a 1d b5 8c 41 f6 35
       3.826746e-06 -7.0893816e-06 -5.866505e-07 1.8347505e-06
000060 ff de be b6 18 25 53 b7 fa af 02 b6 66 d1 76 b6
       -5.6884014e-06 -1.2585217e-05 -1.9473941e-06 -3.6778742e-06
000070 65 9f 66 b5 14 57 6a b7 16 22 91 b7 18 8c d0 b5
       -8.5913626e-07 -1.3967761e-05 -1.730122e-05 -1.553798e-06
000080 6a f3 01 38 b2 14 21 b8 bf 28 a3 35 12 9e 4f 34
       3.0982694e-05 -3.8404665e-05 1.2156305e-06 1.9335883e-07
000090 89 df 21 37 37 6f aa b6 44 ee 22 b7 72 55 dc b5
       9.648394e-06 -5.079342e-06 -9.711428e-06 -1.6416145e-06
0000a0 46 b3 de 36 b6 4f cd 36 65 23 f5 b5 a0 16 e3 b4
       6.6369857e-06 6.1187557e-06 -1.8264224e-06 -4.2298507e-07
0000b0 08 c7 97 36 4b 5c ea b5 2f 06 2c b6 2f 3e 73 37
       4.523321e-06 -1.7461219e-06 -2.5633597e-06 1.4498407e-05
0000c0 d9 67 a9 36 7b 6d d3 b7 16 a7 17 38 47 99 dd 35
       5.048682e-06 -2.5204141e-05 3.6156816e-05 1.6510393e-06
0000d0 f8 25 05 b7 b2 aa 90 b6 a1 e1 2c b7 5c c4 ab 37
       -7.936258e-06 -4.311406e-06 -1.0304532e-05 2.0476225e-05
0000e0 aa 16 63 b6 b5 2d f9 b7 58 ed aa b6 ff a9 aa 35
       -3.3838828e-06 -2.9704397e-05 -5.0940253e-06 1.2715462e-06
0000f0 a1 bd d1 35 10 21 1d b7 fd 62 c7 36 4a 5f 26 37
       1.5626903e-06 -9.365627e-06 5.942186e-06 9.916557e-06
