weight/IMDB-BINARY/Client_4.pth (torch, 260953 bytes, 24 tensors)

bns.0.running_mean f4 [64]
000000 74 ae 60 c0 82 04 6e be b0 15 a4 40 86 62 29 be
       -3.5106478 -0.23243907 5.1276474 -0.1654149
000010 ff 2b 8b 41 d2 be 33 c1 d6 ea 25 c0 0d 07 27 41
       17.396482 -11.234087 -2.5924582 10.439221
000020 9c 10 d2 40 ae 7d b3 c0 c1 e0 2f c1 24 b9 07 c1
       6.5645275 -5.6090918 -10.992372 -8.4827
000030 8d d3 fe 40 73 92 90 c0 fe 09 24 40 54 82 c5 3f
       7.963324 -4.517877 2.5631099 1.5430398
000040 8c 9d 81 bf 96 6c 84 c0 8d 23 17 c1 fc 92 8f 3f
       -1.0126204 -4.138255 -9.446179 1.1216731
000050 b9 86 79 40 d8 e7 df c0 91 25 b3 40 8b 70 d3 bf
       3.8988478 -6.9970512 5.5983357 -1.651872
000060 66 d0 3d c1 a4 cf 1f c1 ed a3 8b c0 41 c6 11 c1
       -11.863379 -9.9881935 -4.3637605 -9.110902
000070 2b 38 2d 41 65 e6 a7 40 2d 88 6b bf 57 c6 14 c0
       10.826213 5.2468743 -0.9200466 -2.3246057
000080 76 02 82 41 60 fa ad 40 fb 1a 2b 41 cf b6 07 40
       16.251202 5.4368134 10.694087 2.1205328
000090 3d 5a 7d c0 53 35 e1 c0 65 42 5d 3f 2b a7 26 41
       -3.9586327 -7.0377593 0.86429435 10.4158125
0000a0 02 f3 16 c0 22 3d f7 40 4d 09 a3 c0 cd ee c5 40
       -2.358582 7.7262125 -5.0948853 6.1854005
0000b0 e3 63 53 c0 53 71 25 40 f0 0e 4a 41 bd 8b f5 40
       -3.3029716 2.5850418 12.628647 7.673308
0000c0 6a 48 03 41 01 e0 99 40 e3 58 c2 40 41 c8 32 40
       8.205179 4.808594 6.0733504 2.7934725
0000d0 4c 86 19 c0 3d 19 fd c0 5e 28 fc 3f d5 a2 af c0
       -2.3988218 -7.909331 1.9699819 -5.488627
0000e0 f6 a0 2f c1 b9 b4 f1 be 34 ee 02 3f a5 3c 04 c1
       -10.976797 -0.47208193 0.5114472 -8.264806
0000f0 ca 1e bc c0 a9 44 07 3f ac 1b 34 41 66 f8 0f 41
       -5.8787584 0.5283914 11.256756 8.998144

bns.0.running_var f4 [64]
000000 1e 3c 25 3f f2 33 32 3d 78 ec e5 3e 89 61 b8 3d
       0.64544857 0.04350657 0.44906974 0.09002978
000010 16 eb a8 40 3b 00 3b 40 38 79 5f 3f fe cb b0 3f
       5.278697 2.921889 0.8729434 1.3812253
000020 f5 c4 91 3f c3 02 8d 3f 77 e8 3a 40 d8 54 5e 3f
       1.1388232 1.1016468 2.9204385 0.8684821
000030 c8 ea c9 3f e9 a5 01 3f bd 2f 00 3f 2d cb aa 3d
       1.5774775 0.50643784 0.5007284 0.08339534
000040 6e ce 82 3c d2 a8 f0 3d a1 4b f8 3f 08 ed 5f 3e
       0.015967574 0.1175095 1.939808 0.21867764
000050 c6 5a 90 3f 50 3d 98 3f 0a 2b 31 3f 3d 9b ab 3d
       1.1277702 1.1893711 0.692063 0.08379219
000060 9f e7 09 40 59 09 d4 3f a0 c5 cd 3e 30 3b bd 3f
       2.154762 1.6565353 0.40189838 1.4783688
000070 4a 78 2e 40 4b af af 3e a7 2d 74 3e 93 6d 02 3e
       2.7260919 0.34313425 0.2384554 0.12737112
000080 1d 50 ad 40 76 40 52 3f 7d f3 de 3f 56 76 02 3e
       5.4160295 0.8212961 1.7418057 0.12740454
000090 71 f7 ef 3e 9f 96 6f 3f 0c e2 90 3e 47 e5 05 40
       0.4686847 0.93589205 0.2829746 2.092119
0000a0 05 95 8b 3e 80 f8 1a 3f 95 5f 25 3f 2e 6f 14 3f
       0.2726213 0.6053543 0.6459897 0.57982147
0000b0 ee ad 04 3f 34 1d 05 3d 14 6e 11 40 42 05 96 3f
       0.51827896 0.032498553 2.2723436 1.1720355
0000c0 99 0a 8a 3f b3 88 44 3e 01 1d 70 3f 74 f1 64 3e
       1.0784484 0.19192772 0.93794256 0.22357732
0000d0 ab 89 77 3e 33 14 88 3f 08 1a 84 3d 73 ad 99 3e
       0.2417361 1.0631164 0.064502776 0.30015144
0000e0 61 69 49 40 27 83 01 3f 28 03 87 3d 0f cc 5e 3f
       3.1470568 0.5059075 0.06592399 0.8703012
0000f0 80 c0 2c 3f 85 eb 53 3d 02 8b c0 3f 66 f4 a5 3f
       0.6748123 0.05173828 1.5042422 1.296521

bns.1.running_mean f4 [64]
000000 0d 63 82 c1 dc 19 32 41 a0 b5 5d c1 9c e7 8b 41
       -16.298365 11.131313 -13.856842 17.48809
000010 47 0d 8e bf 0d 1b 8a 41 74 18 09 41 31 cc c8 c1
       -1.1097802 17.263208 8.56847 -25.099703
000020 8c 76 01 c0 a3 40 f1 c1 84 72 62 c1 22 fb d3 c1
       -2.0228605 -30.15656 -14.152958 -26.497623
000030 89 4c 2d c1 65 80 92 40 bc 84 df c0 4f 14 9a 41
       -10.831185 4.578173 -6.984953 19.259916
000040 21 54 93 c1 6d 5b 53 c1 2d 17 48 c1 dd 2d 59 c1
       -18.416079 -13.209821 -12.505658 -13.573697
000050 15 40 09 42 d8 5e 4d c1 6e bc 43 40 64 a9 b9 c1
       34.31258 -12.835655 3.0583758 -23.20771
000060 6a 8a 22 c1 dd 81 01 c2 a5 0a fe c0 c7 26 6d c1
       -10.1587925 -32.37682 -7.9387994 -14.821967
000070 4e 9b 87 c1 0c 9a dd 40 bd 55 53 41 df 4f ce 40
       -16.950832 6.9250546 13.208432 6.44725
000080 4b 98 30 c1 92 a6 15 41 82 56 08 c1 8c b2 6c 41
       -11.037181 9.353167 -8.52112 14.793591
000090 65 cb 56 3e 84 b9 ee c1 79 91 9a 41 8b c0 09 c2
       0.20976026 -29.840584 19.321032 -34.43803
0000a0 e1 8b 1c 40 c0 d6 b7 c1 99 33 d8 41 4e 90 a9 c0
       2.4460375 -22.979858 27.025194 -5.2988653
0000b0 f0 aa b5 bf 28 f4 a7 41 d4 43 28 c1 bf fc 88 c0
       -1.4192791 20.994217 -10.51656 -4.280853
0000c0 e3 40 15 41 67 ec 9c 41 8e a0 4c 41 e8 36 12 c1
       9.3283415 19.61543 12.789198 -9.138405
0000d0 e1 f4 3a c1 33 aa be c1 8b e2 4b c1 d4 9b 58 41
       -11.684785 -23.833105 -12.742808 13.538044
0000e0 d6 53 a3 c0 1f c8 c0 c1 78 d5 80 c0 8b 8a 40 41
       -5.103984 -24.097715 -4.026058 12.033824
0000f0 0c ab 24 42 36 c8 95 41 86 d9 e1 40 62 70 06 41
       41.167038 18.72276 7.057803 8.402437

bns.1.running_var f4 [64]
000000 b5 70 83 43 60 b0 db 40 c1 88 52 43 61 3d 77 43
       262.88052 6.86528 210.5342 247.23976
000010 e7 f9 ff 40 9a 94 fb 42 cc af 38 42 34 02 41 43
       7.9992557 125.79024 46.171677 193.0086
000020 ed 0b d2 41 db 5f 30 43 42 53 34 43 96 9e c6 42
       26.255823 176.37444 180.32523 99.30974
000030 26 46 29 42 64 9c e1 42 75 d0 be 3f 7d 68 a9 42
       42.318504 112.80545 1.4907366 84.70408
000040 fb de 0c 42 0a b4 3c 41 7a c1 83 43 c3 dd 9b 43
       35.217754 11.793955 263.51154 311.7325
000050 a2 55 a5 42 c3 65 07 43 c6 c9 65 41 31 a6 a3 42
       82.66725 135.3975 14.361761 81.82459
000060 63 5b ac 43 cf 2e 85 43 4c cc f0 42 fe 02 a7 41
       344.71396 266.3657 120.39902 20.876461
000070 9b b6 b3 43 4b 36 fe 40 4f 65 4f 42 9a 7a 88 42
       359.4266 7.9441276 51.848934 68.239456
000080 23 49 43 42 f8 99 7f 41 c1 b0 de 42 08 a0 bb 42
       48.821423 15.97509 111.34522 93.81256
000090 fa b2 ce 41 de cb 19 43 90 0c 61 43 21 ea 56 43
       25.83739 153.79636 225.04907 214.91457
0000a0 0b a6 e1 42 26 42 3c 41 eb 27 84 43 de eb b7 41
       112.8243 11.7661495 264.31186 22.99017
0000b0 dd bc 88 42 8b d8 de 42 99 1f 32 40 02 51 55 41
       68.36887 111.422935 2.7831786 13.332277
0000c0 e7 f8 99 42 5a df 61 43 6c 8d 87 41 e1 53 fa 3f
       76.98614 225.87247 16.944054 1.9556848
0000d0 91 1a 6a 42 73 c2 8c 42 d7 34 10 42 f1 fc ed 41
       58.525944 70.37978 36.0516 29.748507
0000e0 62 00 67 42 92 36 fd 42 7b 0f ef 42 35 26 9a 42
       57.750374 126.60658 119.530235 77.07462
0000f0 c8 27 0b 42 e3 ef 4d 40 56 68 fe 3f a5 0d b5 40
       34.78885 3.2177665 1.9875591 5.6579156

bns.2.running_mean f4 [64]
000000 c0 d1 94 bf 7b bd 27 40 f1 7e 89 41 63 23 0a c1
       -1.1626511 2.62094 17.186983 -8.633639
000010 7d 08 78 c0 15 c4 6c c1 fa 78 3f 41 48 57 51 41
       -3.875518 -14.797872 11.967035 13.083809
000020 19 09 9d 41 8f b0 e7 3e d2 3a f1 3f ba 8f ad c1
       19.629442 0.4525189 1.8846076 -21.695179
000030 ae e9 af 3f 86 fc a8 41 0e f9 41 41 5d 21 fd c0
       1.3743188 21.123302 12.123304 -7.9103227
000040 44 1e ed bf 1b 4d 33 41 17 6f eb 40 e6 e4 8f 41
       -1.8524861 11.206325 7.357311 17.986767
000050 e6 c3 87 41 43 53 93 41 70 11 af bf 13 55 13 41
       16.970654 18.415655 -1.3677197 9.20827
000060 46 74 14 c1 d6 30 57 41 18 a1 e5 41 95 51 6d c1
       -9.278387 13.449423 28.70366 -14.8324175
000070 0f 98 a6 41 a0 d5 81 c1 60 44 4a c1 9f 82 7a bf
       20.824247 -16.22931 -12.641693 -0.9785556
000080 a5 e5 b7 41 30 dd a0 c1 6b 37 91 41 c6 06 99 c0
       22.987131 -20.108002 18.15206 -4.782077
000090 43 62 cf 40 5c 21 de bf 1a 42 2d 40 8d 14 28 41
       6.480745 -1.735393 2.7071595 10.505017
0000a0 c3 df 7e 41 b9 09 c1 c0 98 80 79 c1 c0 6f 3b c0
       15.929629 -6.032437 -15.593895 -2.9286957
0000b0 91 87 4b 41 82 9b 67 c1 b4 c0 42 40 cc 3f da c1
       12.720597 -14.475466 3.0430117 -27.28115
0000c0 bf 94 84 41 7e dd 22 42 5b 0f b2 c1 4a 22 25 c0
       16.57263 40.7163 -22.257498 -2.5802178
0000d0 63 13 a1 41 a1 5c 62 c1 26 d7 8f c1 d1 42 7d 41
       20.134466 -14.1476145 -17.980053 15.828813
0000e0 ce b5 35 41 76 b4 18 c1 e0 08 51 41 5f cc ea 3d
       11.356886 -9.544058 13.064667 0.11464762
0000f0 54 e0 59 41 3d 07 6d 41 94 ef 0b 42 f3 e5 8c c1
       13.617268 14.814267 34.983963 -17.61228

bns.2.running_var f4 [64]
000000 7d a0 c9 42 92 c9 dd 41 9d cd 82 43 14 b7 9d 42
       100.81345 27.723423 261.60635 78.857574
000010 22 9f 8a 41 ae a1 0a 42 4a 46 03 42 bf 7a 65 42
       17.327702 34.65789 32.81864 57.36987
000020 bb 6e ef 42 29 85 3c 42 11 12 72 40 50 68 1c 43
       119.71627 47.13004 3.7823527 156.40747
000030 a5 d9 42 42 71 aa 82 41 61 56 f7 42 e9 53 bb 42
       48.712543 16.333223 123.66871 93.66389
000040 99 37 02 41 2c 47 3a 41 92 31 48 43 c7 24 4c 43
       8.138574 11.642376 200.19363 204.14366
000050 d2 14 e9 41 9e 33 df 41 bd 48 71 40 ec e2 3a 42
       29.135166 27.900204 3.7700646 46.721603
000060 b3 08 cf 42 36 5f 47 42 fd fd f7 42 b2 6f 8a 41
       103.51699 49.84298 123.99607 17.304539
000070 8c 65 0d 42 97 0f 54 41 3a a8 fc 40 00 14 71 40
       35.349167 13.253806 7.8955355 3.7668457
000080 aa 32 90 43 a5 85 92 43 43 89 53 42 6b ed 83 42
       288.3958 293.0441 52.884045 65.96371
000090 8f 42 c9 40 86 6d 87 41 ba da aa 41 0d ec f6 42
       6.289375 16.928478 21.3568 123.46104
0000a0 3e f9 89 41 60 f7 0b 42 44 ba 07 41 49 09 f9 42
       17.2467 34.991577 8.482975 124.518135
0000b0 2d 8e 8c 41 5d 0c 49 41 f1 b7 d4 41 4c a7 8f 43
       17.569422 12.565518 26.589815 287.307
0000c0 ea 14 33 42 f4 18 f6 43 6b fe b0 41 f7 d0 8a 43
       44.770424 492.19495 22.124228 277.63254
0000d0 94 5a 00 43 4b 3a 4f 42 2d 0c e3 42 1a 9f 01 41
       128.35382 51.806927 113.52378 8.101343
0000e0 b3 8f 9f 41 40 19 d6 41 a4 51 77 40 51 93 20 43
       19.945166 26.76233 3.864358 160.57545
0000f0 30 74 99 43 68 1a 34 42 7e f0 fb 43 bd 72 ad 42
       306.9077 45.025787 503.87885 86.7241

nns.0.0.weight f4 [64, 136]
000000 3d 5d 93 2b 00 5b 1e b9 d1 25 31 2d 8b bb 36 3a
       1.0470857e-12 -0.00015101954 1.0069682e-11 0.0006970695
000010 3a 85 fb bc 8d d8 d3 3d 8f 69 18 be dd 4c 44 bd
       -0.030703176 0.10344038 -0.14884017 -0.047924865
000020 c5 73 87 bd 29 85 f6 bc 34 86 0e be 91 9a 67 3c
       -0.06613878 -0.030092793 -0.13918382 0.014135973
000030 90 a3 e0 3d 66 24 0e 3d aa 03 ef 3d d0 44 a7 3d
       0.10968697 0.03470268 0.11670621 0.08167422
000040 90 4c 05 3e 9a 60 73 bb d7 b4 8d bc 0f a4 73 2d
       0.13017488 -0.0037136436 -0.017298145 1.3849379e-11
000050 27 5d 47 3b 15 55 ef 3c 1f bf a3 3d 4d 13 88 3d
       0.0030420513 0.029215375 0.07995438 0.06644306
000060 07 f7 8d b9 0a 95 3d 3d 9c ed 8b 33 cf 91 43 33
       -0.00027077665 0.046284713 6.515913e-08 4.5534588e-08
000070 30 1a 0e bd 99 ea 59 bd 6a 49 8d bd 3f c0 bb 3a
       -0.034692943 -0.053202245 -0.06898768 0.0014324262
000080 3f 74 0a 39 8f e5 7f 33 2e 8e 08 2d 10 6d af 34
       0.0001320401 5.9580596e-08 7.762275e-12 3.2675644e-07
000090 91 7b 62 2a 4d 59 bf 39 55 1d 3c b9 49 e3 7f 30
       2.0115703e-13 0.00036496893 -0.00017940004 9.309145e-10
0000a0 08 c8 8f ad a7 ba 0b 2f b0 ec 06 b3 9d 8f 83 b5
       -1.634605e-11 1.2708289e-10 -3.1414572e-08 -9.802058e-07
0000b0 2b e2 fb 37 7d 2a f9 a9 aa e2 bc 2b 40 ef de 35
       3.002685e-05 -1.1065192e-13 1.3421115e-12 1.660992e-06
0000c0 b5 0c 08 b9 dc c9 83 ae 26 44 d9 af 8e 1e be 2c
       -0.00012974704 -5.993048e-11 -3.9520492e-10 5.403517e-12
0000d0 d7 59 80 39 c8 3d 80 30 ee 47 c3 b7 e0 e5 3c ad
       0.00024480998 9.330785e-10 -2.3279306e-05 -1.0737605e-11
0000e0 80 28 c9 2d a2 94 5e 2c a5 af 60 2f 99 2b a4 ab
       2.286904e-11 3.1630605e-12 2.0435083e-10 -1.1665002e-12
0000f0 fe ef c2 39 db 18 c7 b9 43 e2 97 ab b5 16 47 32
       0.00037181372 -0.00037974757 -1.0791996e-12 1.15884875e-08
000100 05 f5 c0 37 04 83 a2 aa 81 75 5e 39 df 7c 6a b8
       2.300228e-05 -2.886789e-13 0.00021215343 -5.5906243e-05
000110 3d a1 ba 2c 2c c8 d9 b3 59 e5 b3 30 19 09 01 ad
       5.304339e-12 -1.0141261e-07 1.3089149e-09 -7.334821e-12
000120 d5 c3 3f 2b 71 54 ab a9 29 42 63 aa 16 89 a1 2b
       6.8128603e-13 -7.608574e-14 -2.0184604e-13 1.1477787e-12
000130 dd d4 96 2a 7c 6f d2 2b b3 ce ef 38 35 3a 4e 2a
       2.6793056e-13 1.4952341e-12 0.00011434909 1.831667e-13
000140 ff 44 24 2b 3e 8e 7c 29 6a 71 74 32 07 07 27 b9
       5.8360256e-13 5.6078616e-14 1.4228457e-08 -0.00015928979
000150 82 fd b1 aa 4d c2 22 af be 6a e7 2b 64 03 5d 2a
       -3.1617422e-13 -1.4802844e-10 1.6443164e-12 1.962992e-13
000160 bd a5 ec 29 31 28 f6 2a 18 12 83 2c 9e 22 77 ae
       1.05092564e-13 4.3726267e-13 3.7252527e-12 -5.6192044e-11
000170 73 a4 38 b5 13 aa 97 29 3d 1c 09 ab 75 f3 0a 36
       -6.8784647e-07 6.73525e-14 -4.8711366e-13 2.0705313e-06
000180 e5 b8 c1 ad 8d b7 99 2b b7 eb fc 37 80 0a 85 b9
       -2.202367e-11 1.0922249e-12 3.0150504e-05 -0.0002537556
000190 c8 e2 00 2f fa 29 87 29 9b d6 10 34 f1 9a 68 29
       1.1722101e-10 6.002486e-14 1.3489118e-07 5.164874e-14
0001a0 98 9a 64 2c b1 50 0d ab f7 2d 8d aa e9 f3 39 ab
       3.2486566e-12 -5.0205245e-13 -2.5078526e-13 -6.6063696e-13
0001b0 67 e5 11 b7 d0 05 e3 29 00 91 84 ae 9a 1b f5 38
       -8.696085e-06 1.00818334e-13 -6.028422e-11 0.000116876516
0001c0 2b 20 37 ac f8 7d c0 b8 b3 24 e8 28 ca 73 e6 2a
       -2.602372e-12 -9.178737e-05 2.577309e-14 4.0936552e-13
0001d0 7a fe b2 38 39 83 9a aa 2f 82 8c 2b 84 ee 07 2c
       8.5351014e-05 -2.744695e-13 9.983732e-13 1.9317057e-12
0001e0 13 21 12 30 9b 2e 76 38 9c d7 02 af 5a 82 64 29
       5.316149e-10 5.8694375e-05 -1.1900031e-10 5.0739232e-14
0001f0 1d b4 5c 2c 92 80 23 b8 41 b3 44 ad bd 87 98 aa
       3.1363863e-12 -3.898197e-05 -1.11811125e-11 -2.709481e-13
000200 eb 04 0b ab 86 fc 1d ae c4 e3 07 38 f4 bf 0f aa
       -4.9389545e-13 -3.5921953e-11 3.239863e-05 -1.2767549e-13
000210 4f fa e2 37 4d 1f 69 ae 9c 92 59 30 b8 43 e3 2b
       2.7057858e-05 -5.3005867e-11 7.9152485e-10 1.6148116e-12
000220 77 08 e5 37 da 86 cc 38 3a cd 37 2b 2a 3e e9 b9
       2.7302869e-05 9.752596e-05 6.529947e-13 -0.0004448754
000230 65 0b 6d 3d f6 41 86 3a 7f 27 6d bd d0 77 2e 3e
       0.057872195 0.0010243047 -0.057898995 0.17037892
000240 94 93 39 bd 0d 85 06 be b3 3f 1c be 05 d5 c4 3d
       -0.045306757 -0.13136692 -0.15258674 0.09610943
000250 ad 27 52 bd 1b 5b da bd ce e1 81 bc 24 92 53 bd
       -0.05130737 -0.10661908 -0.015854742 -0.051653042
000260 e1 54 f1 3d 8c 65 17 be e9 7e 42 3d 5a 58 8d 32
       0.117837675 -0.14784831 0.047484312 1.6454738e-08
000270 71 03 0b 3d 3a dc d7 bb 7a 5a a9 3c ae 98 ce bb
       0.03393883 -0.0065875323 0.020673025 -0.006304822
000280 ca 7a e7 b4 c4 48 bd bd c7 ba 29 3d 80 9c fd 3a
       -4.3116444e-07 -0.092423946 0.04143789 0.0019349009
000290 e0 db 11 bd c2 f0 8d 3d 07 79 48 bd bb 92 17 bb
       -0.03561008 0.069306865 -0.048943546 -0.002312823
0002a0 68 12 40 3c 75 11 3a 3c 1b 46 3d b7 c9 5f 79 2f
       0.011723138 0.011356701 -1.1281601e-05 2.2680448e-10
0002b0 c8 ef 82 2c 3e ab 3d b9 ee 2b 2a 39 d7 14 87 b7
       3.7214433e-12 -0.00018088237 0.00016228828 -1.6102958e-05
0002c0 fa 1c f1 b8 aa 6d 56 aa 5d dc e7 3b 7c 92 3b ae
       -0.00011497173 -1.9045066e-13 0.00707583 -4.264898e-11
0002d0 8a 5b ac b1 8a fc bd b6 07 93 97 b9 ca 01 57 aa
       -5.0162656e-09 -5.6620383e-06 -0.00028910508 -1.9096457e-13
0002e0 46 e2 f4 30 1c 46 55 ad 8c 6c 87 a9 3c ec 1d 2a
       1.7817647e-09 -1.2123216e-11 -6.014034e-14 1.4026361e-13
0002f0 e9 78 aa 37 65 03 2e ab ba fa 9d b7 ea de 2e 29
       2.0321882e-05 -6.182193e-13 -1.8832612e-05 3.882911e-14
000300 f4 48 ae a9 f7 f5 f5 29 a0 da 86 29 42 1f ca 2c
       -7.7398076e-14 1.0922854e-13 5.988721e-14 5.7446556e-12
000310 0a d4 53 28 a8 23 45 b6 71 23 9a b6 0f 8c 09 36
       1.17588316e-14 -2.9376042e-06 -4.5936836e-06 2.0496116e-06
000320 7f cf 4a aa bb 78 92 2b c4 63 96 30 1c 22 d7 35
       -1.8013194e-13 1.0407433e-12 1.0942292e-09 1.6028675e-06
000330 2b 7a 88 39 89 4b f1 ad df 56 17 b9 5d cd 41 b9
       0.00026030964 -2.7432072e-11 -0.00014432844 -0.00018482418
000340 05 f3 25 39 fe 9a 02 aa ae 89 46 af 4b 81 dd 2a
       0.00015826158 -1.1600093e-13 -1.8056909e-10 3.93472e-13
000350 6d 39 3d ad ae f6 e1 29 b9 ff 1f 30 04 92 a5 2a
       -1.0756157e-11 1.0034799e-13 5.8207267e-10 2.9411207e-13
000360 81 ba 06 38 6f 34 64 32 43 84 b2 aa bc 5b 28 2a
       3.2121785e-05 1.3283269e-08 -3.1710927e-13 1.4953224e-13
000370 04 a9 a5 b9 be 89 25 b9 61 41 8e b2 28 c2 e6 ad
       -0.0003159718 -0.00015786939 -1.6560707e-08 -2.6234195e-11
000380 53 70 87 b2 53 ab 3a b8 96 d7 23 29 7b f5 73 b8
       -1.5767148e-08 -4.4505414e-05 3.638026e-14 -5.8164336e-05
000390 98 8e 26 af d6 d4 a7 35 88 1b 5e b7 81 09 26 36
       -1.5148272e-10 1.2504413e-06 -1.3238641e-05 2.474146e-06
0003a0 ce cd 17 2e f8 9d fe a8 ea 77 1f 2f d8 55 fe ac
       3.4516216e-11 -2.8268173e-14 1.4503568e-10 -7.2286448e-12
0003b0 22 c0 a3 38 7b 6a 82 ac 29 37 a7 28 d6 14 06 ac
       7.808233e-05 -3.706644e-12 1.8564646e-14 -1.9054112e-12
0003c0 88 45 58 b9 63 d9 86 ac ff 36 18 2e 6e 4c 41 2c
       -0.00020625268 -3.832644e-12 3.4609645e-11 2.7469377e-12
0003d0 35 d1 d0 2a cb 97 94 2c 03 72 f3 30 0e ca 38 a8
       3.709339e-13 4.2232654e-12 1.7712981e-09 -1.02578655e-14
0003e0 3d 6a 75 ac b0 ac 2d 2d 1b d8 85 b8 a1 3e c7 2b
       -3.4875568e-12 9.872256e-12 -6.382187e-05 1.4157183e-12
0003f0 ba ca e9 28 ee 65 a2 b0 46 57 a0 aa a9 3b 49 32
       2.5956115e-14 -1.1816021e-09 -2.8482268e-13 1.1713305e-08

nns.0.0.bias f4 [64]
000000 3d 84 f5 3c 08 73 39 bc fc 60 fa ba f8 41 74 39
       0.029970283 -0.0113189295 -0.001910239 0.00023294229
000010 e9 e5 2c 36 5e 31 02 3c 92 e0 97 3d 05 57 ce 35
       2.5763823e-06 0.00794634 0.0741588 1.5373522e-06
000020 84 e8 2c 3b 2b 74 09 b7 60 3b e0 3b 35 ba 3e b1
       0.0026383707 -8.192884e-06 0.0068430156 -2.7754485e-09
000030 af e5 47 3b 7b aa 80 3d 08 54 6d bd 20 ef 22 3c
       0.0030501892 0.062825166 -0.057941467 0.009944707
000040 d8 d5 6d bc 24 f1 ec b3 3a b7 98 bc 34 15 59 32
       -0.014516316 -1.10334696e-07 -0.018642057 1.26358835e-08
000050 3e 18 1e b5 ae 40 55 3d d4 e0 aa 3c fc 27 94 b2
       -5.8894864e-07 0.052063636 0.02085916 -1.724765e-08
000060 97 9c 4a bb 47 22 50 3c d8 98 52 bc f4 3c 85 3c
       -0.0030916089 0.012703485 -0.012853824 0.016264416
000070 a4 4f b9 b1 a4 08 30 3c 7b 06 3b bd 66 a3 f3 bb
       -5.3932627e-09 0.010744248 -0.045660477 -0.00743525
000080 ee fc f2 3b 5f f4 98 b5 04 5c f8 3b 7d 43 a5 3c
       0.0074154055 -1.1396004e-06 0.0075793285 0.020173782
000090 c2 d6 7e 3a 7d ce 24 3a aa 45 2d 35 3d 4d 33 38
       0.00097213325 0.00062868727 6.4548897e-07 4.274886e-05
0000a0 24 88 00 b7 cb a9 bc 36 f1 01 2a 3b ce 49 ee 3a
       -7.661092e-06 5.622603e-06 0.0025941099 0.0018179954
0000b0 d7 87 dc 3c 75 e3 5e bc b5 c5 06 b3 7b 83 ee 38
       0.026920242 -0.013604035 -3.137912e-08 0.000113732145
0000c0 b1 01 19 3d 07 0d f1 33 4a c7 a6 3c 49 75 20 35
       0.03735513 1.1224807e-07 0.0203587 5.9775317e-07
0000d0 43 86 e6 bc 3e 17 db bb 1f d1 f1 bc 69 0c 8f b2
       -0.028140193 -0.0066861203 -0.029518662 -1.6653035e-08
0000e0 1e bf db 39 5d ae 82 b6 03 bc 9d 3b 47 9e ed 3b
       0.00041913328 -3.8946005e-06 0.0048136725 0.007251534
0000f0 26 69 0f 3c 86 f8 8b b6 11 aa 9a b6 19 79 3e 36
       0.008753097 -4.1714547e-06 -4.609356e-06 2.8382694e-06

nns.0.2.weight f4 [64, 64]
000000 a2 11 81 bd 44 da 8a 3a dd 9a 1a be fe 97 84 3c
       -0.06302191 0.0010593613 -0.15098138 0.016185757
000010 ac fd 1c 3e e2 15 ba 3d ac fc 2e 3e 3f b5 25 be
       0.15331143 0.09086205 0.17088574 -0.16182421
000020 e3 b0 c2 ba 3d 32 11 3d 14 a4 3e bd 71 fb 2f bc
       -0.0014853742 0.0354483 -0.046543196 -0.010741101
000030 42 b1 2d be a2 0f de 3d 82 22 7d 3c d0 72 29 3e
       -0.1696215 0.108428255 0.015450122 0.16547704
000040 df 2d 42 bd 0a c7 f1 3c e8 a3 32 bc cc 26 27 bd
       -0.047407027 0.029513855 -0.010903336 -0.040808484
000050 40 39 9c 3b 95 d2 06 bd ff c2 2e be cd 15 06 3b
       0.004767567 -0.03291567 -0.17066573 0.0020459772
000060 8a 11 44 be 2c fc 34 bd a2 42 4b be eb 6a 14 3e
       -0.19147316 -0.044185802 -0.19849637 0.14493911
000070 e1 51 ae 3b e4 81 21 3e 4b b3 bb 3d 70 19 17 3e
       0.0053198193 0.15772206 0.09165057 0.14755797
000080 48 1e ef bd a9 6f ab bd 9d 50 a6 3d d5 50 10 3e
       -0.116756976 -0.08370907 0.081208445 0.14093335
000090 bf 28 b9 39 5e c1 31 bc 0f dd a4 3d 35 c9 d2 bc
       0.00035316308 -0.010849325 0.08049976 -0.025730709
0000a0 16 7e 97 3d 4a 49 69 3d 9f e3 14 bc bf 14 42 3a
       0.07397096 0.05695466 -0.009087472 0.0007403604
0000b0 da 00 20 be 18 83 b1 bd e5 25 f5 3b 6f 29 b2 3d
       -0.15625325 -0.08667582 0.007481324 0.08699309
0000c0 13 1a 36 3e fe 13 f7 bc dc 4b d8 3d 43 94 e9 3d
       0.17783384 -0.0301609 0.10561344 0.11405232
0000d0 42 94 81 bd 47 7f 3a bc 42 f1 b5 bc 20 bc 13 bc
       -0.06327106 -0.011382884 -0.022209767 -0.00901702
0000e0 a2 6a 71 3d e5 40 ef bc 20 37 ee b9 e0 b9 0b 3d
       0.058939584 -0.029205749 -0.0004543597 0.03411281
0000f0 a5 81 a5 bd 9a e7 c3 bd 60 65 e9 3d 0f 27 4d be
       -0.08081368 -0.09565659 0.11396289 -0.20034431
000100 a3 6b 4f bd ba 35 3f 3e 88 6e 78 bd a9 7f dc bd
       -0.05063976 0.18672839 -0.060652286 -0.10766537
000110 4f 51 06 be 09 13 0b bd 0c 1e de bd 40 94 c5 3d
       -0.13116954 -0.0339537 -0.10845575 0.09647417
000120 33 35 00 3d 3b 0e 56 3e 24 be fb bc ea ec 39 3d
       0.031300735 0.20903866 -0.030730315 0.045391954
000130 6f 94 0e 3e bf 3c a3 bd 88 e6 c6 bd 0e 44 40 3e
       0.1392381 -0.07970571 -0.09711939 0.18775961
000140 2b 9c 33 3e 34 8b e0 bd f2 31 43 be 3b 04 2a 3c
       0.17540042 -0.10964051 -0.19062021 0.010376985
000150 57 11 10 3c 74 73 3f bd 7e 2a 24 be fe 9e 96 3c
       0.008793197 -0.046740964 -0.16031834 0.01838636
000160 82 7f 0c be 56 88 8f 3c ca 43 9d 3d 24 f3 c1 bb
       -0.13720515 0.017521065 0.07678945 -0.005918877
000170 5d 3f 2c 3d 9f 52 1f 3e 89 d4 34 3e 06 91 23 3e
       0.042052615 0.15558861 0.176592 0.15973291
000180 3a d3 1e 3e 2c 97 4b be 34 ca f3 bd 80 99 41 3e
       0.15510264 -0.19881886 -0.119038016 0.18906212
000190 b5 56 32 bd 73 ae 1d be 17 82 24 3e 35 1c 4b bd
       -0.04353972 -0.15398578 0.1606525 -0.049587447
0001a0 ec d7 02 3d 27 83 e9 bc d1 00 81 bc f1 80 1c bd
       0.0319442 -0.028504921 -0.01574746 -0.038208906
0001b0 60 f4 a0 bd bb fc 9c bc 5e 88 1a bb 5b e9 3e bd
       -0.07859111 -0.01916348 -0.0023579816 -0.046609264
0001c0 0f 0e 1b 3e 1c 79 a4 3d 56 04 28 3d fd 07 d7 3d
       0.15142082 0.08030912 0.04101976 0.104995705
0001d0 78 05 b3 3d fd a1 ce bb 30 2b 0c bc 7a 4b 1f bc
       0.087412775 -0.0063059316 -0.008555219 -0.009722585
0001e0 3e 24 8c bc 73 a9 4d be 90 67 2b b8 17 9a f3 bd
       -0.017107125 -0.20084171 -4.0866027e-05 -0.11894625
0001f0 b8 3a 6c bd 6d 31 40 be 7c ac 2b be fb ec 2d bd
       -0.057673186 -0.18768854 -0.16765016 -0.04246233
000200 d4 c1 70 bd 8e 28 0d 3d 0c be 46 3e 6b 9f 84 bd
       -0.0587786 0.034462504 0.19408435 -0.06475719
000210 c4 3b 4e 3d 31 42 17 3d 7a 6e 38 3d 7a ee 21 3e
       0.050349966 0.03692836 0.045027234 0.15813628
000220 59 c5 fc 3b a8 0a bc bd 21 5b 7c bc 34 d0 35 bc
       0.0077139554 -0.0918172 -0.015402586 -0.011097003
000230 c4 54 ce 3c ce b8 91 bd 14 b8 25 3e ae a0 10 be
       0.025186904 -0.07115327 0.16183501 -0.14123794
000240 02 4f 45 be ec c1 10 bd 69 97 98 3d 76 ab ae bc
       -0.1926842 -0.03534119 0.07450754 -0.021321993
000250 6d fa e4 bc c1 74 34 3e 7a e1 df 3d ff 00 4c 3d
       -0.027951444 0.17622663 0.10931678 0.049805637
000260 4d 6e e7 bd 16 34 d2 3d c7 d1 94 bb 2a 58 7f 3d
       -0.11300335 0.10263841 -0.004541609 0.06233994
000270 86 d8 21 3a 49 ae 19 be 2f fe 87 3d 46 1f ff bd
       0.0006173927 -0.15007891 0.066402785 -0.12457137
000280 9d 28 17 3e af 2a 5f be ae 0b 1b be a8 e7 ba bd
       0.14761586 -0.21793626 -0.15141174 -0.09126216
000290 be 5e 08 3d d8 36 12 be bf d2 82 3d fc 4c 10 3d
       0.03329348 -0.14278734 0.06387853 0.035229668
0002a0 b5 18 98 3d ef 3e 1c bd 61 b6 bd 3b 48 2a 81 3d
       0.074265875 -0.038145956 0.0057895635 0.06306893
0002b0 22 6a bb bd 5e 76 cf 3d df 7d 04 3b 6e 60 1d 3e
       -0.091511026 0.101299986 0.0020216627 0.15368816
0002c0 4d a8 6a 3d 5c da e1 bb 7c 07 0f be 15 e1 02 3e
       0.05728941 -0.0068924855 -0.13967699 0.12781174
0002d0 65 1f 43 bc 56 39 b7 3c b9 70 0c 3e fd 3e 41 3c
       -0.0119093405 0.022366207 0.13714875 0.011794803
0002e0 78 70 c5 3d bb 6d ff 3d 4e 74 3c 3c 96 76 29 be
       0.09640592 0.12472101 0.011502339 -0.16549143
0002f0 96 98 5a be ce 24 52 bb d2 fe 38 3d 28 a1 31 3e
       -0.2134727 -0.0032065394 0.04516489 0.17346632
000300 31 bd 21 3e 1f e3 d6 bd ab f5 35 be 58 81 62 3c
       0.15794827 -0.10492539 -0.17769496 0.013824783
000310 8b b6 cf bd 08 9c 14 bc 64 fc f0 3d 25 1c 19 bc
       -0.10142239 -0.009070404 0.1176689 -0.009345089
000320 bf 07 25 3c cf b2 11 3e e1 cb 19 bd 17 e0 ca 3b
       0.010072648 0.14228366 -0.03754795 0.0061912644
000330 85 bc c3 3d c3 5e 37 3e 49 3e 34 bd f7 78 1b be
       0.095574416 0.17907242 -0.044004712 -0.15182863
000340 71 e0 ae 3d 22 d5 34 3e 6a 89 5d 3d 7e 10 45 3d
       0.085389026 0.17659429 0.054086126 0.04811143
000350 e4 1b 66 bb 9c ee 9c 3b 00 7c ba bd 75 3b 87 3d
       -0.003511184 0.0047891866 -0.091056824 0.066031374
000360 61 80 94 3c b9 41 2e bd 3a 5e 24 3c a8 a5 c6 bc
       0.018127622 -0.042543147 0.010032231 -0.024248913
000370 b7 1d 0d 3a ab b2 18 3e ae 19 91 3d 75 9a 33 be
       0.0005383151 0.14911906 0.07084976 -0.1753939
000380 fe 91 d8 3d 75 47 90 3d 02 48 7e bd 0f 59 aa 3c
       0.10574721 0.07044879 -0.06208039 0.02079442
000390 d1 5c a7 3d 7a 76 2c 3e 22 56 8b 3d 59 27 d2 3b
       0.08172 0.1684207 0.06803538 0.006413382
0003a0 9c 18 34 be 1d cb 3c 3e c9 6a 96 bd 99 b6 b1 3d
       -0.17587513 0.18436857 -0.073445864 0.08677406
0003b0 aa 25 a9 bd 03 a3 1a 3e 3d 93 a3 bc da 55 cb 3d
       -0.08259137 0.15101247 -0.01996767 0.09928484
0003c0 cf 62 9e bd a0 0c c8 3d c9 31 50 3e a4 47 00 be
       -0.0773369 0.09768033 0.20331492 -0.12527329
0003d0 95 3e 3e be ab 2b 9d bd 88 41 de 3d e7 11 08 bd
       -0.1857856 -0.07674345 0.10852343 -0.033220198
0003e0 9b b8 39 bd 39 b6 c8 3c 41 de ed bc f1 39 8b bd
       -0.04534207 0.024500953 -0.029036643 -0.06798161
0003f0 98 02 96 3c ce 89 01 be 5d 40 90 bd 7e 3c 1e 3c
       0.018311784 -0.12650225 -0.07043526 0.009657977

nns.0.2.bias f4 [64]
000000 13 62 55 b4 e0 c4 e1 b6 e7 d2 93 36 22 f9 28 36
       -1.987285e-07 -6.728442e-06 4.4054937e-06 2.5178965e-06
000010 78 25 49 37 a1 b7 dd b5 bf c4 5d b5 0f f2 fe b5
       1.19892575e-05 -1.6519226e-06 -8.261522e-07 -1.8994923e-06
000020 0b 29 b2 b6 75 58 6e b6 81 26 87 b6 05 8a 0b 35
       -5.3095914e-06 -3.5516252e-06 -4.027796e-06 5.198238e-07
000030 da 04 be 35 60 29 23 36 19 b3 3c b6 1f 23 85 b5
       1.4157515e-06 2.4312976e-06 -2.8118432e-06 -9.919494e-07
000040 74 88 07 35 33 a0 4f b6 e9 86 a7 b6 c5 d1 63 b5
       5.0489984e-07 -3.0938652e-06 -4.9926934e-06 -8.4869345e-07
000050 bf b6 48 b5 d9 7c 49 37 15 72 0f 37 b5 49 cd b4
       -7.4771737e-07 1.2009602e-05 8.550026e-06 -3.8237854e-07
000060 e7 c2 fd 33 06 b5 2a 36 6b 93 0c 35 47 2d 59 b6
       1.1816683e-07 2.5437344e-06 5.2368586e-07 -3.2361875e-06
000070 3e ed 5c b7 f1 2d e4 b5 ef 02 cf b6 c8 c9 1c b6
       -1.3168259e-05 -1.7000694e-06 -6.1694222e-06 -2.3363264e-06
000080 3a 44 9e b4 cb da 5f b6 09 a3 86 b9 f6 c2 30 37
       -2.9479435e-07 -3.3356944e-06 -0.00025679942 1.053581e-05
000090 72 4b c8 b5 08 aa 51 34 5c 11 4e b5 91 b4 1b 35
       -1.4923119e-06 1.9526499e-07 -7.676624e-07 5.800476e-07
0000a0 76 d0 a3 31 b3 66 56 b6 82 8b 0f 34 f2 b6 be b5
       4.7676236e-09 -3.1948264e-06 1.3368665e-07 -1.4209347e-06
0000b0 c1 b8 f9 b5 72 48 c2 34 fd cb 5a b5 04 d1 97 b6
       -1.8605716e-06 3.6188027e-07 -8.150817e-07 -4.5244833e-06
0000c0 f7 26 ec b6 8c a1 72 b6 90 5b 11 b6 b7 ce ff b6
       -7.037884e-06 -3.6154843e-06 -2.165998e-06 -7.623657e-06
0000d0 bb 97 3e b5 d5 fa d4 b3 1d cc 92 36 40 27 9f 34
       -7.100131e-07 -9.9176454e-08 4.374901e-06 2.9644616e-07
0000e0 15 0e b0 36 39 ed 22 36 14 e0 11 b3 4a 9d fd b3
       5.246848e-06 2.4277963e-06 -3.396424e-08 -1.1809841e-07
0000f0 82 4b 6d b4 52 82 d3 34 ad 9e 1e b5 7a 56 1c 38
       -2.2099815e-07 3.9396633e-07 -5.909049e-07 3.7273836e-05

nns.1.0.weight f4 [64, 64]
000000 97 b5 19 be 17 51 28 3e 9b f3 d8 3d 53 cc 6d bc
       -0.15010677 0.16437183 0.10593339 -0.014514047
000010 44 48 81 bc c3 4b e6 bd 03 33 4a be 8f d0 22 3b
       -0.01578153 -0.11244919 -0.19746022 0.002484355
000020 cf 07 06 3e 40 91 11 bd d6 3c b5 3d 1d 59 01 be
       0.13088916 -0.03553891 0.08849494 -0.1263165
000030 bb 69 4e 3e c8 49 78 3d 73 d5 81 bd fe e9 d0 bd
       0.2015752 0.06061724 -0.0633954 -0.102008805
000040 81 99 0c be bc a3 db 3c 94 76 9b 39 ba b5 36 3e
       -0.13730432 0.026811473 0.0002965225 0.1784276
000050 d3 b3 b0 bc 7c bb e4 bd 67 c0 f7 bd 8b 8c 65 bd
       -0.021570122 -0.11168572 -0.12097245 -0.056042235
000060 cb c2 39 be 7c 01 4f be f9 39 14 be d6 ac 49 bd
       -0.18140714 -0.2021541 -0.1447524 -0.049237095
000070 5f bc 98 3d 75 d2 4c be 98 26 c4 3d 3b df c0 3d
       0.07457804 -0.20002158 0.09577674 0.09417578
000080 d2 06 18 be e8 7d d0 bd 55 93 23 3e 97 86 d2 3d
       -0.14846352 -0.10180265 0.15974171 0.10279577
000090 cd 4e e3 bc 37 b7 6e 3d 51 8a 2f 3e 1e b1 d5 3d
       -0.027747536 0.058280196 0.17142607 0.10434173
0000a0 78 0f 1a 3e 63 a1 02 3e 48 9e b0 3c 77 1f 34 be
       0.15044963 0.12756877 0.02155985 -0.17590128
0000b0 b1 d1 44 3e 97 e9 bc 3d 52 16 32 be 8e cb 5f 3d
       0.19220616 0.09224241 -0.17391327 0.054637484
0000c0 1e 72 8f 3c 4d 25 d2 3d df 3b b7 bc bf 3f 48 be
       0.01751047 0.10261021 -0.022367416 -0.19555567
0000d0 79 0c c1 bd e1 9e 30 3d 4b 0e 33 3e c1 97 9c bc
       -0.09426207 0.04312027 0.17485921 -0.01911533
0000e0 b0 3f b6 bd 60 3d 5a be 8e 8e 7f 3d d6 74 3b be
       -0.08898866 -0.21312475 0.06239181 -0.18306288
0000f0 77 bb eb 3c 3a 35 cc bd 86 43 a1 bd a6 2c c4 bc
       0.028775914 -0.0997109 -0.07874207 -0.023947071
000100 2f 67 ce 3d dc 8b 4c 3e 5a 28 da bd 75 1c 76 ba
       0.100782745 0.19975227 -0.10652228 -0.00093883957
000110 d6 b7 94 bd bf 1d 32 3e e1 4a 43 be 35 aa 42 be
       -0.072616264 0.1739416 -0.19071533 -0.19010241
000120 5d 69 7b bb 08 68 ab bc 9f 69 b7 bd db bf 33 be
       -0.0038362362 -0.02092363 -0.089556925 -0.17553656
000130 6d 5d cb bd e8 33 48 be ce cb af 3d 4c 51 b6 bd
       -0.09929929 -0.1955105 0.085837945 -0.08902225
000140 06 b2 21 bd ed 70 86 bd 16 79 03 3a 46 e4 83 3d
       -0.039476417 -0.06564508 0.00050152966 0.06440024
000150 30 07 a1 bd 52 4d e0 bc 79 c2 5e 3d be 92 c5 bd
       -0.07862699 -0.02738062 0.054384682 -0.096471295
000160 14 81 4d 3b d7 28 60 be 33 39 e4 3d 3e 9f 45 3e
       0.0031357454 -0.21890579 0.111437224 0.19299027
000170 7e 7a a4 3d 62 31 e8 3d 67 5e 1b be 1f 47 59 3e
       0.08031176 0.11337544 -0.1517273 0.21218537
000180 7e 4e 00 be c7 14 1c be d7 4f d2 3d 93 d8 b0 3d
       -0.12529942 -0.15242301 0.102691345 0.08635058
000190 00 6f 45 bd 00 6c 0a 3e d9 3f 83 bd e0 7d 55 3d
       -0.04820156 0.13517761 -0.06408662 0.052121997
0001a0 0d 5b e0 3d 3e 03 3a be 13 81 5c 3e 79 00 9d 3d
       0.109548666 -0.181653 0.21533613 0.07666106
0001b0 14 33 2b be a7 df 1a be 34 9d 49 be 98 4d 1c be
       -0.16718704 -0.15124379 -0.19688874 -0.15263975
0001c0 59 eb 20 be a0 b0 a6 bd ee af 46 3d f4 b0 51 be
       -0.15714778 -0.08139157 0.048507623 -0.20477659
0001d0 ac 9d f9 3d 35 16 9e bd 52 0a 4e bb f2 58 ff bd
       0.12188277 -0.077190794 -0.0031439257 -0.12468137
0001e0 8a a5 e5 3d d0 a5 66 3d 05 d0 84 3c 17 92 88 bd
       0.11213215 0.056310475 0.016212473 -0.066684894
0001f0 cd b0 01 be 1f 08 7d 3d b6 76 43 3e 67 63 2a be
       -0.126651 0.061775323 0.19088253 -0.16639481
000200 2b 10 a6 bc b8 62 77 3d bf ce 32 3e b9 4e 35 3d
       -0.020271381 0.06039688 0.1746168 0.04426453
000210 6e 87 19 be 6c 61 8c bd 01 c0 0f be b9 c2 c8 bc
       -0.14993069 -0.06854519 -0.14038087 -0.024506913
000220 9d 26 f1 bd 0a 21 69 3d a3 c5 54 3e 81 c1 2d be
       -0.11774943 0.056916274 0.20778517 -0.16968347
000230 95 e0 39 be ad 7b 3d be 92 26 9a bc b9 8a c1 3d
       -0.18152077 -0.1850421 -0.01881722 0.09450287
000240 44 b8 ca 3d 63 67 87 3d f5 b8 2d 3d 7d 99 1c be
       0.09898427 0.06611516 0.042412717 -0.15292926
000250 cb de 85 3c de 8e 6a 3c 28 24 9e bc 68 5c 88 bd
       0.016341588 0.014316289 -0.01930435 -0.0665825
000260 44 50 e8 3d e9 5a cc bd 8a b5 3c be 87 6e d6 bd
       0.113434345 -0.09978277 -0.18428627 -0.104703
000270 67 cc d4 3d fb d5 40 bd 2a ec 67 3d d5 8e 14 bd
       0.10390549 -0.047079068 0.056621708 -0.036269028
000280 2b 5b 2c 3e 2b 7e 45 3d eb 7a 1e be 65 d2 24 bd
       0.16831653 0.048216026 -0.15476577 -0.04023971
000290 82 34 e6 3d 5c 31 a5 3d 0e ed 8a 3d 33 64 b4 bd
       0.11240484 0.08066055 0.06783496 -0.08808174
0002a0 aa 23 29 bd 3f d5 1b 3e af 6d 98 bd 7c 04 2a be
       -0.041293778 0.15218066 -0.074427955 -0.16603273
0002b0 a3 de 8c 3c 95 a6 b8 bd f5 ff b3 3d bd b2 1e be
       0.017196005 -0.09016148 0.08789054 -0.1549787
0002c0 c1 4c c8 3c 00 ac 0b 3d c1 3e 98 bd bd 52 52 bd
       0.024450662 0.03409958 -0.07433844 -0.051348437
0002d0 54 6f 43 bc 8a 3b 59 be bd 0e 1f 3e 22 37 9c 3d
       -0.011928398 -0.21214119 0.15532966 0.07627703
0002e0 33 3c 3a be b5 6e 18 3e 03 ba 0f bd 60 56 e5 3b
       -0.18187027 0.14885981 -0.035089504 0.006998822
0002f0 a8 4a 99 bd b4 1b 37 bd ea b1 a7 bd f5 46 f7 bd
       -0.07484943 -0.044704154 -0.08188231 -0.12074081
000300 9f b2 47 be f1 b0 4d be e9 91 05 bd 67 ed a2 bd
       -0.19501732 -0.20087029 -0.032609854 -0.07955437
000310 f2 3f 06 bd 7f 75 37 bd b2 68 fa bd dd d0 85 3d
       -0.032775827 -0.044789787 -0.12227 0.06533978
000320 e8 07 cb bd 40 e5 aa bd cd b7 4e bd 55 95 54 3e
       -0.09913617 -0.08344507 -0.050468255 0.2076009
000330 4b 59 2e be b5 04 9d 3d 77 7f 14 be e6 46 0d be
       -0.1702625 0.076669134 -0.14501749 -0.13796577
000340 63 58 e1 3d b8 92 11 be 23 ad 54 3d 95 8b a5 bd
       0.110031866 -0.14216125 0.05192293 -0.08083264
000350 5f 94 38 3e 57 96 c5 bd 79 6b f7 3d db 0a 3a 3e
       0.18025349 -0.09647816 0.12081046 0.18168204
000360 dc eb 2b 3b 19 33 11 3d 13 3d 93 bd 26 2e b9 bd
       0.0026233112 0.03544912 -0.07189383 -0.09042005
000370 19 13 10 be 2a 4d da bd 85 55 1a 3e 12 ce 7d bc
       -0.14069785 -0.10659249 0.15071686 -0.0154910255
000380 3e 3a 1d 3d b4 3b d1 3d ad 78 29 3e 95 97 40 3e
       0.038385622 0.102164656 0.1654994 0.18807824
000390 7f 28 03 be 78 bc a7 3d fc 47 d2 b9 8a 43 3b be
       -0.12808417 0.081902444 -0.00040107954 -0.18287483
0003a0 22 5c 36 3e da b3 04 3e 47 0e 40 3e a5 c0 15 3e
       0.17808583 0.12959233 0.18755446 0.1462427
0003b0 a5 b7 93 3d 91 dd 62 bd 3a 69 16 3e 93 55 6b bd
       0.07212762 -0.055387083 0.14688578 -0.057454657
0003c0 ce 59 42 3e db 3f 86 bc ab d1 2e bb fb 29 80 3b
       0.1897957 -0.01638787 -0.0026675265 0.0039112545
0003d0 c6 42 d7 bd 5a 7b 4d be 74 97 dc 3d 09 67 52 3e
       -0.10510783 -0.20066586 0.10771075 0.20547117
0003e0 21 95 f8 3d d8 49 04 3e 6a ed 9b 3d c7 74 b7 3b
       0.12137819 0.12918794 0.076136425 0.0055986377
0003f0 0a 37 67 bd 7e d4 0c 3e 03 ce aa 3c 1e cf 11 be
       -0.056448974 0.13752934 0.020850187 -0.14239165

nns.1.0.bias f4 [64]
000000 a1 59 50 bd a7 31 e8 3b a8 6a c1 bc 63 24 aa 3d
       -0.050866727 0.007085997 -0.023610428 0.083077215
000010 d6 bc 59 bc 9c ca 5b 3d f6 5c b4 bd 7a f7 70 3d
       -0.013289651 0.05366002 -0.088067934 0.058829762
000020 25 9b b4 bc 98 41 04 bd 68 44 04 bd 8c 9e 39 bd
       -0.022046635 -0.032289118 -0.0322918 -0.045317218
000030 10 24 68 3d c1 65 e3 3c 80 f3 00 3d 05 2c 40 bb
       0.056675017 0.027758481 0.03148222 -0.0029323113
000040 9d 5e aa 3d 69 7d 6f bc a5 37 8c 3d 6f 22 86 bd
       0.08318827 -0.014617302 0.06846551 -0.065495364
000050 0d 8b c3 bb ec 66 76 3d 91 82 ae bd 40 3d 35 bd
       -0.005967504 0.060156748 -0.08520997 -0.044247866
000060 23 21 ab bb 08 75 03 3d 83 af ae bd e1 24 b9 bb
       -0.005222456 0.03209403 -0.0852957 -0.0056501483
000070 84 be 2c bd ff 5f 0c 3d 1b cc 0b bc 3a a3 77 bd
       -0.042173877 0.034271237 -0.008532549 -0.0604584
000080 02 0e 0c bd a9 c8 e9 bd 2d b4 23 3d 3d dc a3 3c
       -0.034193046 -0.11415226 0.03996675 0.020002479
000090 65 51 35 bb 14 9d b8 3d 51 10 c4 3d b1 33 7c bd
       -0.0027666923 0.09014335 0.095734246 -0.061572734
0000a0 85 1f 23 bc d2 cc 68 3b ee 86 a6 3d 46 b8 88 bd
       -0.009956245 0.0035522473 0.081312045 -0.06675772
0000b0 48 ab a6 3c 24 54 d0 3b 48 cd 09 3d 9b b5 7f 3d
       0.020345345 0.0063576866 0.033643037 0.06242905
0000c0 ff a4 46 3d 40 2a 43 bd 96 c9 75 3d e8 43 bb 3c
       0.048497196 -0.047647715 0.0600067 0.022859529
0000d0 e4 24 47 3d 62 5a 89 bb 33 a7 99 bd 86 82 5c 3d
       0.048619166 -0.0041916827 -0.07502594 0.053835414
0000e0 17 b4 d1 bc 37 a2 6d 3c ad 65 8a 3d ed 89 2a bb
       -0.025598569 0.014504007 0.06757674 -0.0026022152
0000f0 8c a4 3b 3c a6 be b9 3c 3d ee 2c bd 65 7f 32 3d
       0.011452805 0.022673916 -0.04221939 0.043578524

nns.1.2.weight f4 [64, 64]
000000 ed f2 8c bc a1 62 77 bd f4 85 b6 bd d7 4c c3 bd
       -0.01720568 -0.060396794 -0.08912268 -0.095361404
000010 ed 09 d1 bd ac e7 19 3d d9 76 14 3e 89 6e 2c bd
       -0.10206971 0.037574455 0.14498462 -0.042097602
000020 a6 bf e3 bd 4d 39 fe 3c b2 b3 df 3d 10 cc 00 be
       -0.111205384 0.031033183 0.10922946 -0.12577844
000030 d3 e5 03 3a 56 9a 0b bd 52 a2 36 be 2e f7 0a 3e
       0.00050315 -0.034082733 -0.17835358 0.13570854
000040 a2 bd f3 bd 25 17 26 3e 3b 1d f0 3d d1 c8 d0 bd
       -0.11901404 0.16219766 0.11724325 -0.10194553
000050 1b 4d c5 3c 86 b7 aa bd 76 4b 69 bd 2d c2 ee bd
       0.024084618 -0.083357856 -0.05695673 -0.1165813
000060 c5 fd 03 3e a6 e3 af bd c5 76 3c 3e 02 fc 06 be
       0.12889774 -0.08588342 0.18404682 -0.13182071
000070 00 64 9f bc 1d ea b3 3d ea 25 c5 3d 34 ff 24 3e
       -0.019456863 0.08784888 0.09626372 0.16112977
000080 86 a9 23 3d 62 6f 23 3e 17 5d ca bd 98 06 50 ba
       0.039956592 0.15960458 -0.09881037 -0.0007935553
000090 e9 27 28 3e d9 4b 33 be 42 c1 a9 3d a1 f0 c9 bd
       0.16421475 -0.17509402 0.08288814 -0.098603494
0000a0 76 6c fa bd 51 35 d9 3c 04 72 34 be 71 cc fe 3d
       -0.122277185 0.026514681 -0.17621619 0.12441338
0000b0 4f 3c 20 3e d3 ad f4 3d db 34 78 bc 68 c5 b3 3d
       0.15648006 0.11947217 -0.0151493205 0.08777887
0000c0 0f f0 1c be c6 1c 88 bd 94 13 00 3c ee 6c a6 bd
       -0.1532595 -0.06646113 0.007817168 -0.081262454
0000d0 8a c1 74 3d b1 0a 0b 3e 22 19 2f 3e 0a 52 06 3d
       0.059754886 0.13578297 0.17099431 0.032793082
0000e0 3b a6 af bd 00 1c 4c bd cd 0c 13 be 83 89 17 3e
       -0.08576628 -0.04983139 -0.14360352 0.1479855
0000f0 a2 0e d2 bd 42 6b 1c bb de bf 38 3e ea 8b 17 bd
       -0.10256697 -0.0023867642 0.18041942 -0.036998667
000100 bd 82 2e 38 a4 bc 03 be a0 ac 50 3d 6c 2f 1c be
       4.1606592e-05 -0.1286493 0.050945878 -0.15252465
000110 09 7b 44 3e 57 8e 33 3d af 26 6a 3e fe e4 32 be
       0.19187559 0.043836918 0.22866319 -0.17470166
000120 25 97 03 bc 7f c1 d1 bd 20 09 04 be 30 71 f4 3c
       -0.008031641 -0.102419846 -0.12894106 0.029839128
000130 bf 01 97 bd 24 3e 09 be 02 b0 32 be c3 f2 36 be
       -0.0737338 -0.13402611 -0.17449954 -0.17866044
000140 55 3a 30 be 5a 5f e4 3d 69 ad e4 3c 5c ec d7 bd
       -0.17209752 0.11150999 0.02791472 -0.10543129
000150 9c 72 32 be 22 67 2c 3e b5 51 cc 3d 1c 0d bb bd
       -0.17426533 0.16836217 0.09976522 -0.0913336
000160 3c 24 cb 3d 5a a4 79 bc 03 8e 4c 3e 8d bf 78 bd
       0.099190205 -0.015236938 0.19976048 -0.060729552
000170 f7 f1 1b 3e 1a 31 3f 3e be 1e 31 bd 99 e7 ca 3d
       0.15229021 0.18671075 -0.04324221 0.09907455
000180 c9 25 a2 3d 4c 09 17 be eb 26 fe bc 62 19 11 be
       0.07917363 -0.1474964 -0.031024417 -0.14169839
000190 c6 2c b4 3d da f2 89 bd e4 f1 ae 3d 22 3a 07 3e
       0.08797602 -0.067357734 0.08542231 0.1320577
0001a0 97 90 55 3e 39 77 2b 3e cc bc da 3d dc b1 c4 3d
       0.20855938 0.16744699 0.106805414 0.096042365
0001b0 2e e8 08 be 59 7e 37 be 32 d6 1a 3e 44 50 a6 bd
       -0.1336982 -0.17919292 0.15120772 -0.08120778
0001c0 50 7d d6 3d 69 20 61 3d cc 4d 3f 3e 7d 60 b3 bd
       0.1047312 0.05496255 0.18682021 -0.08758638
0001d0 c7 72 f1 3c 7c 2a ee bd 4f 29 bc 3d e6 4c 35 be
       0.029473675 -0.11629197 0.091875665 -0.17705116
0001e0 b1 60 5b 3e e7 f8 51 3e 4e db 23 3d 82 8e 4f 3d
       0.21423604 0.20505105 0.040004067 0.050673015
0001f0 eb 87 02 be 4d e3 d1 3d 22 15 f7 bd 0b f9 ca 3c
       -0.12747161 0.10248432 -0.12064578 0.024776956
000200 22 84 e0 3a 29 6f dc 3c 4f 6d 03 be b3 a9 23 3e
       0.0017129222 0.026908474 -0.12834667 0.15982704
000210 ac 55 df 3c 47 4d a5 3b 9f 3f 1f bd 16 c3 27 bd
       0.027262531 0.0050446126 -0.038879033 -0.040957533
000220 56 81 21 be 9c b1 09 3e 81 1d 1e be 39 50 f6 3d
       -0.15771994 0.13446659 -0.15440942 0.1202702
000230 25 de 0b 3e 41 83 0c 3e 0c 20 f4 bd db ce 4b 3e
       0.1365896 0.13721944 -0.11920175 0.19903128
000240 f7 be f5 3d 92 91 4c bd 8b 51 f9 bd e2 af bf 3d
       0.11999314 -0.049943514 -0.12173756 0.09359719
000250 64 ef b9 3d 0d 11 8d bd e2 32 04 3e 68 d7 f3 3d
       0.09078863 -0.06888018 0.12910035 0.1190632
000260 86 a7 10 3e 02 47 80 3d 9a 39 b7 3b 81 76 b0 3d
       0.14126405 0.06263544 0.0055915834 0.08616353
000270 4b 2e 0e be 85 6d 31 3d 6f d8 b8 bd 9c 62 0f 3e
       -0.13884847 0.043317337 -0.090256564 0.1400246
000280 a3 d1 a6 3b 69 f1 44 3e e8 89 aa 3d 1e 2f 36 3e
       0.0050909086 0.19232716 0.08327085 0.17791411
000290 77 e7 48 bd fd 94 01 be 85 c5 f2 38 61 60 18 3e
       -0.049048867 -0.12654491 0.0001157625 0.14880516
0002a0 31 ca 1d bd 9c 42 46 3d 71 f4 6a bc af 02 26 bd
       -0.038522903 0.048403367 -0.014340506 -0.040529903
0002b0 19 ba f3 bd 8b 2c 2a 3e 4d 50 d4 3d c0 9a 17 be
       -0.1190073 0.16618554 0.10366879 -0.14805126
0002c0 f4 d3 e4 bd 30 dd 03 3b f4 f9 25 3c 18 f4 5d be
       -0.11173239 0.0020120852 0.010130394 -0.21675146
0002d0 0a 9b 2d bd c1 a9 2f 3e 66 4e 31 3e e0 2c d6 3d
       -0.042384185 0.171546 0.17315063 0.10457778
0002e0 84 16 6d bd 77 21 37 bd 16 cb 33 bd 4b bd d8 bd
       -0.0578828 -0.04470965 -0.04389485 -0.1058298
0002f0 23 d8 c2 bd c4 b4 e8 3d 73 df db bd 3f 05 bd 3d
       -0.09513881 0.11362603 -0.10735979 0.09229516
000300 30 d4 9d bc 13 23 05 be ee 40 bf bd dc 75 be 3c
       -0.019266218 -0.13001661 -0.09338556 0.02324956
000310 d0 7d 20 be ac 47 a5 3c bd 47 39 3d 2b ab 03 bd
       -0.15672994 0.020175777 0.04523443 -0.03214566
000320 b9 57 33 be c4 65 1f 3c 31 d8 b5 3c c4 65 07 3e
       -0.17513932 0.009728853 0.022197815 0.13222414
000330 4a 69 a0 3d ea 96 c9 bc 29 5e 17 3e cd 81 14 be
       0.07832582 -0.024608094 0.14782013 -0.1450264
000340 80 71 b1 bd 38 84 2d 3e 7e b9 d6 bd b0 4e b6 3d
       -0.086642265 0.16944969 -0.104845986 0.08901727
000350 eb 52 88 bb 56 32 d8 3c 0b eb ed bd ea fa 36 3d
       -0.004160275 0.02639119 -0.116170965 0.044672884
000360 06 4d 39 be 96 6a e7 bd 2e b8 10 be 0b a5 33 3d
       -0.18095788 -0.112996265 -0.14132759 0.04385857
000370 73 8f 16 3e e1 0f 0d be 3b 63 15 3e 7c 2c ab 3d
       0.14703159 -0.13775589 0.14588635 0.08358094
000380 3f 13 05 bd ae c9 da bd fd 31 1e be a9 a2 da 3d
       -0.032489058 -0.106829986 -0.15448757 0.10675556
000390 9a ed 89 bc 56 da 45 3e 29 bf 0a 3d 45 06 2b 3e
       -0.01683693 0.1932157 0.03387371 0.1670161
0003a0 37 26 96 bd e6 7b 07 3e e5 39 20 be 72 03 3c be
       -0.07331508 0.13230857 -0.15647085 -0.1836069
0003b0 f6 33 1b be 0d 78 40 be fd 9f 8b bd fa c6 46 3e
       -0.1515654 -0.18795796 -0.06817625 0.19411841
0003c0 44 07 36 3e a0 58 32 3e f4 57 db ba 24 f6 3e 3d
       0.17776209 0.1741662 -0.0016734586 0.046621457
0003d0 57 0e 17 3e 81 0a e7 bd 12 79 9c bb be 3e 39 3d
       0.14751564 -0.112813 -0.004775175 0.04522585
0003e0 7b ed 70 3c 97 47 c4 bd e6 d0 c3 bd cc 8f 27 be
       0.014705057 -0.09583967 -0.095613286 -0.16363448
0003f0 fa d3 12 3d 4d 4f 0f 3e 81 08 3a be 86 96 47 3d
       0.035846688 0.13995095 -0.18167306 0.048727535

nns.1.2.bias f4 [64]
000000 b0 93 d4 b4 24 f3 35 b6 76 8f df b6 51 c8 16 b6
       -3.9595534e-07 -2.7112628e-06 -6.662619e-06 -2.2468341e-06
000010 dd 8c 0d b7 db fe f5 34 2f 4c 6c b4 df cd 85 b6
       -8.437052e-06 4.5820238e-07 -2.2006928e-07 -3.9876754e-06
000020 c4 bb 3f b5 03 b3 9f 36 f3 00 41 b7 81 fc 99 35
       -7.142628e-07 4.759409e-06 -1.1503917e-05 1.1472877e-06
000030 65 1a 44 b6 15 88 93 b6 a5 03 4b 36 1c 50 3c b6
       -2.922164e-06 -4.3967834e-06 3.0251479e-06 -2.8060813e-06
000040 38 27 a3 b5 44 0c 18 b6 10 d1 28 36 62 ba 6b 35
       -1.215586e-06 -2.2656905e-06 2.5155641e-06 8.7815545e-07
000050 03 d7 94 b6 96 6f 18 35 2e 20 c4 b4 87 87 9d 36
       -4.4357744e-06 5.678679e-07 -3.653126e-07 4.694742e-06
000060 9e 62 76 35 7e 3b 71 b5 5d a4 57 34 f8 65 e6 b6
       9.178565e-07 -8.986607e-07 2.008323e-07 -6.866405e-06
000070 34 46 81 35 e6 cb d8 35 40 16 e8 36 66 93 98 b6
       9.631681e-07 1.6152596e-06 6.916729e-06 -4.5471124e-06
000080 6f 3c 0a b7 0f ca 42 b6 95 87 fc 35 10 66 38 36
       -8.239512e-06 -2.9025866e-06 1.8814923e-06 2.7477545e-06
000090 64 42 00 34 ee f3 3d 36 45 e0 1f 38 9c eb c8 b5
       1.1945082e-07 2.830518e-06 3.811742e-05 -1.4969733e-06
0000a0 71 63 a1 35 3f 6e 95 b4 2f 8c c8 b4 0c 5a 98 b6
       1.2024376e-06 -2.7833627e-07 -3.73549e-07 -4.540436e-06
0000b0 75 01 0c b6 3c 95 e8 b5 e7 ec 19 36 30 10 ab b5
       -2.0862474e-06 -1.732878e-06 2.2936672e-06 -1.2745204e-06
0000c0 83 27 7a 36 b3 49 36 b6 7d c8 00 36 c7 09 06 37
       3.7275902e-06 -2.7163012e-06 1.9190186e-06 7.989299e-06
0000d0 3e d7 3b b6 72 69 78 35 bc cb de b4 6d 27 24 b6
       -2.799046e-06 9.254064e-07 -4.149896e-07 -2.4460853e-06
0000e0 e8 b2 8e 36 2b a4 b4 34 46 9f c3 b5 e1 2d ae 35
       4.252757e-06 3.364706e-07 -1.4574987e-06 1.2977363e-06
0000f0 4e 71 24 b7 e9 ca d4 34 1f 21 4f b6 8a 58 f9 b4
       -9.801543e-06 3.9635714e-07 -3.0864683e-06 -4.6444285e-07
