weight/IMDB-BINARY/Client_2.pth (torch, 260953 bytes, 24 tensors)

bns.0.running_mean f4 [64]
0	0x412c288b	10.759898
1	0x3e9bce56	0.3043086
2	0xbfdd7734	-1.7302003
3	0x41019f72	8.101427
4	0x411511f0	9.316879
5	0x4115a7a6	9.35343
6	0xc0d1829b	-6.547193
7	0xc01f4a32	-2.4889035
8	0xc0aa6d0a	-5.3258104
9	0x40b6d603	5.7136245
10	0x404effde	3.234367
11	0x4179e51e	15.618437
12	0x3f0bbae4	0.5458205
13	0xc03b4ee1	-2.9266894
14	0xc1244fd8	-10.269493
15	0x40c2028a	6.06281
16	0x40bc57f3	5.885736
17	0x400bd970	2.1851463
18	0x40f2a74f	7.5829234
19	0x40a06471	5.012261
20	0x40ec70f5	7.3887887
21	0x404fe84a	3.2485528
22	0x4006c7df	2.1059492
23	0x3ec62fb5	0.38708273
24	0xbea44747	-0.3208563
25	0x414b5afa	12.709711
26	0xc10025ba	-8.009211
27	0x400dd02d	2.215831
28	0xc0a857d9	-5.2607236
29	0x3f3e905f	0.7443904
30	0x410bab68	8.729347
31	0xc0707c5a	-3.7575898
32	0x401a5674	2.4115267
33	0xc0545440	-3.3176422
34	0x404af44b	3.1711605
35	0x408aa65c	4.3328075
36	0xc08726f7	-4.2235065
37	0xc0dbecd2	-6.8726587
38	0x40641e8c	3.5643644
39	0x40073cf6	2.1130958
40	0xc0453cc1	-3.0818331
41	0x408d68f2	4.4190607
42	0x4096e2ec	4.7152004
43	0x403489fb	2.8209217
44	0x41054c23	8.331088
45	0xbf9b0d21	-1.2113382
46	0x40a24961	5.0714574
47	0xc06ddace	-3.7164798
48	0x4119b3b0	9.606369
49	0xc1223306	-10.137457
50	0x40deccd2	6.9625025
51	0x40ad941d	5.42433
52	0xbec66da6	-0.3875553
53	0xc0249167	-2.5713747
54	0xc07f2dd1	-3.9871714
55	0x3f7d7c52	0.9901782
56	0xc04bab85	-3.1823437
57	0x4119e2d7	9.617881
58	0x40fcbd06	7.898074
59	0x3fc11d3c	1.5087047
60	0xc0affbc5	-5.4994836
61	0xc0640d9d	-3.563331
62	0x409ac2fb	4.8363013
63	0xbfb9f04c	-1.4526458

bns.0.running_var f4 [64]
0	0x3ff26c03	1.8939213
1	0x3d730470	0.059330404
2	0x3e4da312	0.20081738
3	0x3fb18ac9	1.3870479
4	0x3f8e9c0b	1.114137
5	0x3faf6f1d	1.3705784
6	0x3f44178d	0.76598436
7	0x3e1d0302	0.15333179
8	0x3f508996	0.8145994
9	0x3efd3296	0.49452657
10	0x3e7e5d66	0.24840316
11	0x4080a9d5	4.0207314
12	0x3e4995a1	0.19685985
13	0x3ec587f0	0.38580275
14	0x4009373b	2.143996
15	0x3f139e48	0.57663393
16	0x3fa474e8	1.2848177
17	0x3de841ed	0.11340699
18	0x3f867f4d	1.0507599
19	0x3f2602d3	0.6484806
20	0x3f825f61	1.0185357
21	0x3e07ecbf	0.13273905
22	0x3d93a91e	0.07209991
23	0x3d86b2aa	0.06577046
24	0x3e78d485	0.2429982
25	0x406a11a5	3.657327
26	0x3fa2e146	1.2724998
27	0x3e7fea49	0.24991716
28	0x3ee4055a	0.44535333
29	0x3e6eb9b6	0.2331303
30	0x3fc21ed6	1.516566
31	0x3ea8a62b	0.32939276
32	0x3e12a303	0.14319997
33	0x3e68f29b	0.22748797
34	0x3e485987	0.19565402
35	0x3f434cb6	0.76288927
36	0x3ec1f46f	0.378818
37	0x3f6e84ca	0.9317137
38	0x3f318c55	0.69354755
39	0x3e527e15	0.20555909
40	0x3dfa8f6b	0.12234386
41	0x3e6a4ce7	0.22880898
42	0x3f3646ed	0.71201974
43	0x3e76f729	0.24117722
44	0x3fcc11ec	1.5942969
45	0x3cc8a078	0.02449058
46	0x3f8b8b5d	1.0901905
47	0x3eb3daad	0.35127774
48	0x3f965238	1.1743841
49	0x400c547d	2.1926568
50	0x3f416f0f	0.75560087
51	0x3eebc033	0.46045074
52	0x3d33fb09	0.043940578
53	0x3e81fbf1	0.2538753
54	0x3e97ff9e	0.29687208
55	0x3d2fe32f	0.04294127
56	0x3ee97ecd	0.45604554
57	0x3f9e144d	1.2349945
58	0x3fa90f38	1.3207769
59	0x3e533f84	0.20629698
60	0x3f6d4fc0	0.92699814
61	0x3e36131d	0.17780729
62	0x3f16c1d6	0.5888952
63	0x3ef65723	0.48113355

bns.1.running_mean f4 [64]
0	0x40338434	2.804944
1	0x400e5dbb	2.2244709
2	0xc12cd0dc	-10.800991
3	0x40af40e5	5.4766717
4	0x400144b2	2.0198178
5	0x418d8288	17.688736
6	0x40010054	2.015645
7	0xc1b85288	-23.040298
8	0xc1579bb6	-13.475515
9	0x410caca1	8.792146
10	0xc0f42694	-7.6297092
11	0xc001f64c	-2.0306578
12	0x40b4273c	5.6297894
13	0xc1182a01	-9.510255
14	0x40c70762	6.219651
15	0xc0cd16fe	-6.4090567
16	0x40fd0c2c	7.907736
17	0x411a4e36	9.644094
18	0xc03161fa	-2.771605
19	0xc159c3bf	-13.61029
20	0x4113de02	9.241701
21	0xc139dee4	-11.616917
22	0xc214ae8e	-37.170464
23	0x41529310	13.160904
24	0x4186d875	16.855692
25	0x418f936c	17.946983
26	0x412f5cb3	10.960132
27	0xc1f4a7d4	-30.581947
28	0xc099041b	-4.781751
29	0xc16d270e	-14.822035
30	0x401f5b40	2.4899445
31	0xc155d465	-13.364354
32	0xc19253f2	-18.290989
33	0x41ddc8ef	27.723112
34	0x414878d6	12.529501
35	0x3fe2ec1f	1.7728308
36	0xc175b044	-15.355534
37	0x4108e956	8.556967
38	0xc0d7edf0	-6.747795
39	0xc0d56095	-6.66804
40	0xc11bb9bb	-9.732844
41	0x4119ee9e	9.620756
42	0xc1638932	-14.220995
43	0xc13c4bba	-11.768488
44	0xc199bad4	-19.216225
45	0xbf23f1ea	-0.64041007
46	0xc164d59f	-14.302154
47	0x3ef821eb	0.48463377
48	0x40fe614f	7.9493785
49	0xbea1ea6b	-0.3162416
50	0x40d9c147	6.8048434
51	0x40ff3e81	7.97638
52	0xbe2f366e	-0.17110607
53	0xc1314ced	-11.081281
54	0x419b078f	19.37869
55	0x413685f1	11.407701
56	0x414b8a34	12.721241
57	0xc0f6c96b	-7.712087
58	0xc026417e	-2.5977473
59	0x418b4f08	17.41359
60	0xc17a0df8	-15.62841
61	0xc159ca5c	-13.611904
62	0xc057fd9c	-3.374854
63	0x4104ba1e	8.295439

bns.1.running_var f4 [64]
0	0x42313a6c	44.307053
1	0x42073829	33.804844
2	0x42141861	37.023808
3	0x4187ecf4	16.9907
4	0x40a34e95	5.1033425
5	0x43966739	300.80643
6	0x4209d3c6	34.45681
7	0x42f49ba5	122.30399
8	0x43a50ea8	330.1145
9	0x437f69fc	255.414
10	0x4152d726	13.177526
11	0x415aab18	13.666771
12	0x43137b50	147.48169
13	0x42bd799c	94.73752
14	0x42412158	48.282562
15	0x40c19e39	6.0505643
16	0x411d8959	9.846032
17	0x430dcb5f	141.79442
18	0x42e2d72b	113.42025
19	0x428b0a58	69.5202
20	0x42416bd2	48.355293
21	0x4369b661	233.71242
22	0x44117210	581.7822
23	0x42748182	61.126472
24	0x425615f5	53.521442
25	0x434a83e8	202.51526
26	0x42507f71	52.124454
27	0x43ddb228	443.39185
28	0x42ffaf95	127.84293
29	0x423f295f	47.7904
30	0x42c6ff7e	99.49901
31	0x431c43da	156.26505
32	0x424f1798	51.77304
33	0x43a033f8	320.406
34	0x433dfa81	189.97853
35	0x42b0e33b	88.44381
36	0x432fbf9b	175.74846
37	0x4186b59f	16.838682
38	0x4325b28c	165.69745
39	0x42ca1716	101.04509
40	0x426b41fe	58.814445
41	0x428e9093	71.28237
42	0x4332364e	178.21213
43	0x4200cd43	32.20045
44	0x4288543a	68.164505
45	0x42403253	48.049145
46	0x42375565	45.833393
47	0x41e40f31	28.507418
48	0x42afbfdd	87.87473
49	0x418d0f50	17.632477
50	0x415f23ce	13.946241
51	0x4273b0e3	60.92274
52	0x418a55f2	17.291965
53	0x41828a1f	16.317442
54	0x42cf186f	103.54772
55	0x419427b2	18.519382
56	0x4317c339	151.76259
57	0x4121e0e2	10.117403
58	0x41fb0367	31.376661
59	0x421dd43f	39.45727
60	0x431caa7b	156.66594
61	0x4320ec49	160.92299
62	0x429f4747	79.63921
63	0x42f441f0	122.128784

bns.2.running_mean f4 [64]
0	0xc1920a22	-18.254948
1	0x41491a7e	12.568968
2	0xc10ea667	-8.915626
3	0xc00b3584	-2.1751413
4	0xc0725541	-3.7864535
5	0x412c6057	10.77352
6	0x415b4fd7	13.706992
7	0xc0bb11c3	-5.845918
8	0x410e8a9f	8.908843
9	0x4083dc4f	4.120643
10	0xc0e8b1e4	-7.271715
11	0xbf28aeaf	-0.65891546
12	0x41a0e0bd	20.109735
13	0xbfab500d	-1.3383805
14	0x409e0a75	4.9387765
15	0x40d84178	6.757992
16	0xc11cc3e2	-9.797823
17	0x41434c85	12.206182
18	0x414035bb	12.013118
19	0xc1a68cd3	-20.818762
20	0xbe9b4afc	-0.30330646
21	0xc1441673	-12.255481
22	0x40cc9295	6.3928933
23	0x4179454e	15.57942
24	0x3f71cf97	0.9445738
25	0xc125db34	-10.366016
26	0xc137d9a3	-11.490634
27	0xc0aacc3d	-5.3374314
28	0x40bbb09b	5.8653083
29	0x40ec4818	7.3838005
30	0x4133eb70	11.24498
31	0x411de914	9.869404
32	0xc1415f56	-12.085775
33	0xc16f93c6	-14.9735775
34	0x406c92d3	3.6964614
35	0x418c7eda	17.56194
36	0xc18eaf76	-17.835674
37	0x41674e86	14.456671
38	0x419fb5f5	19.963846
39	0x418e824f	17.813627
40	0xbf63dc6f	-0.8900823
41	0x40b3e5dc	5.621809
42	0x41146422	9.2744465
43	0xbc6ae7df	-0.014337509
44	0x40e8cc39	7.2749295
45	0xbf693fab	-0.91112775
46	0x41a28491	20.31473
47	0xc16f22ef	-14.946029
48	0x407039d3	3.7535293
49	0x40eaf659	7.3425717
50	0x409435d6	4.631572
51	0xc132a463	-11.165133
52	0xc0fada18	-7.839123
53	0xc0b55442	-5.6665354
54	0xc027904a	-2.6181817
55	0xc192f7f8	-18.371078
56	0xc14012d4	-12.004597
57	0x417171cb	15.0902815
58	0xc140bcc6	-12.046087
59	0xc127ce3b	-10.487849
60	0xc09e17fb	-4.9404273
61	0x41761e14	15.382343
62	0x4078ee74	3.889554
63	0xc10927d8	-8.5722275

bns.2.running_var f4 [64]
0	0x42d11b4c	104.553314
1	0x42fd490f	126.64269
2	0x41ce6281	25.798098
3	0x424fa112	51.907295
4	0x411ea2d9	9.914758
5	0x42ec590c	118.17392
6	0x431d24cf	157.14378
7	0x41b8992f	23.074797
8	0x424f5de1	51.84168
9	0x41ead14c	29.352196
10	0x4200ad17	32.169033
11	0x41aace4a	21.350727
12	0x43038a3a	131.53995
13	0x42d937ce	108.60899
14	0x419e2c5b	19.771658
15	0x41d41090	26.508087
16	0x4313cfed	147.81221
17	0x43160fd0	150.06177
18	0x43356f03	181.43364
19	0x431ebf28	158.7467
20	0x422df7b2	43.49189
21	0x429e1d9e	79.057846
22	0x41b9d023	23.22663
23	0x42add692	86.91908
24	0x42a7e193	83.940575
25	0x42ae4302	87.130875
26	0x42e40482	114.008804
27	0x420e8730	35.63202
28	0x43073519	135.20741
29	0x421cb8fd	39.180653
30	0x42d368f0	105.704956
31	0x429058ef	72.1737
32	0x42580e80	54.01416
33	0x428a7a29	69.238594
34	0x42f256c6	121.16948
35	0x42ffc347	127.8814
36	0x436849d2	232.28836
37	0x42df8c51	111.774055
38	0x43383917	184.223
39	0x4300eefd	128.93355
40	0x4238d2e1	46.205936
41	0x421e89e0	39.634644
42	0x43138d18	147.55115
43	0x425cda58	55.213226
44	0x4291cf61	72.90504
45	0x40e3d134	7.1192875
46	0x43244ccd	164.3
47	0x43853dac	266.4818
48	0x425063db	52.097515
49	0x42adfb8c	86.9913
50	0x431d176e	157.09152
51	0x4254b672	53.17817
52	0x4289348f	68.60265
53	0x41ca1fd7	25.265547
54	0x42799d68	62.403717
55	0x42cf6e91	103.71595
56	0x4296eb38	75.45941
57	0x42bb45d0	93.63635
58	0x425c0722	55.006966
59	0x42ba85c5	93.26127
60	0x429a57b1	77.17127
61	0x43085cdb	136.36272
62	0x42992871	76.57899
63	0x42c0924d	96.28574

nns.0.0.weight f4 [64, 136]
0	0x39bd4898	0.00036102976
1	0xb263c934	-1.3258887e-08
2	0xab5412f4	-7.5343833e-13
3	0xb952a40c	-0.00020088273
4	0x3ced1d1d	0.028944546
5	0xbcbe9c4f	-0.023267893
6	0xbddc26f0	-0.10749614
7	0x3c519166	0.012791013
8	0xbd065b31	-0.03280181
9	0xbd7fa80b	-0.062416118
10	0x3db75477	0.08951657
11	0xbdacb172	-0.084322825
12	0xbb6ea933	-0.0036416769
13	0x3d4dfd67	0.05029049
14	0xbd9f9f97	-0.07794111
15	0x3c5904b4	0.01324575
16	0xbbc1c54d	-0.0059134127
17	0xb46c522b	-2.2009105e-07
18	0x38c80aa6	9.5387266e-05
19	0x35fbe0ae	1.8766348e-06
20	0xb21dc069	-9.182352e-09
21	0x2aa90bf3	3.0028722e-13
22	0xb1b9e0af	-5.409752e-09
23	0xb017e6af	-5.52613e-10
24	0x30a42915	1.1944247e-09
25	0x37025b1a	7.769815e-06
26	0xb883c3aa	-6.283012e-05
27	0xb2cae7e2	-2.3621343e-08
28	0xaf7929b5	-2.2661235e-10
29	0xb12834da	-2.447726e-09
30	0x324fdfbb	1.2099856e-08
31	0xba932d32	-0.0011228679
32	0xa9bdbe82	-8.426334e-14
33	0xb2cd5cbc	-2.3907312e-08
34	0xb65a9f86	-3.2577386e-06
35	0xb8523114	-5.011361e-05
36	0x2ccb72b3	5.782341e-12
37	0xaa43d933	-1.7394835e-13
38	0xb255bb02	-1.2440752e-08
39	0x3982516f	0.00024856205
40	0x39af85b8	0.0003347823
41	0x3894a0c3	7.087134e-05
42	0xb523ccd8	-6.102032e-07
43	0xaab947de	-3.291247e-13
44	0x2acd0013	3.6415367e-13
45	0xb75ef324	-1.3288842e-05
46	0xb56d9b2e	-8.8515196e-07
47	0x29eb7532	1.04564266e-13
48	0xab5d1887	-7.854901e-13
49	0x2f44997a	1.7880622e-10
50	0xb9af0d83	-0.00033388668
51	0xb28e432a	-1.6561518e-08
52	0x2b0aa65f	4.9258335e-13
53	0x3976fa20	0.00023553567
54	0xa92b4121	-3.8026118e-14
55	0x36669a4c	3.4362483e-06
56	0xaa9e970a	-2.8171242e-13
57	0xb28d5888	-1.645482e-08
58	0xac30f932	-2.5149435e-12
59	0xaf23ac4b	-1.4885974e-10
60	0x2b8561b8	9.477341e-13
61	0x35e558d1	1.7087679e-06
62	0xb0b40da1	-1.3100597e-09
63	0xb73138da	-1.0563259e-05
64	0x2b3f7888	6.80241e-13
65	0x36c2d925	5.8069295e-06
66	0xaa0f63c6	-1.2735567e-13
67	0x3289d355	1.6045002e-08
68	0x39534cec	0.00020151184
69	0x2c07f52e	1.9320756e-12
70	0xaba8ea79	-1.2002197e-12
71	0x2dcf3953	2.3558632e-11
72	0x384ab3db	4.8328056e-05
73	0x36b47263	5.3777344e-06
74	0x30f5620f	1.7853966e-09
75	0x2b01ddc5	4.6137774e-13
76	0x2bdb1bb1	1.5568572e-12
77	0x2dee324e	2.7079807e-11
78	0x2abda0d7	3.368475e-13
79	0xb77a221c	-1.4909103e-05
80	0x2ca2f3b7	4.6313747e-12
81	0xac70ca2b	-3.4218277e-12
82	0x29b03bd5	7.826349e-14
83	0xb9655169	-0.0002186947
84	0x299e6d07	7.035523e-14
85	0x39c2b60a	0.00037138193
86	0xabb0d8ca	-1.2565723e-12
87	0x3382ccf7	6.0908796e-08
88	0xae4d748a	-4.671511e-11
89	0x2c37195b	2.601994e-12
90	0xac5e78b0	-3.1615092e-12
91	0x2a804fbb	2.2792692e-13
92	0x2b00689b	4.5619904e-13
93	0xad0abc47	-7.886198e-12
94	0xb2264d78	-9.680086e-09
95	0x2ab540aa	3.2196929e-13
96	0xb6529bb7	-3.1383076e-06
97	0xb71f5ee9	-9.4992365e-06
98	0x328c4b08	1.6332265e-08
99	0xb80cae78	-3.3541088e-05
100	0x2be7c9d8	1.646956e-12
101	0xb9138c1e	-0.0001407121
102	0xacbf7890	-5.4419316e-12
103	0x2aeb76ef	4.1826912e-13
104	0x2966ac0f	5.1219496e-14
105	0x3535bcf0	6.7702695e-07
106	0xb4c9ef45	-3.761326e-07
107	0xaaa29490	-2.8880067e-13
108	0xa84e7cf4	-1.1462392e-14
109	0xb2773684	-1.4389688e-08
110	0x35db8d3c	1.6357876e-06
111	0x2da4fe91	1.8757692e-11
112	0xb8abb890	-8.188293e-05
113	0xad8e8ad4	-1.6205183e-11
114	0xa9ef7c98	-1.0635346e-13
115	0x3551d70f	7.817152e-07
116	0x3618cf18	2.277031e-06
117	0xaaccdb70	-3.6389945e-13
118	0xae85f3f0	-6.091472e-11
119	0xaa4e1b41	-1.8305931e-13
120	0xac351c67	-2.5737414e-12
121	0x309c9006	1.1391428e-09
122	0xa97adeff	-5.570457e-14
123	0xb6e11aeb	-6.708656e-06
124	0x2a3905c1	1.6433297e-13
125	0xab0ca0a4	-4.9960925e-13
126	0x2a81e6ae	2.307507e-13
127	0x397c9852	0.00024089337
128	0x2f3ac983	1.6988193e-10
129	0xa78b1527	-3.8603184e-15
130	0xaa956fa7	-2.654519e-13
131	0xab4ada27	-7.2067564e-13
132	0xb25dcf9e	-1.29111e-08
133	0x29b1d93b	7.8980625e-14
134	0xab10858a	-5.13444e-13
135	0x2a354fdf	1.610374e-13
136	0xb7a4f2c5	-1.9663372e-05
137	0xacb5a2d8	-5.1624087e-12
138	0x35513198	7.7930736e-07
139	0x3dbc924d	0.09207592
140	0xbdf49b89	-0.119437285
141	0x3d02d1ac	0.03193824
142	0x3bd14a25	0.0063870125
143	0x3e2729c9	0.16324534
144	0xbd6728a4	-0.056435242
145	0x3dbdf9df	0.09276175
146	0xbd84f602	-0.06492235
147	0xbda84924	-0.082170755
148	0xbde8211f	-0.11334442
149	0x3dda2c8b	0.10653027
150	0x3e000e72	0.1250551
151	0x3bcab8fb	0.006186602
152	0xbd405cf7	-0.04696366
153	0x3cb899c0	0.022534251
154	0xbcc559f1	-0.024090739
155	0xbe0565af	-0.1302707
156	0xbceeec0b	-0.029165288
157	0xad3c3687	-1.069867e-11
158	0xbd165d9b	-0.036710363
159	0x3ab4c837	0.0013792579
160	0x2b015494	4.594738e-13
161	0x2d9f7216	1.8126872e-11
162	0x3d9a2a86	0.07527642
163	0x3b878685	0.004135909
164	0x2caacfd5	4.8547646e-12
165	0x3b9f3a67	0.004859257
166	0xba4dd5a0	-0.0007851962
167	0x3d35a92b	0.044350784
168	0xaa03f653	-1.1720598e-13
169	0x3db576c5	0.08860544
170	0xbd97b56a	-0.07407649
171	0xbd98c1aa	-0.074588135
172	0x38937c43	7.032652e-05
173	0x3173c862	3.5475058e-09
174	0x370182de	7.719469e-06
175	0x3284902f	1.543239e-08
176	0x2a573d99	1.9117207e-13
177	0x2b45452b	7.008445e-13
178	0xacce475a	-5.8627938e-12
179	0xabb253c0	-1.2670906e-12
180	0x2f737d6e	2.2145283e-10
181	0xac01bfb5	-1.8438421e-12
182	0xaf5501b0	-1.9372837e-10
183	0xaf7019c8	-2.1837032e-10
184	0x33c02592	8.947531e-08
185	0xb260d0f8	-1.308603e-08
186	0xaab83dde	-3.2727895e-13
187	0xae876d7f	-6.1585397e-11
188	0x3989204e	0.00026154745
189	0xab965533	-1.0681789e-12
190	0x2c6a4ebb	3.3297104e-12
191	0x3039d846	6.760995e-10
192	0x2cd59fb5	6.071555e-12
193	0x39a68f54	0.00031768775
194	0xb04175c8	-7.038037e-10
195	0xac82d148	-3.718057e-12
196	0x2b45f81b	7.0332775e-13
197	0x2a99e7dd	2.7339147e-13
198	0xb880c50c	-6.1402185e-05
199	0xb594d893	-1.1089891e-06
200	0xab294ab6	-6.0144543e-13
201	0x38b0aab3	8.424129e-05
202	0x389796a0	7.228297e-05
203	0xaf2ddd48	-1.5812873e-10
204	0xae8643e8	-6.105677e-11
205	0xb928da2b	-0.00016103002
206	0x3034cbef	6.5773426e-10
207	0xaf739d74	-2.215666e-10
208	0xb7a3fb38	-1.9548097e-05
209	0x2f76ec6a	2.2457561e-10
210	0x35d754b2	1.6043398e-06
211	0xb6d3317a	-6.29405e-06
212	0xb6ce4d7e	-6.1482997e-06
213	0x29aabda7	7.582416e-14
214	0x36abba07	5.1178536e-06
215	0x2a744491	2.1695342e-13
216	0xabb45c83	-1.2815446e-12
217	0xb545684e	-7.354e-07
218	0x29e21f77	1.00418744e-13
219	0xabc8962b	-1.4252535e-12
220	0xab6bcf56	-8.377651e-13
221	0xab90174a	-1.0238279e-12
222	0xab172436	-5.369623e-13
223	0x2e795644	5.6692664e-11
224	0x3223d153	9.5354435e-09
225	0x37b40cce	2.1463635e-05
226	0x3876679e	5.874747e-05
227	0x2c60c43f	3.1941253e-12
228	0x2c352c51	2.5746248e-12
229	0xb7ee7c23	-2.8429617e-05
230	0xb7c82178	-2.3857443e-05
231	0x2b83e9a7	9.372961e-13
232	0xb755c887	-1.2742478e-05
233	0xab2192cb	-5.7402406e-13
234	0x348bd1f8	2.604354e-07
235	0x37d25e58	2.5077883e-05
236	0xada22997	-1.8435737e-11
237	0x2b4a1880	7.1798817e-13
238	0x391a6e17	0.00014727596
239	0x2d8a6336	1.5732842e-11
240	0xb684f285	-3.9621395e-06
241	0xb098dac9	-1.1121638e-09
242	0x399ca61c	0.000298784
243	0xb8ef40b6	-0.000114084614
244	0xab256371	-5.875778e-13
245	0x29c19318	8.5964384e-14
246	0xaf12d866	-1.3355503e-10
247	0x2f727acf	2.2053402e-10
248	0x2819e720	8.543323e-15
249	0xb1457033	-2.873105e-09
250	0x3110263d	2.0976494e-09
251	0xacaa1ef5	-4.8351275e-12
252	0xb9739545	-0.00023229893
253	0xab91bd99	-1.0355494e-12
254	0x3102fb59	1.9060364e-09
255	0x2acd62df	3.648392e-13

nns.0.0.bias f4 [64]
0	0xbcd3eced	-0.025869811
1	0x3667ec2b	3.455915e-06
2	0xbcc053b9	-0.023477422
3	0x3d71ceb3	0.059035014
4	0xbc0e54e7	-0.0086872345
5	0xbd7f0c59	-0.062267635
6	0x3d246eee	0.040144853
7	0x3c1519c8	0.009100385
8	0x3b8920e1	0.0041848277
9	0xbd850f2b	-0.06497034
10	0xb1504e32	-3.0312433e-09
11	0x3d0b9ab7	0.034083094
12	0x36955377	4.4502626e-06
13	0x3be00fff	0.0068378444
14	0xbd45ccdb	-0.04829107
15	0xbd82f55a	-0.06394453
16	0xbd445530	-0.047932804
17	0x3b92cd1d	0.004480018
18	0xbd447503	-0.047963154
19	0x3c315f30	0.010825917
20	0xbb384c74	-0.0028121741
21	0x3c4c78b7	0.012479953
22	0xbbdef713	-0.006804356
23	0x3c0b80d9	0.008514606
24	0xb9c1c435	-0.00036958014
25	0x35e06410	1.6718423e-06
26	0xbd076249	-0.033052716
27	0x3d73423e	0.059389345
28	0x3d3a83c1	0.045535807
29	0x3d687ae1	0.05675781
30	0xb9c9f708	-0.0003852176
31	0xba6fc7e3	-0.0009146912
32	0xbd12d222	-0.03584493
33	0xbcbbc5ed	-0.022921527
34	0x3d5fb25c	0.054613456
35	0x35d1feee	1.5645908e-06
36	0x3dc2a740	0.09504557
37	0xbcb98e9d	-0.022651011
38	0xbbf88b7f	-0.0075849886
39	0xbb5f9efb	-0.003412186
40	0xbc1e2c3c	-0.009654101
41	0xbc29a1c3	-0.010353508
42	0xbd1dffdc	-0.038574085
43	0x3c996f42	0.01872981
44	0xbc852a19	-0.016255425
45	0xb74508ce	-1.1744165e-05
46	0xbc4ae005	-0.012382512
47	0x3aac407a	0.0013141774
48	0x3d2357f3	0.039878797
49	0x3cb67e35	0.022276977
50	0x3d9fbf6e	0.07800184
51	0xbd4a9160	-0.049455047
52	0xbd2bb89b	-0.0419241
53	0xb8ef41b5	-0.00011408647
54	0xbd43ed65	-0.04783382
55	0xbc95f9e7	-0.01830764
56	0xb1086f4e	-1.9853874e-09
57	0x36b35a84	5.345153e-06
58	0x3c229d66	0.009925222
59	0xb5091abc	-5.107538e-07
60	0x3b476b99	0.0030429123
61	0xb5c97c39	-1.501182e-06
62	0xbb929ad7	-0.0044740248
63	0x3c78f9b7	0.015196255

nns.0.2.weight f4 [64, 64]
0	0xbccb1fca	-0.024795432
1	0xbe2d7871	-0.16940476
2	0xbcc35333	-0.023843383
3	0xbdcd2e76	-0.10018627
4	0x3da022bc	0.07819125
5	0xbe149f58	-0.1451391
6	0xbd86e77e	-0.065871224
7	0x3d80f402	0.06296541
8	0xbcff1079	-0.031135784
9	0xbdc04ac3	-0.0938926
10	0xbbc51bb6	-0.0060152663
11	0xbd6b1d2c	-0.057400867
12	0x3e5d8011	0.21630885
13	0x3b23d4da	0.0024998696
14	0xbc9ef89f	-0.019405661
15	0xbdf276ca	-0.118390635
16	0x3e3c10ed	0.18365832
17	0xbb30cb19	-0.0026976524
18	0xbd113045	-0.035446424
19	0x3df0876e	0.11744581
20	0x3d085051	0.03327972
21	0x3c79ec6d	0.015254122
22	0xbe41970d	-0.18905278
23	0xbe31fe4d	-0.17382164
24	0x3e159201	0.14606477
25	0x3c8bb3da	0.017053533
26	0x3e0906c9	0.13381495
27	0xbdd38927	-0.10328894
28	0xbdd500d8	-0.104005516
29	0x3d65d4a8	0.056111008
30	0x3e1b466d	0.15163584
31	0xbc8daedb	-0.017295292
32	0x3e3a0d17	0.18169056
33	0xbe1894f6	-0.14900574
34	0xbd2475df	-0.040151473
35	0xbd40fc26	-0.047115467
36	0x3c082949	0.008310624
37	0x3de01d71	0.109431155
38	0xbc7dfbd1	-0.015501932
39	0x3df36b0a	0.118856505
40	0x3db5cd04	0.08876994
41	0x3e2705d1	0.16310813
42	0xbdb3342e	-0.08750187
43	0xbc590902	-0.013246777
44	0xbdbf8d84	-0.09353164
45	0x3e10300c	0.14080828
46	0x3d8be890	0.06831467
47	0x3c010784	0.007875327
48	0xbe0da4bb	-0.13832371
49	0x3e29e938	0.16592872
50	0x3d9202cf	0.07129442
51	0x3e3dfdce	0.1855385
52	0xbda0a834	-0.07844582
53	0x3d235d53	0.039883923
54	0x3de2ecda	0.11080332
55	0xbca558b8	-0.020183906
56	0xba1f9fad	-0.0006089162
57	0x3d038de0	0.032117724
58	0x3a93ee33	0.0011286199
59	0x3db4932b	0.088171326
60	0xbccc4e8b	-0.024939796
61	0x3c37ecb7	0.011225871
62	0xbd5a2c30	-0.053264797
63	0xbdd1633c	-0.102240056
64	0x3de173ee	0.1100844
65	0x3e039517	0.12849842
66	0x3e486753	0.19570665
67	0xbd9ddbba	-0.07707925
68	0xbe0113c0	-0.1260519
69	0x3de97f2f	0.114012115
70	0x3e0296a8	0.12752783
71	0x3dbb3a48	0.09141976
72	0xbe0f0af3	-0.1396902
73	0x3d53cd8f	0.051709708
74	0x3bde2a43	0.0067799403
75	0x386d2cc2	5.6546887e-05
76	0xbc8d9726	-0.017283987
77	0xbd07394a	-0.03301362
78	0xbc8fdd79	-0.017561661
79	0xbd3a591a	-0.04549513
80	0xbc220846	-0.009889668
81	0xbd21b7ec	-0.039482042
82	0xbdb2f5a3	-0.08738258
83	0x3d913161	0.070894964
84	0xbd2d5182	-0.04231406
85	0x3dc0fa2f	0.09422719
86	0xbd63ed4f	-0.055646237
87	0x3dd64559	0.10462446
88	0x3d35ba3e	0.044367068
89	0x3e22d02e	0.15899727
90	0x3e160e86	0.14653978
91	0xbde56cdf	-0.11202406
92	0x3d4155d5	0.047200996
93	0xbde9e067	-0.114197545
94	0xbe1be515	-0.15224107
95	0xbd532fa6	-0.051559113
96	0x3d609d3b	0.054837447
97	0xbd22347d	-0.039600838
98	0x3e4567f4	0.19277936
99	0xbcb735df	-0.022364555
100	0xbdc6d148	-0.09707886
101	0x3d6ab75f	0.057303783
102	0x3d0d5d36	0.03451272
103	0xbe46aee2	-0.1940265
104	0x3e15c9b7	0.1462773
105	0x3e2fa316	0.17152056
106	0x3ccf9e09	0.025343912
107	0xbdec9df8	-0.11553568
108	0x3c182f03	0.009288552
109	0x3d53a057	0.051666584
110	0xbd160fbc	-0.0366361
111	0xbad1e4ae	-0.0016013586
112	0xbe01d5e7	-0.12679254
113	0x3d6a1062	0.05714453
114	0xbe569ee1	-0.20959045
115	0xbd50488d	-0.05085044
116	0xbe4c7494	-0.19966346
117	0xbe2f761d	-0.171349
118	0xbe02cf42	-0.12774375
119	0x3d5928d2	0.053017445
120	0x3cc905c0	0.024538875
121	0xbc8f472c	-0.017489992
122	0xbd8d2c70	-0.068932414
123	0x3d304b23	0.043040406
124	0x3e20f880	0.15719795
125	0x3e1f4d70	0.15556884
126	0x3db3d804	0.08781436
127	0xbce460e9	-0.027878242
128	0xbca9227b	-0.020646324
129	0x3e1bc443	0.15211587
130	0x3e13a8f5	0.1441992
131	0xbd1bd70d	-0.038046885
132	0xbc6d925a	-0.014500225
133	0x3c6b9222	0.0143781025
134	0x3e22971a	0.15877953
135	0xbe3c7c58	-0.18406808
136	0xbda0d755	-0.07853571
137	0x3dacec22	0.08443476
138	0xb95e3a0e	-0.00021193197
139	0x38c9f7b5	9.630566e-05
140	0xbe0aa5e3	-0.13539843
141	0x3bfc6cdd	0.007703407
142	0x3c59bc1a	0.013289476
143	0x3e13c0ae	0.1442897
144	0x3c982d0e	0.018576171
145	0x3cb94505	0.022615919
146	0xbe3610cb	-0.17779844
147	0x3df1b129	0.11801369
148	0xbca6a828	-0.020343855
149	0x3c9a1693	0.018809592
150	0x3de7ed44	0.11324552
151	0xbcc2fcb0	-0.023802131
152	0xbbffd5d7	-0.007807474
153	0xbde68378	-0.112555444
154	0x3d2aba0a	0.041681327
155	0x3e1a6874	0.15078908
156	0xbdbe6ce3	-0.09298112
157	0xbd99bbd1	-0.07506526
158	0xbd255fd8	-0.040374607
159	0x3df95129	0.12173683
160	0xbde8aebe	-0.113614544
161	0x3d719295	0.058977682
162	0x3dc6b977	0.09703343
163	0xbe104a12	-0.14090756
164	0x3da8f886	0.08250527
165	0xbdff5619	-0.12467594
166	0xbdfb775e	-0.12278627
167	0x3de2357d	0.11045358
168	0xbdc3d28d	-0.09561644
169	0xbce90756	-0.02844588
170	0x3dcc530a	0.09976776
171	0xbe47fe95	-0.19530709
172	0x3e42c92e	0.19022056
173	0x3d464f94	0.048415735
174	0xbd98c531	-0.07459486
175	0x3ce9a324	0.028520174
176	0xbdbaaaf3	-0.09114637
177	0x3c6a7137	0.014309219
178	0x3e745cc6	0.23863515
179	0xbe29c75e	-0.16579959
180	0x3d036828	0.032081753
181	0xbdbd1662	-0.09232785
182	0xbd82431a	-0.06360455
183	0xbd96541c	-0.07340261
184	0x37cbf4b1	2.431343e-05
185	0x3dbd38fd	0.09239385
186	0x3cc940fc	0.02456712
187	0x3925d83c	0.0001581618
188	0xbcc2b167	-0.023766233
189	0xbe0aa4fa	-0.13539496
190	0x3dfc4fc0	0.123198986
191	0x3b4ec245	0.00315489
192	0xbb1cb01f	-0.0023908687
193	0xbc707f9e	-0.014678864
194	0x3e113425	0.14180048
195	0xbde20c84	-0.110375434
196	0x3d87386c	0.066025585
197	0xbd7bbcf7	-0.061459508
198	0xbe4100fe	-0.18848035
199	0xbd8ee9c5	-0.06978182
200	0x3d84b23a	0.064793065
201	0x3e14c65f	0.14528798
202	0xbad29cde	-0.0016068479
203	0x3cfd4345	0.030915866
204	0x3d0b5359	0.034015033
205	0xbc85bb37	-0.016324623
206	0x3abbfeda	0.001434292
207	0xbe3be7b3	-0.18350105
208	0x3c891cfe	0.016737457
209	0xbc880037	-0.016601665
210	0x3c3299b4	0.0109009035
211	0x3dc70379	0.09717459
212	0x3cf2907f	0.029609917
213	0x3dd5440e	0.10413371
214	0x3e24b74f	0.16085552
215	0xbcbe1c1a	-0.02320676
216	0x3d50ac81	0.050945763
217	0x3e06e7cd	0.13174362
218	0x3e0edc6d	0.13951273
219	0xbd627b59	-0.055293415
220	0x3e42b9a0	0.19016123
221	0x3db4470f	0.08802616
222	0x3e235c6f	0.1595323
223	0x3c3ce31f	0.011528759
224	0xbd95134a	-0.0727907
225	0x3c82ecb8	0.015982017
226	0xbddddafb	-0.10832783
227	0x3dc815b7	0.09769767
228	0xbad30998	-0.0016100882
229	0x3dbeac5f	0.09310221
230	0x3d12123e	0.03566193
231	0xbd6b80b9	-0.057495806
232	0xbdb891bc	-0.090121716
233	0xbe2085f1	-0.15676095
234	0x3d2ae59a	0.04172287
235	0xbd67269a	-0.056433298
236	0x3d09ffea	0.033691324
237	0x3da807bb	0.082045995
238	0xbb09ac16	-0.0021007112
239	0xbd0cc12a	-0.034363903
240	0x3d9e069e	0.07716106
241	0x3da3e569	0.08002741
242	0x3c65d2be	0.014027296
243	0x3db34b7c	0.08754632
244	0xbe1b1802	-0.15145877
245	0x3b77af58	0.0037793722
246	0x3d0955c1	0.033529047
247	0x3dd337da	0.10313387
248	0xbc4e6b0a	-0.012598762
249	0x3d934c73	0.07192316
250	0x3c2ae256	0.010429939
251	0xbd812fbe	-0.06307934
252	0x3c813656	0.01577298
253	0x3dd6eae3	0.1049402
254	0xbcf80eff	-0.030280588
255	0xbddc6e50	-0.10763228

nns.0.2.bias f4 [64]
0	0x3559c5dd	8.112673e-07
1	0xb665322f	-3.415287e-06
2	0xb73808b8	-1.0969285e-05
3	0x368f9c2e	4.279914e-06
4	0x366a0a51	3.4874722e-06
5	0xb68c6b82	-4.1848407e-06
6	0x3503c88b	4.909313e-07
7	0x348cb40e	2.620804e-07
8	0xb3bcb161	-8.786697e-08
9	0xb6158315	-2.227903e-06
10	0xb6cf1cca	-6.172432e-06
11	0x362fa76d	2.6174487e-06
12	0x35f8ec2a	1.8546173e-06
13	0xb651f411	-3.1285492e-06
14	0x36e196e5	6.723089e-06
15	0x3720ae8b	9.577382e-06
16	0xb493d3e6	-2.753506e-07
17	0xb671c994	-3.6029132e-06
18	0x368c68f4	4.1845433e-06
19	0x374a22a7	1.2048206e-05
20	0xb50429a5	-4.923443e-07
21	0xb72345a5	-9.7317725e-06
22	0x35b01b6d	1.3121004e-06
23	0xb4bc4139	-3.5065185e-07
24	0xb69d4c83	-4.6878718e-06
25	0xb5871565	-1.006451e-06
26	0x37acc58a	2.0595984e-05
27	0xb5c36e50	-1.4560737e-06
28	0x3672bfc3	3.617243e-06
29	0x341623cc	1.3982861e-07
30	0x3617c72e	2.2616691e-06
31	0x365b7d88	3.2706612e-06
32	0xb5f5c065	-1.8309917e-06
33	0xb5000e21	-4.7704276e-07
34	0x3712e589	8.755721e-06
35	0xb746b9ea	-1.1845006e-05
36	0xb75c353b	-1.31254155e-05
37	0x349bfc16	2.9054416e-07
38	0xb4a368ab	-3.0437272e-07
39	0x3747a850	1.1900513e-05
40	0xb76d3f6e	-1.4141069e-05
41	0x36c27c4c	5.7961206e-06
42	0xb6d19d91	-6.2470285e-06
43	0x3700eb35	7.684158e-06
44	0x35f93745	1.8568031e-06
45	0xb6c33703	-5.817857e-06
46	0xb619106a	-2.280833e-06
47	0xb6543c92	-3.1625718e-06
48	0xb72dcd70	-1.0359436e-05
49	0xb666b0b8	-3.4375535e-06
50	0xb545fb59	-7.375398e-07
51	0x377cbfa2	1.50649885e-05
52	0xb60c527a	-2.0909633e-06
53	0xb452f064	-1.9645228e-07
54	0x35ec524a	1.760732e-06
55	0x355dfcd4	8.269683e-07
56	0xb6e562cd	-6.8362338e-06
57	0xb55e0a03	-8.2716014e-07
58	0x36111a4f	2.1621997e-06
59	0xb5945ca1	-1.1053818e-06
60	0x3739d7ff	1.107715e-05
61	0xb69d8699	-4.694634e-06
62	0x36395154	2.7614487e-06
63	0xb5f4be67	-1.8234831e-06

nns.1.0.weight f4 [64, 64]
0	0x3e3423a0	0.17591715
1	0xbe513e18	-0.20433843
2	0x3cab7bf9	0.020933138
3	0xbe25a375	-0.16175635
4	0x3e2a9562	0.16658548
5	0x3e222f10	0.15838265
6	0xbe3286f4	-0.17434293
7	0xbe40aa22	-0.188149
8	0xbd2d61f3	-0.04232974
9	0xbc49c2b7	-0.01231449
10	0x3d9b6d53	0.07589211
11	0xbe0c830a	-0.13721862
12	0x3e2e7f2d	0.17040701
13	0x3d9f36a7	0.07774096
14	0x3e1797c5	0.14803989
15	0xbd1caf1c	-0.038252935
16	0xbe440b81	-0.19145013
17	0x3d9bd7f9	0.07609553
18	0xbe466aba	-0.1937665
19	0xbd634004	-0.055480972
20	0xbe14adbf	-0.14519404
21	0xbdd1468a	-0.102185324
22	0xbe28e42a	-0.16493288
23	0x3d4a5246	0.04939487
24	0xbe40f7b9	-0.18844499
25	0xbe29126d	-0.16510935
26	0x3ce32fb4	0.027732708
27	0xbc9764e1	-0.01848072
28	0x3ddc46ea	0.10755713
29	0x3d2fb626	0.04289832
30	0x3bce09eb	0.0062878034
31	0xbdd31f9e	-0.10308765
32	0x3e2cf464	0.16890103
33	0x3e389a75	0.1802767
34	0x3e004559	0.12526454
35	0x3a6e76ee	0.00090967014
36	0x3e0473c1	0.12934782
37	0xbe241c61	-0.1602645
38	0xbda30b64	-0.07961157
39	0xbcac56a7	-0.021037413
40	0xbe408ca2	-0.18803647
41	0x3d834212	0.06409086
42	0xbe1c666c	-0.15273446
43	0x3e24c938	0.16092384
44	0xbda34b0b	-0.07973298
45	0x3e050ce7	0.12993203
46	0xba613092	-0.00085903064
47	0x3d0a9f6c	0.033843443
48	0x3c28ccc9	0.010302731
49	0x3e3a82cd	0.18213959
50	0xbd16108f	-0.036636885
51	0xbe624ce5	-0.22099645
52	0xbd3786c0	-0.044806242
53	0x3e37083f	0.1787424
54	0xbdd8f363	-0.10593297
55	0xbe3205c8	-0.17385018
56	0xbc89b192	-0.016808305
57	0xbe19e896	-0.1503013
58	0xbdd164d5	-0.1022431
59	0xbd3cd117	-0.04609784
60	0x3e2e37ee	0.17013523
61	0x3dc97f87	0.09838777
62	0xbd9aedfb	-0.075649224
63	0x3e170329	0.14747299
64	0x3ae54250	0.0017491076
65	0xbe124129	-0.14282669
66	0x3cde8ad6	0.027165812
67	0x3e1cdeac	0.15319318
68	0x3d1246b9	0.035711978
69	0x3e1a75ba	0.15083972
70	0xbe4b4045	-0.19848736
71	0x3cddec33	0.027090168
72	0xbda47bc7	-0.08031421
73	0xbe02c98c	-0.12772197
74	0x3bb05c67	0.005382109
75	0xbe31f6ff	-0.17379378
76	0xbcdc5d53	-0.02689997
77	0x3d976668	0.07392579
78	0x3dc9e0e4	0.098573476
79	0x3d074fd9	0.033035133
80	0xbcec75b2	-0.028864715
81	0x3da1b061	0.0789497
82	0x3e4ed00b	0.2019655
83	0x3db42930	0.087969184
84	0xbc834f09	-0.016028898
85	0x3dd1b988	0.102404654
86	0x3e31f3c2	0.17378142
87	0x3e0fbea1	0.14037563
88	0xbe2d412b	-0.16919391
89	0x3e2246e7	0.1584736
90	0xbdba50d1	-0.09097446
91	0x3e3324c3	0.17494492
92	0x3e2e00ed	0.1699254
93	0x3cd0b90e	0.025478866
94	0xbb96ab56	-0.0045980616
95	0xbe07df29	-0.13268723
96	0xbc4daf99	-0.012554073
97	0xbdc849a8	-0.09779674
98	0xbe21da87	-0.15806018
99	0xbbecdc23	-0.007228391
100	0xbe1fc0e7	-0.1560093
101	0x3e095ace	0.13413545
102	0xbd48ef3b	-0.049056273
103	0xbe62408f	-0.2209494
104	0xbd70aef4	-0.0587606
105	0x3e342f32	0.17596129
106	0xbe1b89ac	-0.15189236
107	0x3e4f4488	0.20240986
108	0x3e0c4d29	0.1370131
109	0x38a89cfa	8.0401034e-05
110	0x3d7c4544	0.061589494
111	0xbd51fe1f	-0.05126774
112	0xbd913247	-0.07089668
113	0xbdcedc06	-0.1010056
114	0xbe3965ba	-0.18105212
115	0x3d94702c	0.072479576
116	0xbdc53f8e	-0.09631263
117	0x3d201f45	0.03909232
118	0xbe13a2f4	-0.1441763
119	0x3c8da079	0.017288433
120	0x3c9ac209	0.018891351
121	0x3cb201a1	0.021729292
122	0x3e259c51	0.16172911
123	0xbc9291f4	-0.017891861
124	0x3d2cab03	0.042155277
125	0x3df76065	0.12078933
126	0x3e2f8372	0.17139986
127	0x3d3c756d	0.046010423
128	0x3de0b2dc	0.10971615
129	0x3e37dce5	0.17955358
130	0xbe637f2f	-0.22216485
131	0xbcb007d4	-0.021488108
132	0xbe11f53f	-0.1425371
133	0xbe2ea049	-0.17053331
134	0xbe2916ba	-0.16512576
135	0xbce60712	-0.028079543
136	0x3db3bc3f	0.087761395
137	0x3e35b4f3	0.17744808
138	0x3d8b5546	0.06803374
139	0x3e48192b	0.19540851
140	0xbdbddf04	-0.092710525
141	0x3d6905f6	0.05689045
142	0xbe5f3681	-0.21798135
143	0x3dc2beb6	0.095090315
144	0xbd9dd6d2	-0.07706989
145	0xbe17bfc3	-0.14819245
146	0x3dec58d1	0.11540378
147	0x3e0b073e	0.13576981
148	0x3e28cce5	0.16484411
149	0xbc82f182	-0.0159843
150	0xbe2b42b3	-0.16724662
151	0x3ce49fed	0.02790829
152	0xbe229a9a	-0.15879288
153	0x3d97d04f	0.074127786
154	0x3e398a26	0.18119106
155	0x3c8220cd	0.015884781
156	0x3e069d26	0.13145885
157	0xbe4dabca	-0.20085064
158	0xbdb913ce	-0.090369806
159	0xbd9df9fe	-0.07713698
160	0xbe126f32	-0.1430023
161	0xbd8c0e3e	-0.06838654
162	0x3e317fae	0.17333862
163	0xbd95909a	-0.07302971
164	0x3e145738	0.14486396
165	0xbd9dcdf6	-0.077052996
166	0xbe0bd19e	-0.13654181
167	0x3e43bedd	0.19115777
168	0x3db798c8	0.089646876
169	0xbd9b0b01	-0.07570458
170	0xbe60e914	-0.21963912
171	0x3e64ceba	0.22344485
172	0x3c972fcf	0.018455414
173	0x3dd91e5b	0.10601493
174	0x3e287cb4	0.1645382
175	0xbe1088e9	-0.14114727
176	0x3d043242	0.032274492
177	0xbe2c30ba	-0.16815463
178	0x3e1f1aa2	0.15537503
179	0xbdb0fa75	-0.08641521
180	0xbe232a0c	-0.15934008
181	0xbe3bc5c0	-0.18337154
182	0xbe152323	-0.14564185
183	0xbe1de3e3	-0.15418963
184	0x3e2db647	0.16964065
185	0xbe4c12f1	-0.199291
186	0x3e57f169	0.21088184
187	0x3d27d811	0.04097754
188	0x3e121861	0.14267112
189	0xbd9238b7	-0.07139724
190	0xbd1d474d	-0.038398076
191	0x3e3df1a7	0.18549214
192	0x3d509c8c	0.050930545
193	0x3ce37159	0.02776401
194	0x3e653e99	0.2238716
195	0xbe4768e6	-0.1947361
196	0xbe073a52	-0.13205841
197	0xbde2f1e5	-0.11081294
198	0xbe4079ee	-0.18796512
199	0x3e58ef1b	0.21184961
200	0xbd57ae64	-0.052656546
201	0x3cbced61	0.02306241
202	0x3e20163d	0.15633483
203	0xbe64a1ca	-0.22327343
204	0xbe13e7ed	-0.14443941
205	0x3dfd27b0	0.123610854
206	0x3c3bebb9	0.011469775
207	0xbe1dd851	-0.1541455
208	0x3e0d4184	0.13794523
209	0xbe314839	-0.17312707
210	0x3c875c31	0.016523452
211	0x3d91bd1c	0.07116148
212	0x3e27bfdf	0.16381787
213	0x3dbf7f79	0.09350485
214	0xbde0c358	-0.10974759
215	0x3d0b1a74	0.033960775
216	0x3d38a872	0.045082517
217	0x3d1f3785	0.038871307
218	0x3e6b8d9f	0.23003243
219	0xbdbbe38c	-0.091742605
220	0xbe2142d1	-0.15748145
221	0xbe481d52	-0.19542435
222	0xbda978a7	-0.08274966
223	0x3d95c663	0.0731323
224	0x3c1dc01f	0.009628325
225	0xbe24d462	-0.16096643
226	0x3cb6154c	0.022226952
227	0x3d894846	0.06703238
228	0xbd4bcb0f	-0.0497542
229	0x3c946d14	0.018118419
230	0xbdeb3ac5	-0.11485819
231	0xbe247739	-0.16061105
232	0x3d2449f0	0.040109575
233	0xbca03d67	-0.019560529
234	0x3cf161e8	0.02946563
235	0xbe44e6a1	-0.19228603
236	0xbd0b6891	-0.03403527
237	0x3dda3e0d	0.106563665
238	0x3e023462	0.12715295
239	0xbce30ca5	-0.02771599
240	0x3d425953	0.047448467
241	0x3e13936a	0.14411703
242	0xbe2e4bb0	-0.1702106
243	0xbe519a73	-0.20469074
244	0xbdb0e60a	-0.086376265
245	0x3e2c238f	0.1681044
246	0x3dd80a51	0.10548843
247	0x3e2406d7	0.16018234
248	0xbbab4638	-0.0052268766
249	0xbe048b83	-0.12943844
250	0x3e3be3e1	0.18348648
251	0xbde37918	-0.11107081
252	0x3e43673c	0.1908235
253	0x3dca5687	0.09879785
254	0x3e367d24	0.17821175
255	0x3c59303e	0.013256131

nns.1.0.bias f4 [64]
0	0xbc5d613b	-0.013511951
1	0x3d569f08	0.052397758
2	0xbc39b07b	-0.01133358
3	0x3d0ebf7a	0.034850575
4	0x3d1b6c64	0.037945166
5	0x3b9238cb	0.0044623367
6	0x3d1034e3	0.035206687
7	0x3c327fc8	0.010894723
8	0x3d17c28b	0.037050765
9	0xbc810248	-0.015748158
10	0xbd92c546	-0.07166533
11	0x3b8a58c1	0.004222006
12	0x3c9856ed	0.018596137
13	0x3c210cc2	0.009829702
14	0xbc911edd	-0.017714912
15	0xbcda4493	-0.026644027
16	0xbd0bced7	-0.034132805
17	0xbcaef25b	-0.021355798
18	0x3d8505fb	0.06495281
19	0x3d40175e	0.046897285
20	0x3cc3dc10	0.023908645
21	0xbbc2ee75	-0.0059488364
22	0x3d05db47	0.032679822
23	0x3c3a44ea	0.011368969
24	0x3bd87a68	0.006606389
25	0xba3596a1	-0.00069270475
26	0x3d0ae14a	0.03390626
27	0xbc23db69	-0.010001042
28	0x3ca2261e	0.019793566
29	0xbcb52935	-0.022114376
30	0xbcb86f43	-0.022513991
31	0x3c748183	0.014923456
32	0x3c66cf7d	0.014087555
33	0x3d874785	0.06605438
34	0xbd2501e5	-0.04028501
35	0x3cb552a6	0.022134136
36	0xbcf8f2b5	-0.03038917
37	0x3a9b7518	0.0011860458
38	0xbd375a75	-0.044764
39	0xbd02b25c	-0.031908378
40	0x3d54cd8f	0.05195385
41	0x3bc533ab	0.006018122
42	0xbd696b69	-0.0569872
43	0x3c835465	0.016031453
44	0xbc93f737	-0.018062217
45	0xbd5526a2	-0.052038796
46	0x3bcc8ee7	0.006242621
47	0xbb92ef97	-0.0044841277
48	0x3bf152b2	0.0073645944
49	0x3cd1edeb	0.025626143
50	0x3c81b021	0.015831055
51	0xbba32c4d	-0.0049796463
52	0xbd651326	-0.055926464
53	0x3c4d5fe9	0.012535074
54	0xbd16256c	-0.036656782
55	0x3d4a6ea2	0.049421914
56	0xbb7677c1	-0.0037608
57	0x3c268730	0.010164067
58	0xbd457cd6	-0.048214756
59	0xbd0c4f96	-0.034255587
60	0x3cf147e8	0.029453233
61	0x3d923002	0.07138063
62	0x3d29dcb2	0.041470237
63	0xbb320803	-0.002716542

nns.1.2.weight f4 [64, 64]
0	0x3d84110e	0.064485654
1	0x3d992b64	0.07478979
2	0xbd238f63	-0.039931666
3	0x3e3cbada	0.18430653
4	0xbe07506c	-0.13214272
5	0x3da462b0	0.08026636
6	0xbda3bb27	-0.07994681
7	0x3e21fcc7	0.15819083
8	0xbdd6995d	-0.104784705
9	0x3d0ecf4f	0.034865674
10	0x3d94054d	0.072275735
11	0x3e065c10	0.13121057
12	0xbdcc96ce	-0.09989701
13	0x3e45783e	0.1928415
14	0x3a261e0c	0.0006336875
15	0x3d0516c3	0.03249241
16	0xbe2dbef8	-0.1696738
17	0xbd13bbf8	-0.036067933
18	0xbe085baf	-0.13316225
19	0xbd5ee090	-0.05441338
20	0x3e2fc399	0.17164458
21	0x3e39b69b	0.18136065
22	0xbd7827f7	-0.06058499
23	0xbc998507	-0.01874019
24	0x3d0775d8	0.03307137
25	0x3e237555	0.15962727
26	0x3db0955c	0.08622238
27	0x3e3ef455	0.18647893
28	0x3dd7b24e	0.10532056
29	0x3e2b8170	0.16748595
30	0x3e307acb	0.17234342
31	0xbd2127d5	-0.039344627
32	0x3d016303	0.031588566
33	0x3e3f3aee	0.18674824
34	0xbd8b7e0a	-0.068111494
35	0x3dfbf101	0.12301827
36	0xbdd1cf0a	-0.10244568
37	0xbc663fca	-0.014053294
38	0x3e16d2be	0.1472883
39	0xbd9bfa9e	-0.07616161
40	0xbd88a5fa	-0.066722825
41	0x3dcbc292	0.09949221
42	0xbe1699ab	-0.14707057
43	0xbc9fb264	-0.019494243
44	0xbd9cd269	-0.0765732
45	0x3d99cc30	0.07509649
46	0x3da69877	0.08134549
47	0xbd9c9e14	-0.076473385
48	0xbd8295bb	-0.06376215
49	0xbdf29a21	-0.11845804
50	0xbd7c8a8b	-0.061655562
51	0x3d1036ec	0.035208628
52	0x3df11b99	0.11772842
53	0xbe1cb7a5	-0.1530443
54	0xbe4fb90a	-0.2028543
55	0xbdf9f708	-0.122053206
56	0x3c6b66f8	0.014367811
57	0x3dc4bf21	0.096067674
58	0x3e2b66ad	0.16738386
59	0xbc3756c0	-0.011190116
60	0x3e2c0c48	0.1680156
61	0x3ded2134	0.115785986
62	0x3a489ae8	0.00076524774
63	0xbe0edbb3	-0.13950996
64	0x3e0450f0	0.129215
65	0x3d820293	0.06348147
66	0xbe21cbf2	-0.15800455
67	0x3d815c8b	0.06316479
68	0x3e34b1cf	0.17645954
69	0x3e1fbb1c	0.1559872
70	0x3c3b750a	0.0114414785
71	0x3db86330	0.090032935
72	0x3d9a3781	0.07530118
73	0xbe6b9103	-0.23004536
74	0x3dd1c39f	0.1024239
75	0x3e0db2d4	0.13837749
76	0x3dfb90cf	0.122834794
77	0xbdfa701e	-0.12228416
78	0x3e0e4128	0.13892043
79	0xbe29191b	-0.16513483
80	0x3e1c2cf3	0.15251522
81	0x3e0bb168	0.13641894
82	0xbdf153c8	-0.11783558
83	0xbe6078f0	-0.21921134
84	0xbde86424	-0.11347225
85	0xbe3962a8	-0.1810404
86	0x3e05b273	0.13056354
87	0x3d522a19	0.05130968
88	0xbda15d20	-0.0787909
89	0x3d3958a5	0.045250554
90	0xbe14cb7c	-0.14530748
91	0x3cc84e8c	0.024451517
92	0x3d749ce8	0.05971995
93	0xbc2ac37f	-0.010422586
94	0x3d2947b3	0.041328143
95	0xbcf81829	-0.030284958
96	0xbe04e522	-0.12978032
97	0xbe0e9221	-0.13922931
98	0xbe4a1ad9	-0.19736804
99	0x3e3137bf	0.17306422
100	0x3d3739df	0.044732925
101	0x3b1252d4	0.0022327201
102	0x3e11d438	0.14241111
103	0x3e1809da	0.14847508
104	0xbd3e2d44	-0.046429887
105	0xbe03fabc	-0.12888616
106	0xbe0f1c97	-0.1397575
107	0xbdf2e8bb	-0.11860796
108	0xbde08a2d	-0.10963855
109	0xbdb9b0b3	-0.09066906
110	0xbe46ac8c	-0.19401759
111	0xbe25bf06	-0.16186151
112	0x3c7e1b74	0.015509475
113	0xbdf68438	-0.120369375
114	0x3d3828c4	0.044960752
115	0x3c81664e	0.015795853
116	0x3dc9bd09	0.09850509
117	0x3decb715	0.115583576
118	0xbdae5d1e	-0.085138544
119	0x3d048686	0.032354854
120	0x3d268d10	0.04066187
121	0xbdbbdfca	-0.09173544
122	0xbe352d0b	-0.17692964
123	0x3e5199b8	0.20468795
124	0x3c8f9f02	0.017531876
125	0x3e2c21c4	0.16809756
126	0xbc917e83	-0.01776052
127	0x3cf6f014	0.030143775
128	0x3e4f3021	0.20233203
129	0x3d98a8d0	0.074540734
130	0xbe5064a5	-0.20350893
131	0xbe5690c2	-0.20953658
132	0xbe3aede4	-0.1825481
133	0x3e1d8ee7	0.15386544
134	0x3ded04c7	0.11573177
135	0x3ca38da8	0.019965008
136	0x3e3b7066	0.18304595
137	0xbc82410b	-0.015900156
138	0xbd12ebef	-0.035869535
139	0xbdbb33fc	-0.091407746
140	0x3db8adc3	0.090175174
141	0x3dc3545b	0.09537574
142	0xbde2dc1d	-0.110771395
143	0x3dee0834	0.11622658
144	0xbe473cc7	-0.19456778
145	0xbda524a6	-0.08063631
146	0xbe2b4b48	-0.16727936
147	0x3df49c70	0.119439006
148	0x3e4d70e8	0.20062602
149	0x3dd23c2e	0.102653846
150	0xbd9478b7	-0.07249587
151	0x3e4d686a	0.20059362
152	0x3dbab6c3	0.0911689
153	0x3d90e382	0.07074644
154	0xbe48a984	-0.19595915
155	0xbddfef13	-0.10934272
156	0x3dc5b0d8	0.09652871
157	0x3de96fbc	0.11398265
158	0x3d937d1c	0.07201597
159	0xbe08ab58	-0.13346612
160	0x3d8fc9cc	0.070209116
161	0xbe2f8b1d	-0.17142911
162	0xbdf19e52	-0.11797775
163	0xbd11bc00	-0.03557968
164	0xbc8aa9a7	-0.0169266
165	0xbd74a628	-0.05972877
166	0xbdd6b97e	-0.104845986
167	0xbe229aa0	-0.15879297
168	0x3e05499a	0.13016358
169	0xbe3e3bc0	-0.1857748
170	0x3e483f2c	0.19555348
171	0x3dae5382	0.085120216
172	0x3d07a364	0.033114806
173	0xbdc1e7d4	-0.09468046
174	0xbd28d3a9	-0.04121748
175	0xbd8e3949	-0.0694452
176	0xbe225b3b	-0.15855114
177	0x3d6c4cfe	0.057690613
178	0xbd88332c	-0.06650385
179	0x3e3cb9bb	0.18430226
180	0xbe178214	-0.14795715
181	0x3dcfd90b	0.101488195
182	0x3c8e5f95	0.017379561
183	0xbe3431eb	-0.17597167
184	0x3d7e4b1f	0.06208336
185	0xbd874f9f	-0.066069834
186	0x3d923d6b	0.07140621
187	0xbe0d297b	-0.13785355
188	0xbdef607e	-0.11688326
189	0xbd2ccce0	-0.04218757
190	0x3df6cc69	0.12050707
191	0xbd83ca5f	-0.064350836
192	0xbdb7b71b	-0.089704715
193	0x3e218367	0.15772782
194	0xbdccc0c7	-0.09997707
195	0xbb40626f	-0.0029355546
196	0xbe4c0c43	-0.19926552
197	0xbdc97f12	-0.0983869
198	0xbe3d161b	-0.18465464
199	0x3dc201ae	0.094729766
200	0x3dd7c8da	0.10536356
201	0x3dabb938	0.08384937
202	0xbe414a7e	-0.18876073
203	0x3e507d3c	0.20360273
204	0x3b32de9a	0.0027293325
205	0x3e34c5e7	0.17653619
206	0x3e3027c4	0.1720267
207	0x3cb8eaca	0.022572894
208	0x3e076ff9	0.13226308
209	0x3db494c2	0.08817436
210	0x3e592a08	0.2120744
211	0x3c9b0c67	0.018926812
212	0x3d25d694	0.04048784
213	0xbd87646a	-0.06610949
214	0x3e460513	0.19337873
215	0x3e09262a	0.13393465
216	0xbd215bd7	-0.039394226
217	0xbd2f0607	-0.042730357
218	0x3d70eb82	0.058818348
219	0xbe481c05	-0.19541939
220	0x3d999225	0.07498578
221	0x3dedf9cd	0.11619911
222	0xbe0c8355	-0.13721974
223	0xbdb9408d	-0.09045515
224	0x3dc9fb5c	0.09862396
225	0x3da5921b	0.08084508
226	0xbaeff6bd	-0.0018307787
227	0xbe46874d	-0.1938755
228	0x3ddb78fc	0.10716435
229	0xbd37a112	-0.044831343
230	0x3e471ae0	0.19443846
231	0x3e4f8892	0.20266941
232	0x3d9574dc	0.0729768
233	0x3d1eaa9d	0.03873693
234	0x3e0efcbb	0.13963597
235	0xbdc22cf6	-0.09481232
236	0xbdbb3610	-0.09141171
237	0xbe1448c0	-0.14480877
238	0x3c35d0be	0.011097131
239	0x3d9ba8a3	0.07600524
240	0x3d9818c1	0.074265964
241	0xbcb58ba9	-0.022161322
242	0xbd8355c4	-0.06412843
243	0xbe072d47	-0.13200866
244	0xbd17c31b	-0.0370513
245	0xbdaf6765	-0.08564643
246	0x3e12c636	0.14333424
247	0xbd6e1df1	-0.058134023
248	0xbda72712	-0.08161749
249	0xbd53e440	-0.051731348
250	0xbb802f13	-0.0039118617
251	0xbd8da40a	-0.069160536
252	0xbe530b48	-0.20609772
253	0xbd9acaf4	-0.075582415
254	0xbe01d5d3	-0.12679224
255	0xbda18196	-0.07886045

nns.1.2.bias f4 [64]
0	0xb68d6a4f	-4.2145034e-06
1	0xb58e8821	-1.0619443e-06
2	0xb5fa7d73	-1.8662962e-06
3	0xb5ecb766	-1.7636746e-06
4	0xb5f98b59	-1.8592501e-06
5	0xb4396eac	-1.726973e-07
6	0xb40a1823	-1.2861032e-07
7	0xb549a020	-7.511135e-07
8	0xb755120d	-1.2699992e-05
9	0xb57d5a7a	-9.4381505e-07
10	0x349ca84d	2.917972e-07
11	0x34c3d720	3.6478104e-07
12	0x372445ca	9.791411e-06
13	0x36b8dbff	5.5092382e-06
14	0x36bcd264	5.6273293e-06
15	0xb5213239	-6.005026e-07
16	0x36eac77e	6.9969674e-06
17	0xb57b7951	-9.3681325e-07
18	0xb67de3f8	-3.7832633e-06
19	0xb5d5ce28	-1.5929736e-06
20	0xb694a689	-4.430131e-06
21	0xb6071fe8	-2.013514e-06
22	0xb59410f2	-1.1031791e-06
23	0x3489e968	2.5688064e-07
24	0x35ff8d1d	1.904005e-06
25	0x3438544d	1.7167004e-07
26	0x357edaf3	9.4940987e-07
27	0x35573c37	8.0181366e-07
28	0x31ed6e5a	6.9101533e-09
29	0x35208cfc	5.9809804e-07
30	0xb406c72b	-1.255218e-07
31	0xb4e71164	-4.3039756e-07
32	0xb65b7993	-3.2704309e-06
33	0x35e29b6f	1.6883549e-06
34	0x35cc5914	1.522511e-06
35	0x32b162e7	2.0650488e-08
36	0xb5232475	-6.0775284e-07
37	0xb1133615	-2.1422057e-09
38	0x35359942	6.7650774e-07
39	0x359a453f	1.1494047e-06
40	0x36522bf9	3.1318034e-06
41	0xb661151f	-3.3539907e-06
42	0xb679f78f	-3.724799e-06
43	0x35d5aa15	1.5919237e-06
44	0xb4a64974	-3.0973354e-07
45	0x3554422a	7.9072436e-07
46	0xb61f434a	-2.3732014e-06
47	0xb6eeeb0a	-7.120315e-06
48	0x3691f5a6	4.349934e-06
49	0x361508b2	2.2207792e-06
50	0xb47b5cfe	-2.3410027e-07
51	0xb6c05f60	-5.733149e-06
52	0x360a8816	2.0642815e-06
53	0xb71a87ac	-9.210704e-06
54	0x36aa4796	5.0747285e-06
55	0xb5d2594e	-1.567221e-06
56	0xb5f35d51	-1.813207e-06
57	0x35a5759e	1.2327689e-06
58	0xb65cb105	-3.2885594e-06
59	0x36d8186c	6.4401447e-06
60	0x34c17615	3.6034967e-07
61	0xb4df69ee	-4.161406e-07
62	0x35ac0401	1.2816164e-06
63	0x36344041	2.685949e-06
