weight/IMDB-BINARY/Client_7.pth (torch, 260953 bytes, 24 tensors)

bns.0.running_mean f4 [64]
00000000: 84f8 7440 bab4 1541 0f8d 8740 fd55 2fc1
00000010: e7c5 aa40 2319 81c0 3169 6840 3e06 94c0
00000020: 9976 6140 1e39 7cc1 a461 c03f 7c5a acc0
00000030: b51d 93c0 1f90 7940 9288 1d40 258f 1b40
00000040: c385 1341 7200 8540 c7dd a13f f1cc 25c1
00000050: c631 c6be e4a4 a1c0 8527 d340 9329 f9c0
00000060: a0eb 2cc1 19f9 bf3f 63ed 41bf f3e9 0ac0
00000070: 5055 4a41 f2fd 0d40 229a 0a41 769d 0dc1
00000080: 8c70 84c0 ac07 2040 ff7e da3f 20df 01c0
00000090: ab8f 2fc0 6de3 a0bf b350 e0c0 cf99 07c1
000000a0: fdee bd3f e840 133e 2603 03c1 10e7 4240
000000b0: ac53 d4c0 c450 c140 1f0b d6c0 857f 8040
000000c0: ccbd 2640 6201 ae40 922e b8c0 1aa3 aec0
000000d0: 2833 bec0 f5dc 23c1 18c5 b9bf 7460 fe40
000000e0: cd7c 1bc0 66a2 c4c0 1918 c3c0 903a 4040
000000f0: 4f36 df40 7718 8040 61d8 96c0 dca9 843e
3.8276682 9.356623 4.235969 -10.958493 5.336658 -4.0343184 3.6314204 -4.625762
3.5228636 -15.763945 1.5029798 -5.3860455 -4.5973763 3.8994215 2.4614606 2.4306118
9.220157 4.1563044 1.2645806 -10.3625345 -0.3870985 -5.0513783 6.598574 -7.786325
-10.807526 1.4997894 -0.7575285 -2.1705291 12.645828 2.2186246 8.66263 -8.850943
-4.1387386 2.5004683 1.7070006 -2.0292435 -2.7431438 -1.2569405 -7.009851 -8.475051
1.4838558 0.14380229 -8.188269 3.045353 -6.635214 6.041109 -6.6888576 4.0155663
2.6053343 5.437669 -5.755685 -5.45741 -5.9437447 -10.241445 -1.4513273 7.949274
-2.4294922 -6.144824 -6.0966916 3.0035744 6.9753795 4.0029864 -4.7139134 0.25910842

bns.0.running_var f4 [64]
00000000: e948 853e 2b1e e83f acb8 ca3e 9e4d 4340
00000010: 7986 183f c206 e23e 3b67 ad3e 6afb 183f
00000020: 4436 d93e 960a b940 145d 6f3d abb8 a33f
00000030: 0513 c43e e77e 013f 6929 253e 06a3 6c3e
00000040: c182 d93f eeba b43e 72e7 fa3d dde7 1a40
00000050: 785f cd3e 92f6 173f e173 663f 4b23 a93f
00000060: a020 0e40 e5ef 9e3e 3bf5 b63d 8213 253e
00000070: f4aa 3e40 cc33 c13d 4799 9e3f 6e8c d93f
00000080: ebe9 963e 0023 8f3e 48da 8f3d d37c 843e
00000090: 1671 783e acbf 8b3d ca70 583f 628e e93f
000000a0: a5e9 173e 652a f33d fc4a 903f 156c 5e3e
000000b0: 8fb0 7a3f 9113 613f 0df4 db3f 32e6 e53e
000000c0: 3113 a33d fc19 d83e 78de 923f 7029 c13e
000000d0: 998f 333f 784e 2540 b50a 7d3d 0bd6 d63f
000000e0: 64ad a23d 78d3 5c3f de1b 1d3f abe7 b33e
000000f0: 4931 ad3f 4b5b a63e d598 8a3e 4f4b 9a3d
0.2603219 1.8134207 0.39594018 3.0516124 0.5958019 0.4414578 0.3386782 0.5975863
0.42424214 5.782542 0.058438376 1.2790731 0.3829576 0.5058426 0.16129078 0.23109064
1.6993028 0.35298866 0.12251176 2.4204018 0.401119 0.5936061 0.9002057 1.3213896
2.2207413 0.310424 0.08933493 0.16120723 2.9791842 0.094337076 1.2390527 1.6995981
0.2947534 0.2795639 0.07024056 0.25876483 0.24261889 0.06823668 0.845471 1.8246577
0.14835222 0.118733205 1.1272883 0.21720918 0.9792566 0.8792048 1.7183853 0.44902188
0.07962645 0.42207325 1.1474142 0.37726927 0.7014099 2.5829144 0.06177779 1.6784071
0.07943228 0.86260176 0.61370647 0.35137686 1.3530666 0.32491526 0.27069727 0.07533895

bns.1.running_mean f4 [64]
00000000: 06db 2fc2 a7ef 4e41 05c5 3541 8de1 33c2
00000010: 51ba 40c2 857a d941 c75a 9bc1 ed1a 4f42
00000020: d9e2 4a40 f68e 6b41 9e1a 1941 119e 8cc1
00000030: d5cc 3fc2 9ed9 4341 b772 80c1 6d9d 02c2
00000040: a5bc ab41 64e1 2842 e155 f740 fbf0 a140
00000050: 6042 da41 44ae 6a40 30ce 8841 6b07 b6c1
00000060: 968d b541 b6f4 e941 da60 9b41 5323 3b41
00000070: b9f4 9f40 47c5 c8c1 7118 f741 875f 0ec1
00000080: 7530 8c41 0f40 08c2 d96b 15c1 ca4d 2cc2
00000090: af24 e03f 733c 14c2 3bfc 5c41 d727 c0c0
000000a0: eb43 2cc2 ebd0 f640 745c 7ac1 9d21 cc3f
000000b0: f5ae 5b41 a870 9741 b240 4dc0 e4c4 0742
000000c0: 2344 35c2 1f63 57c1 c727 683f d34e 5141
000000d0: 1cbc a941 1517 3ac1 2100 43c1 3e4c 9a41
000000e0: a3ce c6c1 5a49 09c1 b433 ddc0 e9cb af41
000000f0: 9a8a e041 57e3 f6c0 f407 97c1 66bc 9a41
-43.96389 12.933509 11.3606 -44.970264 -48.18195 27.184824 -19.419325 51.776295
3.1700957 14.722403 9.568998 -17.57718 -47.95003 12.240629 -16.056013 -32.653736
21.467112 42.220108 7.7292333 5.0606666 27.28241 3.6668863 17.100677 -22.753622
22.694134 29.244488 19.42229 11.696124 4.9986234 -25.096327 30.886934 -8.898322
17.52366 -34.062557 -9.33883 -43.075966 1.7511195 -37.059032 13.81158 -6.0048633
-43.066326 7.7130027 -15.647572 1.5947758 13.730214 18.930008 -3.2070737 33.942276
-45.31654 -13.4616995 0.90685695 13.081744 21.21685 -11.630635 -12.187531 19.287228
-24.850897 -8.580408 -6.9125614 21.974566 28.067677 -7.7152514 -18.878883 19.341991

bns.1.running_var f4 [64]
00000000: a044 0644 89e6 9142 1c95 a642 fc67 0e44
00000010: f4f9 f043 e503 5743 1e44 6e42 b6f0 e043
00000020: 122d 9e40 fcae da41 1f36 a241 de1d 7b43
00000030: 01f8 4443 8669 df42 ae71 bb43 881f 9643
00000040: 938a 4143 36df 0844 38b1 1242 0a45 0842
00000050: f41a b742 07f0 4241 ef76 8142 9872 9542
00000060: 4e5e d243 014b 8943 ccbd ef42 6fe8 3c42
00000070: 5b41 0142 1880 a243 0f4e 3343 499b f741
00000080: f98e e442 379a fd42 8526 0443 cb4c 0144
00000090: 5687 c242 abae 6843 e137 5c43 d719 7641
000000a0: 0358 5443 5a9b 8b42 d510 8941 36cc 3842
000000b0: ab92 a242 4a3a 8141 71d8 9b42 a1ea 9343
000000c0: d856 a843 1792 3842 ccfa db41 4ffc dc42
000000d0: b830 b743 ff6c 0943 bc5d c741 777f 1e43
000000e0: 2ae5 c243 19a3 e242 e0a7 f143 a945 da42
000000f0: d4b4 7743 4de5 c641 0103 4543 0471 8f43
537.07227 72.950264 83.29123 569.62476 481.95276 215.01521 59.56652 449.88055
4.9430017 27.335442 20.276426 251.11667 196.96877 111.7061 374.88812 300.24634
193.5413 547.4877 36.673065 34.06742 91.55264 12.1836 64.73229 74.723816
420.73676 274.58597 119.8707 47.226986 32.313824 325.00073 179.30492 30.950823
114.27924 126.8012 132.15047 517.1999 97.26433 232.6823 220.21828 15.381309
212.3438 69.80342 17.133219 46.199425 81.28646 16.153461 77.92274 295.83304
336.67847 46.142666 27.49746 110.49279 366.3806 137.42577 24.920769 158.49791
389.79034 113.31855 483.31152 109.136055 247.70636 24.861963 197.01173 286.88293

bns.2.running_mean f4 [64]
00000000: 3a11 3540 21bd d2bf 18b6 5dc0 6840 b140
00000010: 1ffc 7cc0 5d88 47bf f43e 1fc0 061f dbc0
00000020: ed99 ba40 8e23 6f40 2f25 6fc0 48b7 f2c0
00000030: ed4c 4fbf 4271 06c0 c8ab 46c0 b6f9 cf40
00000040: 6232 1e41 e9a8 f2c0 9a1a d740 1c1b 16c0
00000050: ebc2 18bf f827 1a40 c0bb eabf 205c f8c0
00000060: af82 32c0 31e7 f040 c4a4 3941 94a4 f23f
00000070: 67b5 95c0 2a2b 8ec0 3b9f 4140 09a6 dd3f
00000080: 4663 3f41 9dbe 0441 ad8f 9dbf 32e4 2e41
00000090: ea2e 1741 03d9 89bf 557f 6940 0e8d 073f
000000a0: 1e58 1ec0 7883 c4c0 b270 b640 0727 e5c0
000000b0: 6866 f33f 738a 91c0 594f 46c0 92a2 753f
000000c0: d66f 16c0 9241 eabf a82c 09c1 8726 5440
000000d0: 722e c13f 1ac4 fec0 e44a 8ac0 77fe 02c1
000000e0: 5ab3 9d3f 61ae 14c0 cf29 4d41 43a4 cd3f
000000f0: fd5a 0a3e 4920 8ac0 7ca4 a740 ce67 c340
2.8291764 -1.6463968 -3.4642391 5.539112 -3.9528883 -0.7794245 -2.4882174 -6.847537
5.83129 3.736545 -3.7366445 -7.584873 -0.80976754 -2.1006627 -3.1042347 6.4992323
9.8873005 -7.583119 6.7219973 -2.3454046 -0.5967242 2.4086895 -1.8338547 -7.7612457
-2.7892263 7.5282216 11.602726 1.8956475 -4.678394 -4.442769 3.0253437 1.7316295
11.961737 8.296536 -1.2309471 10.930712 9.448954 -1.0769352 3.6483967 0.5294961
-2.4741282 -6.1410484 5.7012568 -7.161014 1.9015627 -4.5481505 -3.098593 0.9595119
-2.350576 -1.830126 -8.573402 3.3148515 1.5092299 -7.961438 -4.321642 -8.187125
1.2320359 -2.3231432 12.822707 1.6065754 0.13511272 -4.316441 5.2388287 6.1064215

bns.2.running_var f4 [64]
00000000: 540a 8e43 1c21 ee42 6e4b 9342 95c8 8040
00000010: eac7 3942 d0cb 5243 df8e c041 8d4a b042
00000020: 89c4 a341 7ab9 3543 917f 1343 172f 1143
00000030: 56f6 3443 6efa 5c42 f40e 1043 c19c 3c42
00000040: 167a cb43 e3b0 2b41 c543 4042 73d8 ef42
00000050: a670 be43 3412 fc41 395d 1742 16c9 8741
00000060: 3b48 e142 0961 2d41 bf1f 5342 41aa d742
00000070: a217 6d43 c1fa fc40 7588 3f41 b18e 5243
00000080: 21d9 1b42 a94e 2843 ba41 9143 a87c 7a42
00000090: 2bd0 8441 b09b 1e43 280e 7540 18f6 4042
000000a0: 8da0 c342 1ef8 6643 92df a943 ae29 cd41
000000b0: dd1c 8343 807a 2743 c2cf 8d41 8354 5441
000000c0: e79d 0c43 1704 8142 f8d8 0642 0f0d aa42
000000d0: 088d 8e42 f024 1242 b4af b242 1520 be42
000000e0: 1599 d541 4f4f ce42 5bba 1143 0806 1e43
000000f0: c557 1a43 9b75 8243 6e0f de43 a3a4 a342
284.0807 119.06467 73.64732 4.024485 46.44523 210.79614 24.069761 88.14561
20.470964 181.72452 147.4983 145.18394 180.96225 55.24456 144.05841 47.15308
406.9538 10.730685 48.06618 119.92275 380.88007 31.508888 37.841038 16.973186
112.641075 10.83619 52.781002 107.83253 237.09232 7.9056096 11.970815 210.55739
38.96204 168.30727 290.5135 62.621735 16.601645 158.60815 3.828989 48.240326
97.813576 230.96921 339.74664 25.645351 262.2255 167.47852 17.726444 13.270633
140.6168 64.50799 33.711884 85.025505 71.27545 36.53607 89.34317 95.06266
26.699747 103.1549 145.72795 158.02356 154.34285 260.9188 444.12054 81.821556

nns.0.0.weight f4 [64, 136]
00000000: 2a2e 9636 414b dc33 92ba 65ab 7add 9e3d
00000010: 1e1a 503d 09f4 8b3c 3a0a db3d d6db 89bd
00000020: c8bc 1b3d 213f 2e3d 4c2b e83d 5f52 913d
00000030: 18f7 debd feb1 96bd f49c c0bc 21be 633d
00000040: 3ea0 8e3d 4015 b13d ea57 aebd 3505 acbd
00000050: 0c1f 54bd 8d9c e7bd 90a6 9736 50c7 b23d
00000060: fd4b 21be 275c 8aac b86c 6daf 2f5a 9db8
00000070: 9e1e 343c 9bf6 262b 32be debc 03d7 b4bb
00000080: 8b96 9829 9d96 f0b5 0082 7c3d 24e2 1d2d
00000090: f7c9 002a 5851 74ab 5889 ff2f f84a 9630
000000a0: 6589 bf3b 7c52 73ad 3b1b 8933 510c 4bab
000000b0: fc60 60ad b90a c4aa 80e9 242a 79eb 0d34
000000c0: a9ad 2f2d e402 58aa 67ce 732a 853e 5da9
000000d0: 74a2 a3ac 8471 15b9 313a 012b d533 0232
000000e0: 2320 02ad f663 deab 2f9d 2db2 af74 c2bd
000000f0: 2fc7 7c2a a119 7c39 63a3 a1b9 da13 6dad
00000100: fed0 f729 638a b1b3 fb6d 89b8 2c7e a5aa
00000110: 6e5b aeb8 cde1 e629 9172 a5b6 b271 7c2e
00000120: 6301 3cad 599d dfae 05a0 c82a 2e3c 20b5
00000130: 6036 9fb0 b28e d9aa 5668 1931 c14d 14ae
00000140: 2304 cdac 7a97 f2b7 00d2 192a 0850 3a2f
00000150: 4f6d 042b ad9d 37ad 4538 152c 7d2b 632e
00000160: af26 8737 c163 c2aa dd94 be26 8e94 c82d
00000170: 11c5 8e32 fd8a 9cb8 89a4 a5b6 f3cd cbb9
00000180: 1b4d 392e c6d5 302b fc86 7230 7e53 abb0
00000190: f339 74b7 e7d3 14af 8be5 8ab9 f03b 02b8
000001a0: 2711 58b0 e0b1 07a9 b3ac 2dac 5f3b 3f30
000001b0: 004a 3430 0138 722f 8e62 96b0 c6e3 5338
000001c0: 470e b4b0 35b7 cfb5 c3e9 4e32 b98d 9b2d
000001d0: 57af bab6 6bbb 9f32 997f f6b7 2319 85ab
000001e0: 986c 8237 ddae 062c bc2f 9729 4c8b 862e
000001f0: 8c2d 412e 827b 3ab2 1690 0bab 6015 8936
00000200: 55f6 ac2c 1d31 4ba9 201e b1b9 33d4 b6aa
00000210: 2f05 65b0 496c b733 c961 4ea8 3613 97b6
00000220: 5eca 692f 1e73 762f ac43 6338 61fa 9738
00000230: aec1 5b39 71eb 203a 0514 2ebc 3998 24bd
00000240: a88d d5bc 6712 ed3b bc0c 8b3c 3073 0dbd
00000250: de2e 54bc 0ea0 93bc 41dd 5dbc a9ec 3c3a
00000260: 07ef 9bba 6cd2 643d 7a42 413a 2150 54b9
00000270: 72ab 1e34 0a51 be3c 3454 9baa 488a 1a34
00000280: 2fef 39bb 9f1a bf39 4f4b 2f36 e97e 6336
00000290: 9580 9237 338c 03af cada 1737 9e4e 0fb4
000002a0: 70e8 3033 a408 852c a61a ddba ac4b d4ab
000002b0: b484 50ab cefb beaa a239 d8ab 0f6d b939
000002c0: fc86 2737 18e3 acae 0f01 d32b f846 252a
000002d0: 50f0 fbab 6421 6937 bc72 ca2d b39a a9b9
000002e0: 8398 5c38 e690 7838 5b9e 8aaa 6a3f 0130
000002f0: 2e0f 10ab ed0e 1aaf 607e 92ad d89f 18b5
00000300: bb12 d7b7 2827 812e 14f9 a62d 6d97 fbb7
00000310: 1735 d8ab c060 ceb7 e3bf 1db6 9b46 ccac
00000320: 3626 a92a b132 6fab 9b4d 9130 0c00 78ae
00000330: 240b baaa dc82 18b1 df0e 49ab 0774 7334
00000340: 94ce 5e2e db7d 4637 d816 812c 65dc 53aa
00000350: e5cf 49b1 8ff1 86b2 7da1 90a5 9c41 8429
00000360: 66f1 9635 8441 c32c 9847 af2a 1283 8cad
00000370: bdbc a639 f3a8 862e 2ed6 6cb9 a12d ebb8
00000380: 63db 8ea8 2879 0dad 8104 0235 011f 85ae
00000390: 7fcb 30ac eae8 6135 020a 71b6 a5de 22ab
000003a0: d526 cfb9 a831 32aa 61f2 b62d 8d19 d1ac
000003b0: 9dcc 2038 a65b da33 479a c4b7 0950 1faa
000003c0: eca1 7fac 0563 8ea8 9df9 a239 fa95 4e38
000003d0: c45f bab9 ed09 99b1 56e7 a0a9 6eb7 56ac
000003e0: e4c7 972a 87e7 2fb8 243f a831 ec90 4fb7
000003f0: 2cee 962a be1a 82b7 7d91 082d 5345 b3b1
4.4757226e-06 1.0258237e-07 -8.161606e-13 0.07757087 0.050806157 0.017084138 0.1069531 -0.067313835
0.038021833 0.042540673 0.11336383 0.07095789 -0.10886973 -0.07358168 -0.023512341 0.055601243
0.069641575 0.08646631 -0.08512862 -0.08399431 -0.05178742 -0.113091566 4.519541e-06 0.08729422
-0.15751643 -3.932427e-12 -2.1593649e-10 -7.5031414e-05 0.010993628 5.931728e-13 -0.027190302 -0.0055187955
6.776271e-14 -1.7925228e-06 0.061647415 8.97463e-12 1.1438754e-13 -8.67991e-13 4.6481818e-10 1.0935244e-09
0.005845236 -1.3831266e-11 6.384513e-08 -7.213718e-13 -1.2754461e-11 -3.4824034e-13 1.4647138e-13 1.3217313e-07
9.986159e-12 -1.9185657e-13 2.1654346e-13 -4.9126085e-14 -4.6507746e-12 -0.00014252035 4.5910763e-13 7.578781e-09
-7.39678e-12 -1.5801793e-12 -1.0105665e-08 -0.09494912 2.2451202e-13 0.0002404214 -0.00030830046 -1.3476298e-11
1.1005258e-13 -8.267377e-08 -6.5531545e-05 -2.9397437e-13 -8.313997e-05 1.0253222e-13 -4.9307205e-06 5.7399148e-11
-1.0686871e-11 -1.01688165e-10 3.5638173e-13 -5.969222e-07 -1.1584227e-09 -3.8645958e-13 2.2323738e-09 -3.3720363e-11
-5.8269097e-12 -2.8919185e-05 1.3661988e-13 1.6945034e-10 4.7047517e-13 -1.0437357e-11 2.120541e-12 5.165245e-11
1.6111268e-05 -3.453054e-13 1.3224248e-15 2.2803339e-11 1.6620591e-08 -7.464548e-05 -4.9365376e-06 -0.0003887262
4.2132613e-11 6.282443e-13 8.823091e-10 -1.2465617e-09 -1.4557026e-05 -1.3535804e-10 -0.00026492434 -3.1050236e-05
-7.8604717e-10 -3.0130304e-14 -2.4680646e-12 6.9569767e-10 6.558878e-10 2.2029668e-10 -1.0941947e-09 5.051845e-05
-1.3100782e-09 -1.5476022e-06 1.2043929e-08 1.7684397e-11 -5.563644e-06 1.8595264e-08 -2.9384903e-05 -9.457195e-13
1.5547776e-05 1.9139614e-12 6.714028e-14 6.1183586e-11 4.3923573e-11 -1.0854707e-08 -4.958268e-13 4.0854065e-06
4.9158824e-12 -4.5117654e-14 -0.00033782516 -3.2476937e-13 -8.331708e-10 8.5412985e-08 -1.1456501e-14 -4.502387e-06
2.1263122e-10 2.2414468e-10 5.418404e-05 7.246878e-05 0.00020957619 0.0006138599 -0.01062489 -0.040184233
-0.026068524 0.0072348597 0.016973846 -0.03453368 -0.012950627 -0.018020656 -0.013541521 0.0007206896
-0.0011896797 0.055864736 0.00073722715 -0.00020247746 1.4777268e-07 0.023232002 -2.759196e-13 1.4392674e-07
-0.0028371324 0.00036450193 2.6120867e-06 3.3899507e-06 1.7464432e-05 -1.196419e-10 9.051242e-06 -1.3346514e-07
4.1189594e-08 3.7810467e-12 -0.0016868904 -1.5084509e-12 -7.4080607e-13 -3.3925505e-13 -1.5363719e-12 0.00035367205
9.985404e-06 -7.8619944e-11 1.4992746e-12 1.4679566e-13 -1.7901323e-12 1.3895657e-05 2.3015694e-11 -0.00032349452
5.2594125e-05 5.9262755e-05 -2.4623606e-13 4.7020043e-10 -5.1180143e-13 -1.4011521e-10 -1.66544e-11 -5.6857016e-07
-2.563872e-05 5.8731964e-11 1.8982628e-11 -2.9992045e-05 -1.5362458e-12 -2.4602166e-05 -2.3506516e-06 -5.8058675e-12
3.0046945e-13 -8.4980205e-13 1.0572195e-09 -5.6388713e-11 -3.3047968e-13 -2.2193296e-09 -7.1430183e-13 2.2673349e-07
5.0660434e-11 1.1831023e-05 3.6689367e-12 -1.881703e-13 -2.9367524e-09 -1.5709501e-08 -2.5089447e-16 5.873359e-14
1.1246127e-06 5.549507e-12 3.1135923e-13 -1.5974364e-11 0.00031802608 6.123626e-11 -0.00022586502 -0.00011214172
-1.586031e-14 -8.041824e-12 4.843533e-07 -6.053647e-11 -2.5124067e-12 8.4157966e-07 -3.5917624e-06 -5.7862943e-13
-0.0003951105 -1.5826804e-13 2.0798642e-11 -5.942974e-12 3.8337534e-05 1.0168087e-07 -2.3436862e-05 -1.4149805e-13
-3.6327564e-12 -1.580811e-14 0.00031085024 4.9253904e-05 -0.00035548036 -4.4540145e-09 -7.145558e-14 -3.0513053e-12
2.696169e-13 -4.1938878e-05 4.8966218e-09 -1.2371904e-05 2.6810618e-13 -1.550966e-05 7.76301e-12 -5.217467e-09

nns.0.0.bias f4 [64]
00000000: 1d85 a8bb c1be a8b5 07bb 0c3d 60a6 383b
00000010: 9caa 72bd 253f 6f34 461a 9934 6875 7f3c
00000020: cfbf 0a3c 5370 c339 56e0 813a 440b 3f3c
00000030: 5a20 8b38 d525 bdb5 c39c 933b b9de 88bc
00000040: 5f68 0bb8 4b32 9b3b 56cb 093c 5a83 8039
00000050: 0071 0a3c 7bc4 62bc cf02 3a3b a50a 953c
00000060: b62e 773c 4235 a13c d240 02bd c724 3339
00000070: 1058 7f3c 8ada 173d 8fbc 073d b938 503c
00000080: e5db c635 440d a73b 4e65 29bd f4d7 74bd
00000090: 3a8e 943c 8547 4a3d d422 113c ca01 f3b6
000000a0: 4d1b 933c fe8b fa3b 83ad 7abc ba5a 01bc
000000b0: 603d cb3b 3d82 d83c fc35 303a 2c06 a7b4
000000c0: 7be9 7d3c abd5 58bc ce28 c8bc 1e6b 25bd
000000d0: f01d 5c39 66b7 c2bb a85c b6b5 9980 063b
000000e0: 5f2f efbb 0bcd 113a 43af 01bd 4563 5ebc
000000f0: 4b0e d1ba 07b1 35bb 4aef da3a c816 17b9
-0.0051428215 -1.2572492e-06 0.03435805 0.002817534 -0.059244737 2.2281581e-07 2.8517587e-07 0.015591957
0.008468582 0.00037276986 0.0009908776 0.011660401 6.6340624e-05 -1.4092608e-06 0.0045047714 -0.016707765
-3.3237386e-05 0.00473622 0.0084102955 0.00024511927 0.008449793 -0.01384079 0.0028383022 0.018193552
0.01508682 0.019678716 -0.0318001 0.00017084471 0.015584961 0.03707365 0.033138808 0.012708836
1.4816147e-06 0.005098017 -0.041356377 -0.05977626 0.018134225 0.049384613 0.008858401 -7.2421726e-06
0.017957354 0.007646083 -0.0153001575 -0.007895166 0.006202385 0.02642929 0.00067219115 -3.1110665e-07
0.015497561 -0.013234536 -0.02443352 -0.040385358 0.00020991988 -0.005942273 -1.3587023e-06 0.0020523428
-0.0072993482 0.0005561865 -0.031661283 -0.013573472 -0.0015949694 -0.0027723925 0.0016703394 -0.00014408969

nns.0.2.weight f4 [64, 64]
00000000: 5f18 0c3e f5a1 be39 82e3 583e 9dc5 633d
00000010: 4e5e 0cbe 83e2 8cbb 9d3e 483c ad19 edbc
00000020: a092 babd 1a99 9b3c cfcb f93d 8578 31be
00000030: 01e8 17b8 c2a1 453c 951f 443c 743b 19be
00000040: ab62 3abd 012e 663e 2722 a0b9 7fb3 f5bd
00000050: 8d58 07bd 06f6 1f3e 9bf1 56bc 2656 40bc
00000060: 55f1 d3bd c5a7 573d a494 48bd 849b 8ebd
00000070: 9431 11bd ed6f 9fbc b16f c1bd e244 933d
00000080: e26f 7bba 9af8 e73d 57f5 8d3d 1e98 29be
00000090: 24b3 66bd 5917 e53b 3890 d2bb a193 d13a
000000a0: eb07 26be 0d13 383e 38d8 8abd 9166 74bd
000000b0: f64a 1b3e 1146 bd3d db29 5a3e 10f7 9f3a
000000c0: c02c 4c3e 2b6f a5bd e003 26be bd05 5eb9
000000d0: d02a 283d 8d67 6e3c 4287 553a ea29 463e
000000e0: ae11 a83d 268e 2c3d 0a07 35be e417 3fbe
000000f0: 284f a9bd 452d 293d c222 afbd 1d02 3cbe
00000100: 1839 c63d 1443 073c a8f8 0a3e 17c5 3bbc
00000110: 4b1f 1f3e 0c2a 93ba e9fb 45bb 1c4a a43d
00000120: 55c2 87bc 9674 7c3c 55ad 193c c922 f63a
00000130: bd9d cdb9 0f6e c7ba 458f cfba 589f 80bd
00000140: 5f4a 763d 65df 173e a9d7 8d3d b20d 473d
00000150: 8844 283d a55f 223e 7968 a53b 3148 d73c
00000160: 677b 4e3b 8299 2cbd 59c7 babd cc8b dabd
00000170: 61ae 1cbb a9f0 243e 8696 ba3c dbcf 29bd
00000180: fcad 9937 7ff8 883d 6147 9d3d 249b 13be
00000190: d312 aebb 3ced c63c 9f55 5abc e4f3 3e3c
000001a0: aa35 9d3c 1d20 bf3d 4994 b93b 508a 493e
000001b0: 5668 393e 3b35 07bd 1b02 333e 1e07 2439
000001c0: 68a0 04be 687c f7bd 2259 973d 38e4 2f3d
000001d0: 42bf 0abd d9be 1cbe cbd0 c0bb 7fe4 e73d
000001e0: d625 773d 26e5 643d eac1 7f3d a4b4 233e
000001f0: 0e1b 0b3e 115e e83c 559f 073e 029d 6d3d
00000200: 8d80 c63c 9547 a7bc 2f41 0c3e 4147 c23d
00000210: 1647 0ebc 0ab8 9c3c 35f8 213d 625a aebd
00000220: 036a b9bd 7bb9 0ebd 9acd bf3d e311 41be
00000230: fa6e 2b3c 8c84 cf3c f548 d2bb adfc 5b3b
00000240: 86ac 1a3e 990c b0bd 8e81 8b3c 8672 dfbd
00000250: b634 fcbc 80f5 2e3e 9318 c23b 5e24 af3d
00000260: b006 173e 2c7c 3c3e 5e9e 013e 58da fabd
00000270: 2c5d fbbc 438e 01bd 0d32 07be cc55 9ebd
00000280: 2156 1f3c 4f35 ab3c b7d2 2b3e 3e8a 2c3e
00000290: a387 1a3e b702 93bd b5d3 db3b 6a3b 303c
000002a0: 9ea3 1b3e 19e2 143e 781c 533c 8f2a 0b3e
000002b0: 4959 97bd 425c 82bc 2988 a23d baa1 b43b
000002c0: 8923 5fbe 4723 393e 43f9 d93d 167e 833d
000002d0: 8659 22be 2d1b d9bd 2bbf cb3a 9722 3a3e
000002e0: 51f3 653d 9dce 913d d50d 173e 0cbe 253d
000002f0: efee 203e 596c bc3d fbe0 f6bd 7704 593d
00000300: 61a6 c03d 00b1 afb9 8053 923c f39b 803b
00000310: d894 043e 9307 803a 5f65 e6b8 ea75 6dbd
00000320: 0a98 1b3e 5c12 643c 1534 f6bd 9bc3 31bd
00000330: 37f9 8dba ffc6 973a 2650 573a 117a 1a3e
00000340: 58cf 0cbe eaef 33be 3553 173c 1996 08bd
00000350: 5f17 4b3d cf3d bb3c a8b4 34ba e4e5 283c
00000360: 4251 003e 2807 353d 9437 e8bd 09e8 1cbe
00000370: 4a72 193c 95c7 49bc 085a 443d f939 39bb
00000380: d9b6 70b9 9d95 a03c 25ed 243e cb0f 793d
00000390: 6c90 debd 477e 9abd 67f1 82bc f401 083c
000003a0: 370f d33d 5068 033e aa16 b23b a662 f7bd
000003b0: c1f4 1b3e f352 113a aa3b 5abe b074 f23a
000003c0: 7c11 4ebe 74c1 22be 5839 febd 90ec a6b8
000003d0: f125 433b 3b8b 863d 8773 d1bb a808 4fbe
000003e0: 1deb 81bc e2ab 4dbb 4e85 68bd e2e9 6bbd
000003f0: f928 123d d0a7 41be b2f7 8ebd c0cb 40be
0.13681172 0.0003636029 0.21180537 0.05560838 -0.1370785 -0.0042994632 0.012221959 -0.028942907
-0.09109998 0.018993903 0.121970765 -0.17331131 -3.6217276e-05 0.012062492 0.01197042 -0.14964086
-0.045504253 0.22478487 -0.00030543024 -0.11997127 -0.033043433 0.15621194 -0.013119127 -0.011739289
-0.10348765 0.052650232 -0.04896988 -0.06963256 -0.035447672 -0.01946255 -0.094451316 0.07190873
-0.0009591562 0.11326714 0.069315605 -0.16561934 -0.056323186 0.0069913086 -0.0064258836 0.0015989431
-0.16213958 0.17976017 -0.06779522 -0.059668127 0.15165314 0.0924188 0.21305029 0.0012204368
0.19938946 -0.08077844 -0.16212416 -0.00021173708 0.041056454 0.014551056 0.000814546 0.19351926
0.08206497 0.04212775 -0.17678466 -0.18661457 -0.08267051 0.041302938 -0.085515514 -0.18360181
0.096788585 0.008255739 0.13571417 -0.011460564 0.15539281 -0.0011227741 -0.0030209965 0.08021948
-0.016572157 0.015408656 0.0093797045 0.0018778677 -0.0003921817 -0.0015215295 -0.0015835544 -0.062803924
0.06012952 0.14831312 0.069258995 0.048597045 0.04108098 0.15856798 0.0050478545 0.02627954
0.003150666 -0.042138584 -0.09120054 -0.106711954 -0.002390765 0.1610743 0.022776853 -0.041457992
1.8320039e-05 0.06688022 0.0767963 -0.1441465 -0.0053123026 0.024283044 -0.013326078 0.011654828
0.019190628 0.09332297 0.005663429 0.19681668 0.18106207 -0.03300975 0.17481272 0.0001564291
-0.12951815 -0.120842755 0.073900476 0.042942256 -0.033873804 -0.15307178 -0.005884265 0.11322879
0.060338818 0.055882595 0.06244079 0.15986878 0.1358454 0.028365167 0.13244374 0.058011062
0.02423122 -0.020419875 0.1369674 0.09486247 -0.00868394 0.019130725 0.03954335 -0.08513333
-0.09053423 -0.034844857 0.09365387 -0.1885448 0.010463471 0.025331758 -0.0064173886 0.0033567355
0.15104875 -0.08596153 0.01702955 -0.109105155 -0.030786853 0.17085838 0.0059233396 0.08551858
0.14748645 0.18406743 0.12658069 -0.12248677 -0.030684076 -0.031629812 -0.13202687 -0.07731208
0.009725125 0.020899443 0.167796 0.1684961 0.15090804 -0.07178252 0.006708587 0.010756353
0.15199134 0.14539374 0.012885205 0.13590454 -0.07390077 -0.015913133 0.07936127 0.0055124434
-0.217909 0.18079863 0.10643246 0.06420533 -0.15854463 -0.106008865 0.0015544643 0.18177257
0.056140248 0.071194865 0.1475137 0.040464446 0.15716146 0.09200353 -0.1205463 0.052982774
0.09406734 -0.00033510476 0.017862082 0.0039248406 0.12947404 0.0009767882 -0.000109861365 -0.05797378
0.15194717 0.013920393 -0.120216526 -0.043399435 -0.0010831718 0.0011579691 0.0008213542 0.15085627
-0.1375097 -0.17571989 0.009236147 -0.03334627 0.049582835 0.022856621 -0.0006893375 0.010308716
0.12530997 0.044196278 -0.11338726 -0.1532289 0.009365628 -0.0123156505 0.047937423 -0.0028263314
-0.000229563 0.019602591 0.16106088 0.060806077 -0.1086739 -0.07543617 -0.01598425 0.008301247
0.103056364 0.12832761 0.0054348307 -0.120793626 0.15230085 0.00055436714 -0.21311823 0.001849791
-0.20123857 -0.15894109 -0.12413281 -7.95956e-05 0.0029777254 0.06569525 -0.0063919458 -0.20218146
-0.015859181 -0.0031382968 -0.056767754 -0.057596095 0.035683606 -0.18911672 -0.06980838 -0.18827724

nns.0.2.bias f4 [64]
00000000: 9520 6c38 428a 67ba 1065 89b8 6637 2b3a
00000010: 2c83 c1b8 a586 ddba e5d3 dbb9 9eb0 d73a
00000020: 32be 3c39 7141 34ba 2a91 463b 7830 ba39
00000030: 98b3 f1ba 7b86 7e39 dee4 543a a0a5 22b9
00000040: 9110 c43a d074 0c3a f34b 2d3c c941 843a
00000050: 191d a33a 720a 9139 f78c 4b3a a8ba fa39
00000060: fc04 51ba 1c98 9638 7c97 2cba 907a a3ba
00000070: ceb5 82b9 c8f9 1a3a 2ad0 5739 2642 d73a
00000080: c86f a9bb 64a6 67ba 706b dbba b6b8 2dba
00000090: b001 8b39 4921 bf38 16d0 d339 0288 36ba
000000a0: 7017 33ba 1bd0 2aba 2cd6 033a 61c4 9b39
000000b0: 8dc3 2dba 7160 1ab9 e3a2 83ba e9a7 ba39
000000c0: 48db 4d39 1c06 5c3b 57f4 cd39 617e db39
000000d0: 3828 1039 9bf5 3539 1b5f 1839 40a7 9639
000000e0: 7011 ce39 d7ea bcbb 12f3 05b9 84cc ffb9
000000f0: 7d2b b839 608c 563b bd6f 003a 4cb4 bbba
5.629713e-05 -0.00088325527 -6.5514934e-05 0.00065313873 -9.22739e-05 -0.0016901089 -0.0004192881 0.0016455834
0.0001799993 -0.00068762066 0.0030298927 0.00035512797 -0.0018440364 0.00024273426 0.0008121262 -0.00015511224
0.001495855 0.00053579826 0.01057719 0.0010090406 0.0012444585 0.00027664338 0.0007764841 0.00047822786
-0.000797346 7.18089e-05 -0.0006583852 -0.001247244 -0.00024930987 0.0005911854 0.00020581545 0.0016422912
-0.005170796 -0.0008836745 -0.0016740393 -0.00066269503 0.00026513403 9.1137896e-05 0.00040400092 -0.0006963016
-0.00068318006 -0.00065159955 0.00050291675 0.00029710217 -0.00066285656 -0.00014722512 -0.0010043051 0.00035601787
0.00019632012 0.0033572977 0.00039282694 0.00041865095 0.00013747893 0.00017353 0.00014531279 0.0002873484
0.00039304374 -0.0057653 -0.00012774419 -0.00048789766 0.00035127616 0.0032737479 0.0004899463 -0.00143207

nns.1.0.weight f4 [64, 64]
00000000: c348 32bd 22be 81bd 901c 42be 6e75 0e3e
00000010: efcb 0abe b164 a03d bcdc 8b3c 7701 85bd
00000020: 1cd1 b1bd 3533 673d 3c0b 25bc 670d 183e
00000030: f908 f93d 604d 16bd dfe0 373e 767f 81bd
00000040: 6319 64be 29fb fcbd 544c 2dbe 4dd6 9f3d
00000050: cbbe 21bd 925c 293e 560c 40be 508d 8fbd
00000060: 04be 0a3d fa8f 6ebd c50b eebd 7e87 a2bd
00000070: b1ed 023b 21b6 eebd cfd1 af3a 51ec ed3d
00000080: 290f 26be 93a1 5bbb 00bd 3b3d a195 4cbe
00000090: 730e 783d cd6f 333d 5d86 b7bd f28a 8b3c
000000a0: 7e00 293d ce90 093e 9bef 3c3e 43e8 0dbe
000000b0: d94e b0bd e681 8f3d a2e2 a53d 4862 773c
000000c0: 9d24 f6bd 65f0 063e f2f9 b33d 3210 29be
000000d0: 013d e03c ce8d 143d ff04 13be 19d4 10be
000000e0: 49ca 0dbe 374b 803b 1769 f13d d5f1 443d
000000f0: 5048 0b3d e9b8 09be 9cb9 233d 7736 823d
00000100: 16e0 973c 00e3 c63d 9250 d73d 1695 6f3d
00000110: 372f 373e 8ea1 91bc a35e 9bbd fc04 0abe
00000120: 6b9c 1ebd e2fa abbd 499d b33d 658a 44bd
00000130: ec63 a8bd 7644 3ebe 1d32 563d bcf2 28be
00000140: b50d b03c 8d5c ffbd e390 adbd e34e 353d
00000150: 3cb3 bf3d ba64 c03b 4270 b63d dbaf 5b3d
00000160: 58f7 a7bd ef6d 04be b55d 9ebd 9256 77bd
00000170: b3fd d43d b2b7 a8bd f08a a83d 4512 103d
00000180: e88d 5a3d 56c1 65bc ffb9 aa3d a67e 99bc
00000190: d2d4 4cbc cf4f 923d a00f 86bc 93ad 94bd
000001a0: 266c 08be f864 04bd 31b8 493d e68d b63d
000001b0: e5b0 043e b42a 393e a54b 253d a71a 6dbd
000001c0: 257e b5bd 5a25 e3bd 63b7 803d e9ca 293e
000001d0: 6bca a5bc c3a7 283e c11e 77bd 4dd7 a93d
000001e0: 2673 173e 1b33 853d 0dd9 a7bc ae4f 1cbe
000001f0: 18df 403e f4ec 28be 65d5 273e 16d3 6a3d
00000200: 2ead 37be cc66 0e3e b3d3 82bd 8bbf 513e
00000210: 482e 063e e7dd 75bc c2a4 ba3b 873f 133e
00000220: f700 acbb b485 4abe fcf2 2dbe a4f4 70ba
00000230: 618a 75bd 5a60 1c3e 448f 25be 3a1c ba3d
00000240: 4a87 1e3e c38e 88bd a90a 2f3e 283d 0fbe
00000250: be8f 4bbe b14b bdbd e603 28be 96ec 18ba
00000260: 885c 053e 79a9 5b3c ef68 12be 28b9 133e
00000270: 923c 52bc a5a7 203d 0e65 913d 81ce 083e
00000280: c239 8e3c cfe2 86bd 8e55 29be 35f8 f7bd
00000290: c1a2 ee3d 92dc b0bb 9e08 cbbd 89f7 2e3e
000002a0: 061d a7bd 8558 0abe b822 98bd 9ac1 81bd
000002b0: f1f1 3ebc 26b0 c83d 7ede 2fbe 33b0 0c3e
000002c0: 4094 543c b4eb 633d 45b1 efbd f1a2 aa3d
000002d0: bbdd 88bd 2187 15bd ee46 2a3e 0991 afbd
000002e0: 50d4 5bbe 7699 b6bd 64d5 913d 8541 403e
000002f0: fd3f 0f3e 6a90 31be 6bb6 a03c 04c0 9c3c
00000300: 6209 ffbd e68b a33d a14d 8dbd a46f 23be
00000310: 0209 c23d 093a 5d3d 3a66 dabd 0552 363e
00000320: cc1b b03d b86f a9bc c2b9 a4bc 6690 f3bd
00000330: aed4 78bd 8308 493d 89d1 91bc b72b 76bd
00000340: 5e81 393e 9e87 89bd fd05 a33d b055 74bd
00000350: 9a2d 18be 8156 213c fa4e c0bc 9f47 143e
00000360: 28b8 023e 894e 37be 3731 4c3c 3d0e 85bc
00000370: 1e2c 35be c10a 10be 13ef da3d 95e0 9fbd
00000380: bbfd 21bd be43 a83d 2ec1 e63d dd3c 0c3e
00000390: a5b3 4fbe ef3b 433e d2cc 453d 7899 adbd
000003a0: 0d2f f83c e0af a2bd a8f9 2f3e 71b9 39be
000003b0: 3803 01be ff18 9c3d d7cd 043e 2094 72bc
000003c0: 4804 673e 9826 2ebe 5f9c c0bd f774 e8bd
000003d0: 6ed6 313e 8d71 273c 335d 083e 7828 2abe
000003e0: 8c15 123e d08f 7abd 5631 a0bd 76ed 36be
000003f0: 0590 debd 66e5 30be 67c3 2fbe 54b4 323d
-0.043526422 -0.06335093 -0.18956208 0.13911983 -0.13554357 0.07831705 0.017073028 -0.0649442
-0.086824626 0.05644532 -0.010073479 0.14848863 0.121599145 -0.036694884 0.17956875 -0.06323139
-0.2227531 -0.123525925 -0.16923648 0.078045465 -0.039488595 0.16539219 -0.18754706 -0.07009375
0.03387262 -0.058242775 -0.116233386 -0.07935999 0.00199781 -0.11655832 0.0013413968 0.116173394
-0.1621672 -0.0033513054 0.04583454 -0.19978954 0.060560655 0.043807793 -0.08961175 0.017034028
0.041260235 0.13434145 0.18450777 -0.13858132 -0.08608789 0.07007198 0.080998674 0.015099116
-0.12018702 0.1317764 0.08787908 -0.16510084 0.027372839 0.036268048 -0.14357375 -0.14143409
-0.13846697 0.0039152163 0.117876224 0.04808219 0.03400451 -0.13449444 0.039971933 0.063580446
0.01853947 0.097112656 0.105134144 0.05849179 0.17889105 -0.01777723 -0.0758641 -0.13478464
-0.03872339 -0.083974615 0.08770234 -0.047983546 -0.082221836 -0.18580803 0.052293885 -0.16498846
0.021490911 -0.124688245 -0.084749006 0.044264685 0.09360358 0.0058713825 0.0890813 0.053634506
-0.08201474 -0.12932561 -0.07732717 -0.060385294 0.10399952 -0.08238162 0.08229625 0.035173673
0.05335799 -0.014023146 0.08336257 -0.018737148 -0.012501912 0.071441285 -0.016364872 -0.07259669
-0.13322505 -0.032322854 0.049247924 0.08913784 0.12958105 0.18082696 0.040355343 -0.057886746
-0.08861951 -0.110911086 0.06284978 0.1658131 -0.020238122 0.16470246 -0.060332064 0.082930185
0.1479002 0.06503888 -0.02048924 -0.1526477 0.18835104 -0.1649664 0.16389997 0.057330213
-0.17937157 0.13906401 -0.06388035 0.20483224 0.13103592 -0.015006519 0.00569591 0.14379703
-0.0052491385 -0.19777566 -0.16987222 -0.0009191728 -0.05994642 0.1527113 -0.16167933 0.09087415
0.15481296 -0.06667855 0.1709391 -0.13988173 -0.19879052 -0.092429526 -0.16407737 -0.0005833594
0.13023579 0.013407105 -0.14297841 0.144261 -0.012831824 0.03922238 0.07099353 0.13360025
0.017361525 -0.06586229 -0.16536543 -0.121078886 0.116521366 -0.005397388 -0.09913753 0.17086615
-0.08159833 -0.1351033 -0.07428497 -0.06335755 -0.011654363 0.09799223 -0.17174718 0.1373909
0.012974799 0.055644706 -0.11703733 0.0833186 -0.06682917 -0.036505822 0.1662862 -0.08572585
-0.2146771 -0.08915989 0.07120779 0.18774994 0.13989253 -0.17340246 0.019618234 0.019134529
-0.124529615 0.07985668 -0.06899572 -0.15960556 0.09474374 0.054010425 -0.106640294 0.17804725
0.08599052 -0.020683154 -0.020108107 -0.11892776 -0.060749702 0.049080383 -0.01780011 -0.060100283
0.18115756 -0.0671532 0.079601265 -0.05965203 -0.14861146 0.009847284 -0.023475159 0.14480446
0.12765563 -0.17901053 0.012462906 -0.01624214 -0.1769261 -0.14066602 0.10690131 -0.078065075
-0.039548617 0.08216046 0.11267315 0.13695092 -0.20283373 0.19065832 0.048291035 -0.084765375
0.030295873 -0.07943702 0.1718508 -0.18137147 -0.12598884 0.07621955 0.12969147 -0.014805824
0.22560227 -0.1700691 -0.094048254 -0.11350434 0.17366955 0.010219944 0.13316803 -0.16617
0.14266032 -0.061172307 -0.0782191 -0.17864022 -0.10867313 -0.17275009 -0.17164384 0.043629006

nns.1.0.bias f4 [64]
00000000: fbd4 6e3d ddd8 d93c 1cb5 b93c 4390 fd3c
00000010: ced8 bc3b a08a 473d 95a6 883c 21bb e13c
00000020: 6ffb d8bb 4092 02bd 7e21 143d 83ec 6fbc
00000030: 18b3 5ebd bcf4 983b 6a30 923b fdd4 abbd
00000040: e657 a93c 3ba5 20bd 77e7 9c3d 8b24 8b3d
00000050: 38d6 8039 b70c 833c 4fd8 f93b 27f6 4fbd
00000060: 1c6d 29bd ff65 76bd cdc7 db3c 1c8e 03bd
00000070: f081 0d3d cfa2 993c e33b bc3c 51b8 a13c
00000080: 62f1 91bd 0e78 743d f9a8 0ebd d435 3cbc
00000090: f131 973d fdfc 0bbd 66d3 90bd 619f 30bd
000000a0: ba44 083c 89aa d33c 767e 73bd 2e56 23bd
000000b0: 3e20 0fbd 7037 d43c 022d d3bb 5a62 533c
000000c0: c59e da3c 426c 193c 8ca2 b43c 021f 17bd
000000d0: 4383 b8bb 594a 2dbd 58a0 e03c 362a 84bc
000000e0: f942 c43c c7f9 d33c d6d6 9c3d 829c 393d
000000f0: 02ac 8fbc 4a4f 30bc e158 573d 5840 45bd
0.058308583 0.026592666 0.022669367 0.030952578 0.00576315 0.048716187 0.016680995 0.02755505
-0.00662177 -0.031877756 0.036164753 -0.014643791 -0.054370016 0.0046678465 0.004461338 -0.08390234
0.020671796 -0.039220076 0.07661336 0.067940794 0.00024573668 0.015997274 0.007624663 -0.05077186
-0.04136382 -0.060155865 0.02682867 -0.032117948 0.034547746 0.018754391 0.022977775 0.01974121
-0.07126118 0.059684806 -0.034829114 -0.011487443 0.073825724 -0.034176815 -0.07071571 -0.043120746
0.008317167 0.025838153 -0.059446774 -0.03987711 -0.034942858 0.02590534 -0.0064445743 0.012901867
0.026687035 0.00936419 0.022050165 -0.036894806 -0.005630882 -0.04230723 0.027420208 -0.016133409
0.023957716 0.025875939 0.07658164 0.045315273 -0.017538074 -0.0107610915 0.052574996 -0.048157066

nns.1.2.weight f4 [64, 64]
00000000: 2d79 203d c70c 0f3d 412c c83d 372b ad3d
00000010: 2dfe 4abd 7c1f 12bd 0818 a9bd f101 3b3d
00000020: 376b 2b3e 6b6e 033e 1331 e5bd c285 d1bd
00000030: ad15 c63d 11fa 66be 641a 2bbe 17a1 e83c
00000040: 655c 0fbe 430a 9b3d 23c2 c93d 1f8b 1ebe
00000050: 0bcf 133d 3180 c03d 9b5f c43d e37b a6bc
00000060: b580 82bd a991 4c39 9672 51bd 993d 6c3d
00000070: 0e9b 153e fd8c 24be d1b2 1c3e 1894 23bd
00000080: 27c2 b2bb 1f53 cfbd aba0 163e c0d5 09bd
00000090: 16f2 76bd 909e 3b3d 7fec cabc 03be 65bc
000000a0: a7d0 823d 01e9 2c3d 9a7d eb3d dfc6 283e
000000b0: 95d2 103e cbf4 25be 1149 83bd 40a9 1abe
000000c0: bb33 d0bd 6dd5 00be 18e5 87bc 544a 22be
000000d0: 5be1 27bd 2d1a 96bd 8078 72bd 1ba8 35be
000000e0: faef be3d d605 1d3e 83e1 713c 7796 37be
000000f0: 623c eb3d faf7 4b3d 7de6 41be aad3 8a3d
00000100: a0be 14be cce5 1a3e cbab 57bd 20ff 22bd
00000110: 4505 c03d 6327 4f3d 09b5 a93d 60eb 353e
00000120: 75a8 333e fc8d 8ebd 5d11 16be bded de3d
00000130: 94dd afbd 6aa3 8e3d 4a3c cabd e935 a9bd
00000140: c314 943d c93a 323d 1ab3 fabd 658e 9ebd
00000150: bcce 85bc 5d3c 95bd 65ae 443e fc92 7b3d
00000160: 51aa 8dbd e4eb 1b3e 20e3 0cbe 7ed2 5cbc
00000170: 8ce8 043e d1a5 1c3e 5899 2abe 9cca 343e
00000180: a5eb d6bd b614 3bbe ef66 2e3e 595e 833d
00000190: 746c 2cbe bced 1f3e 06bd 873d bc61 0ebd
000001a0: 81a4 6d3c 5ecf 213d 1d20 2cbe 28f4 3ebe
000001b0: 1fda a6bc 9908 4bbd 1d0d 113e 83ab ba3d
000001c0: fb80 063c 0ce5 1ebe 0879 2b3e 3466 9c3d
000001d0: b090 02be e20c adbd ee8b e63d 865b cfbc
000001e0: b6fe 2e3d 92db 9abd 61bf 32bd 0382 0fbd
000001f0: 028d 133e 89a9 4cbe 215b a0bd 5652 30bd
00000200: 4bb6 29be d9b4 213e fdd1 e2bc fde7 133e
00000210: c5f7 983d 5496 1a3e 95f7 cabc f0e5 5bbc
00000220: e0e8 26be c4b4 073e 84b3 ec3c 4e7b b83d
00000230: 728f bfbd 4a2b 3a3e 12c6 4a3c 9e2e 73bc
00000240: 0243 35be 34e6 bd3d ed36 723d 1f96 cc3b
00000250: 5ac4 07be eefd 3dbe 421c e4bd 7455 0f3d
00000260: ea86 ec3d 751a bf3d 21ca df3d 8258 243e
00000270: b5e3 6a3d 7c46 033d b604 073e 2d71 c83d
00000280: e99f dc3d 6880 1f3c 9457 f3bc a957 04be
00000290: f5a4 113e 5561 9abd f7d4 5abc 77ac 0a3e
000002a0: 715c a43d 1dc8 a8bd 55fc 683d a403 a93d
000002b0: 1198 033e 44b9 b33d 461d eabd 9860 c2bd
000002c0: ea4f d2bd cb31 af3d 61c2 163e d6d9 f03d
000002d0: caa4 943c 4bf6 4b3e 629a 153e 90c4 f7bd
000002e0: 371b d53d cd29 23bd a2f1 0bbe eaec f6bd
000002f0: c23d 353e 98e4 d13d 4d4b 88bd 1114 313d
00000300: 86be 213d 6960 673d f746 a33d 78ae 2c3d
00000310: d803 12be ebcd 02ba c6dd f8bc 3b6c 17bd
00000320: 9c3a 4c3e 1a77 f63d 0f2f 30be 522d 1fbe
00000330: cd7d a83d 59b4 2b3e c639 2fbd 8b59 b6bd
00000340: ebc9 d63d 011c d43d db2c 35be 769d dc3d
00000350: de7f bf3d 530d a63d 40d4 0bbe f11c 3ebc
00000360: 13c0 91bd 1298 f3bd 5ce3 a83d 1d23 92bd
00000370: f18d 633d 1c1f 9d3d 771f 0f3c 74d6 a93d
00000380: 6913 37be 0430 47be 8b30 07bc d81a c0bd
00000390: 7ed7 ab3d 4a06 05be d157 d4bd aee5 4bbd
000003a0: 2272 14be a9a7 d03d 45a6 fa3d f44e 2c3e
000003b0: f2ea 68bd 9f08 dabd d86c e53d 7f62 35be
000003c0: b4e0 a53d a7ec 093d 86f4 7fbb 5aa9 863c
000003d0: a7ee 183e 361a 41be 79f8 bf3d 2087 45be
000003e0: d8c5 0c3d 1866 343e ce68 21be 9158 d23c
000003f0: 8160 fa3d e675 8f3d fecc 4dbe 1411 2c3e
0.039178062 0.034924295 0.09774066 0.08455508 -0.049558807 -0.035674557 -0.08256537 0.04565615
0.16740118 0.1283509 -0.11191001 -0.102305904 0.09672103 -0.2255633 -0.16709286 0.028397126
-0.1400009 0.07570317 0.09851482 -0.15482758 0.036086123 0.093994506 0.09588548 -0.020322746
-0.06372205 0.00019509219 -0.05113467 0.05767593 0.1460993 -0.16069408 0.15302588 -0.039936155
-0.0054552737 -0.10123276 0.14709727 -0.033651114 -0.060289465 0.045805514 -0.024770973 -0.014022353
0.063874535 0.042214397 0.11498566 0.16482113 0.1414283 -0.16206662 -0.06410421 -0.15103626
-0.10166117 -0.12581415 -0.016588733 -0.15848666 -0.0409864 -0.073292114 -0.05919695 -0.17739908
0.09323116 0.15334257 0.014763239 -0.17928492 0.114861265 0.049797036 -0.1893558 0.06778653
-0.14525843 0.15126723 -0.05265407 -0.039794087 0.09376005 0.05057467 0.08286483 0.1776557
0.1754473 -0.06960675 -0.14655061 0.10885189 -0.085871845 0.069647625 -0.098747805 -0.08262236
0.072305225 0.043513093 -0.12241192 -0.07742003 -0.01633393 -0.07286904 0.19207151 0.061419472
-0.06917251 0.15226704 -0.13758516 -0.01347792 0.12979335 0.15297629 -0.16660058 0.17655414
-0.104941644 -0.1826962 0.17031454 0.0641448 -0.16838247 0.15618032 0.0662785 -0.034761176
0.014504553 0.0395044 -0.16809125 -0.18647826 -0.02036768 -0.049568746 0.14165159 0.091147445
0.008209462 -0.15517062 0.16745389 0.07636681 -0.12750506 -0.08449723 0.11257158 -0.025312196
0.04272338 -0.07561411 -0.043639544 -0.0350361 0.14409259 -0.19986548 -0.078298815 -0.04304727
-0.16573445 0.15791644 -0.02768802 0.14443965 0.07469133 0.15096408 -0.02477626 -0.013421521
-0.16299772 0.1325255 0.028894193 0.090078935 -0.09353532 0.18180576 0.012376325 -0.014842657
-0.17701343 0.092724234 0.059134413 0.0062434818 -0.13258496 -0.18553898 -0.11138202 0.034993604
0.1154917 0.09331218 0.10927225 0.16049388 0.057346065 0.03204964 0.13185391 0.097872116
0.10772688 0.009735204 -0.029704846 -0.12924065 0.14223082 -0.07538096 -0.013356439 0.13542353
0.08025444 -0.082412936 0.056881268 0.082526475 0.12850977 0.08775571 -0.11431365 -0.0949108
-0.10269149 0.08554419 0.14722587 0.11760299 0.018144984 0.19918172 0.14609674 -0.12098038
0.104055814 -0.039834786 -0.13666394 -0.120569065 0.1769934 0.10248679 -0.066549875 0.043232027
0.039488338 0.05648843 0.0797252 0.042158574 -0.14259279 -0.00049897906 -0.030379187 -0.03696845
0.19944233 0.120344356 -0.17205451 -0.15544632 0.082271196 0.16768016 -0.042779706 -0.08903798
0.104877315 0.10356904 -0.17692892 0.10772221 0.093505606 0.0810801 -0.13655186 -0.01160358
-0.071167134 -0.118942395 0.0824649 -0.071356036 0.055555288 0.07671949 0.008735529 0.08292857
-0.17878498 -0.1945191 -0.00825132 -0.0938012 0.08390711 -0.1299068 -0.10368312 -0.049779586
-0.14496663 0.10188229 0.12238745 0.16826993 -0.056864686 -0.106461756 0.11202401 -0.17713355
0.08099499 0.033672955 -0.003905566 0.016438175 0.14934789 -0.18857655 0.09373564 -0.19289827
0.034368366 0.1761707 -0.15762636 0.025676997 0.12225438 0.07004909 -0.2009773 0.1680339

nns.1.2.bias f4 [64]
00000000: 180b 033b ad1b 97b9 2a5d 2939 87e4 aaba
00000010: 7f9a 9bb9 c801 6237 f83a 4e38 f2ff 6fb8
00000020: 7f7a ff39 b965 dd39 2141 1cb8 3f7a 04b9
00000030: 3992 7c38 249e 74ba 0c71 0ab9 32b6 e3b6
00000040: 9e75 baba c7a8 4538 43ea 60ba b095 2ab9
00000050: 7c54 33b8 0415 7f39 6ba1 9a3a 9948 aeb8
00000060: 0dc9 6bba c725 7739 1874 94ba a21d 883a
00000070: 88c4 e439 3360 d4b9 bbab 9f39 7b33 31ba
00000080: 9745 c939 f281 e0ba 3a76 1339 f49a 04b9
00000090: a8f3 97b8 b40d 173a 9b42 b2b9 7f82 b8b8
000000a0: e733 373a 8b70 c2b9 2c41 aa38 31d4 6e39
000000b0: 9c7d c839 1e67 7139 1957 0e3a cccc 62b9
000000c0: 8582 76b9 0198 0dba 03e7 a6b9 3434 49ba
000000d0: 56bc bc3a ef59 0537 527a f5b9 5109 8239
000000e0: fba7 e838 0af7 c938 ce0c 9bb9 9049 d73a
000000f0: 4665 85ba c0ec 63ba 56c4 d2ba 5242 8037
0.0019995626 -0.00028821584 0.00016151802 -0.0013038077 -0.00029679012 1.3471064e-05 4.9169146e-05 -5.7220408e-05
0.00048728657 0.00042228194 -3.7253954e-05 -0.00012634041 6.0217662e-05 -0.0009331426 -0.00013202819 -6.7863375e-06
-0.0014225726 4.7125646e-05 -0.00085798296 -0.00016268226 -4.2755608e-05 0.00024326524 0.0011797374 -8.310489e-05
-0.00089944975 0.00023569829 -0.0011326103 0.0010384808 0.00043633976 -0.00040507465 0.00030454792 -0.00067596853
0.00038389556 -0.001712857 0.00014063055 -0.00012646226 -7.2456256e-05 0.0005762235 -0.0003400043 -8.7981105e-05
0.000698863 -0.00037086415 8.118371e-05 0.00022776496 0.0003824056 0.00023021965 0.00054298487 -0.00021629332
-0.0002350901 -0.00054013735 -0.00031834104 -0.00076753204 0.001439939 7.948357e-06 -0.00046821177 0.00024802473
0.00011093911 9.6304415e-05 -0.00029573444 0.0016425122 -0.0010177277 -0.00086946413 -0.0016080241 1.5289672e-05

nns.2.0.weight f4 [64, 64]
00000000: 87c4 0b3e 7e46 78bd 6a00 1e3d 235b a5bd
00000010: 063a 08be 6c11 b63d 74b3 3c3d 87d9 46bd
00000020: a487 d8bd 9dc6 fe3d 809a 27be 6258 d93d
00000030: 44b8 6d3d 9306 843d 61f9 143e 3d80 eb3d
00000040: 96b4 973d 5194 bebd 62a3 b4bd 0137 b13d
00000050: 310b 50bd bdb7 98bc d0c4 e63d 8896 c53d
00000060: 3e50 eebd 6e06 013e 754c 48bd 5ecd 3ebc
00000070: be08 d13b e921 d4bd aae5 ce3c cd8e 8abd
00000080: a07b dd3c 28f5 e8bc 7689 933d 4680 623d
00000090: 1038 23bd 9399 27be c198 80bd 1089 06be
000000a0: ecdf 1a3e 8ed6 823d 310f 1ebe dd9a 5fbd
000000b0: 3376 e33d 93f3 c8bd eadf ef3d 5e56 8ebd
000000c0: bf85 843c 6484 783c 15aa 8b3d 86e7 8c3d
000000d0: 4d64 03be bd6a 9c3b acd6 1cbd d996 d1bd
000000e0: 9cc0 443e 2349 973d f375 2c3e 25f8 29be
000000f0: 3e24 27bc 6e7c b53d 62d4 c03d bde8 07be
00000100: ea80 92bd c703 d6bc 8ed4 283e 5c8e b0bd
00000110: e730 82bd e841 59bd e904 513d ad12 68bc
00000120: 4724 e43c 6f89 0ebe eb8c 8e3c c51b f5bc
00000130: d7d2 453d 2dc1 b3bd 944e e8bd bbf8 d6bd
00000140: f6a4 cc3d 01ec dd3c 2401 d23d 09e4 923a
00000150: 7008 813d 241f 8a3d be02 06be 8ee7 033e
00000160: bb94 d5bd 9a0b c2bc c525 e33d ea06 03be
00000170: 9e3e 843d 0128 b1bd 8158 e2bd b8c4 e43d
00000180: 4826 ca3c 5ff6 10be 7f41 64bd 430a 383d
00000190: f503 f3bd 2183 dc3d 2115 a43d a931 91bd
000001a0: 1f88 be3c 5c90 973d 291c 98bd 5c0d 1ebd
000001b0: 27a7 c7bd cd41 063d e118 09be bc6a a63d
000001c0: f012 cbbc 23b3 ee3d d127 eb3d b2df 003e
000001d0: d2da 0f3c ce54 353e a105 793d 9d10 27bd
000001e0: d2a0 933d 05ae 4e3c a099 863d c2ed 293e
000001f0: 7b8f 083d bb9d 0cbd c131 c33c f9fc a33d
00000200: ec9e 293e d2ca 0fbe 08b0 e1bd c43d 593d
00000210: 7a8c 893b b823 763d 4190 283e 3c55 51bd
00000220: 9dee 22be 9560 30be 385d f53d 7466 e1bd
00000230: 72a6 49bd 8d3c d73d 27b6 343d c212 cdbc
00000240: 5238 3bbe 7150 b83c ffb5 a83b 9d2b c03c
00000250: e362 c3bd 3ee3 703d 2f9c 243e 57b8 a0bd
00000260: e0cd d53d 66b0 303d 6d67 d43c e5de 373e
00000270: 9967 843d 7add efbd b177 4abe 07e4 413d
00000280: 7a0e c33c 4f77 d4bd 41e7 eabd 8988 243d
00000290: 9096 173e 7550 4abe f8c2 0ebe 8a10 5c3d
000002a0: f17f 2d3e 6e0a 1cbe 383f 343c f08e 42be
000002b0: f34e 27be 6c2b bb3d 860e c73d 735b 1b3e
000002c0: 7c34 243c 93fe 0b3e 7f86 863d e4e3 1dbe
000002d0: 58b9 8abd d869 c43d c7e3 c03d 8e1f 26bd
000002e0: c52c 68bd ba12 18be 8019 5fbd 1873 a8bd
000002f0: 64ee d93d 1251 49bc d0ca 63bd dc97 f2bd
00000300: 283f 113e cf37 c63d 179c 77bc 8d14 6cbd
00000310: 0036 1b3d 01fb 15bd 68b6 36bd de67 b43d
00000320: 43d8 6cbd 2565 243e 3831 d7bd aa5a ec3d
00000330: 5ac8 2ebe b428 dfbd db6c 073c 69f7 07be
00000340: e887 033e 37f9 e2bc 2c43 86bd f75c 21be
00000350: 32e8 0ebe 31b5 093e 9e7d d4bd fa63 0abe
00000360: 2a30 f4bd ab9e 313e 8af3 0a3e 1ad4 6dbd
00000370: ead7 21be 5213 ed3d bf7a ee3c 7efb 903d
00000380: 357a 1c3e da1c fe3d e5b9 f83d ee9b 94bd
00000390: 9ba9 26be a463 7d3d f1da 063e be91 4cbb
000003a0: 5575 ddbd 7d80 8e3d 3237 95bc 5641 14be
000003b0: a4c9 0aba 7a09 d5bb 6b97 c5bd ee4a 1a3d
000003c0: 7678 053e f852 da3d b2fc 05bd 02c4 dbbd
000003d0: ba05 3bbe fea3 843d ca2c 163e 8de1 4cbb
000003e0: a7d9 6f3c f83f 073c eb3c 253d d647 b53d
000003f0: a0c1 58bd 0372 503d cccf 983c af77 cabd
0.13649188 -0.0606141 0.038574614 -0.080740236 -0.13303384 0.08890042 0.046069577 -0.048547294
-0.105727464 0.12440226 -0.16367531 0.10612561 0.058037058 0.064465664 0.14548256 0.11499069
0.07407491 -0.09305633 -0.08820225 0.08653069 -0.050791923 -0.0186423 0.11268008 0.09647852
-0.11636399 0.12600109 -0.04890104 -0.011645643 0.006379216 -0.1035803 0.025255997 -0.06765518
0.027036488 -0.028437212 0.07203953 0.055298112 -0.039848387 -0.16367178 -0.062791355 -0.13138223
0.15124482 0.06388579 -0.15435483 -0.05459105 0.11106529 -0.09812083 0.1171263 -0.06950067
0.016177056 0.015168283 0.0681955 0.06880097 -0.1283123 0.0047734664 -0.038290665 -0.1023385
0.192141 0.073869966 0.16841869 -0.16598566 -0.010201512 0.08861624 0.09415509 -0.13272376
-0.07153495 -0.026124848 0.16487333 -0.08620903 -0.06356984 -0.05304137 0.051030073 -0.014164609
0.02784933 -0.13919614 0.01740118 -0.029920468 0.048296776 -0.0877708 -0.113431126 -0.1049666
0.09992401 0.027090074 0.10254124 0.0011206876 0.063004375 0.06744221 -0.13086984 0.128813
-0.10428759 -0.023687173 0.11091188 -0.12795606 0.06457256 -0.08650208 -0.11052037 0.111703336
0.024676457 -0.14156483 -0.055726524 0.04493166 -0.11865989 0.10767198 0.080118425 -0.0708955
0.023258267 0.07400581 -0.07427246 -0.03858696 -0.09748679 0.032777596 -0.13388397 0.08125827
-0.024789304 0.11655261 0.11482204 0.12585333 0.008780198 0.17708132 0.060796384 -0.040787328
0.072084084 0.012614732 0.065722704 0.16594604 0.03333996 -0.03433011 0.023827435 0.08007235
0.1656453 -0.14042214 -0.110199034 0.05303742 0.0041976543 0.060092658 0.16461278 -0.051106676
-0.15911336 -0.17224343 0.11980671 -0.110058695 -0.049231 0.10509596 0.044119027 -0.025033358
-0.18283203 0.022499295 0.0051486488 0.023458296 -0.095403455 0.058810465 0.16075204 -0.0784766
0.10439658 0.043136977 0.025928224 0.17956121 0.06465072 -0.11712165 -0.19772221 0.047336604
0.023810614 -0.10374319 -0.114698894 0.040169273 0.14803529 -0.19757254 -0.13941562 0.05372671
0.16943337 -0.15238354 0.011001401 -0.18999839 -0.1633871 0.091391414 0.09719567 0.15171604
0.010022279 0.13671331 0.06568622 -0.15418965 -0.06773633 0.095905006 0.09418445 -0.040557437
-0.05668332 -0.14850894 -0.054467678 -0.082250774 0.106411725 -0.012287395 -0.05561334 -0.11845371
0.14184248 0.096786134 -0.015112898 -0.057636786 0.037893295 -0.03661633 -0.04460755 0.088088736
-0.05782343 0.16054209 -0.105074346 0.1154073 -0.17068616 -0.108964354 0.008265699 -0.13277973
0.12844813 -0.027706726 -0.06555781 -0.1575812 -0.13955763 0.13448025 -0.10375522 -0.135147
-0.11923249 0.17345683 0.13569465 -0.058063604 -0.15805021 0.11575951 0.029111264 0.07079218
0.15280993 0.12407847 0.121448316 -0.07256304 -0.16275637 0.061862603 0.13169457 -0.0031214799
-0.10813395 0.06958101 -0.018214796 -0.14478049 -0.0005294329 -0.006501374 -0.09648021 0.037669115
0.13034233 0.10660356 -0.032711692 -0.10730745 -0.18263903 0.064765915 0.14665523 -0.0031262368
0.014639295 0.008254997 0.0403413 0.08851592 -0.05291903 0.05088998 0.018653773 -0.09886109

nns.2.0.bias f4 [64]
00000000: 2ff0 1b3c c5eb 3c3d fba5 c03b 05d4 6bbc
00000010: 05bb 6e3c 53cd 7b3c 11fc 243c 5531 6cbd
00000020: 007a 55bc 419a c73b b3ac 19bd 49e8 c63c
00000030: d5bc 91bc efac d53b 3fdc 4fbd c179 0cbc
00000040: 824f b93c 89e4 56bc f438 33bd 9f3a 17bd
00000050: 3908 f23c 7e6a 8c3d f2bc 30bd f0eb 6a3c
00000060: 15be de3c 9557 363c 1540 05bb 9ddc a03b
00000070: 7a3e c53c 8175 0a3d 662d f63c 7587 e73c
00000080: c391 06b9 9202 5c3c 5afd 153d 6414 b0bc
00000090: dec2 13bc 19e7 7cba 2118 febc 2b69 413c
000000a0: 740f 1b3d 4e8c 0d3d 8960 573c 0762 553c
000000b0: ccdc 27bb f659 4aba 74cc 56bd 6e14 333c
000000c0: 0f33 67bd f3b8 2c3d 6232 bfbc 6172 563b
000000d0: 355c 103d be15 20bb 8522 8bbc 5507 4cbd
000000e0: 51c9 0ebd 00a7 a2bc 6084 ca3c 1c16 6ebb
000000f0: a6bb 94bc 7a82 693d 9e14 103b 7338 ba3c
0.009517713 0.046123285 0.0058791614 -0.014393811 0.014570956 0.015368777 0.010069863 -0.057664234
-0.013029575 0.0060913865 -0.037518214 0.024280684 -0.017790237 0.0065208594 -0.050747152 -0.00857395
0.02262092 -0.01311601 -0.043755487 -0.03692114 0.029544936 0.06856249 -0.043148942 0.014338478
0.027190248 0.01112928 -0.0020332385 0.0049091117 0.024077643 0.033803467 0.030050945 0.028262833
-0.00012833536 0.013428347 0.036618568 -0.021494098 -0.009018628 -0.00096474733 -0.031017365 0.011804859
0.037856534 0.034557633 0.013145574 0.01302386 -0.0025613783 -0.00077190937 -0.052441075 0.010930164
-0.056445178 0.04216857 -0.023339454 0.0032721984 0.035244185 -0.0024427022 -0.016984234 -0.04981168
-0.03485996 -0.019855022 0.024721324 -0.0036329096 -0.018155884 0.057009198 0.0021984945 0.022731995
