weight/IMDB-BINARY/Client_9.pth (torch, 260953 bytes, 24 tensors)

bns.0.running_mean f4 [64]
00000000: 3470 3d40 af54 9b3f 2919 ddc0 1c80 1c40
00000010: eb65 85c0 368f dbc0 6ea7 16c1 6d88 bd40
00000020: cfc0 3240 d1b6 b740 5168 dfbe d15e 14c0
00000030: 67af 26c1 1a88 d3be 6384 94c0 58a1 f9bf
00000040: 20c2 a340 720f 2dc0 fc27 973f 643d e23f
00000050: e117 b5c0 ba73 3ac0 52a3 f040 a21c 3ac0
00000060: cac5 17c1 176f 2641 d496 2241 c0c0 9240
00000070: 2124 efc0 8a1a 77bf d467 b6c0 323f 6c3e
00000080: 7cf7 09c1 2560 c8c0 8807 a040 08a5 9d40
00000090: e8ec 3d40 7dc2 b7bf eb33 3c40 23a5 c240
000000a0: 4d0f c540 2e8c 24c0 71b7 5b40 3520 fdc0
000000b0: 9da3 05c1 a894 e7c0 9348 11c1 48b1 20c0
000000c0: e2d0 66be 487d 50c1 aacc 53c0 f89b 15c0
000000d0: 757f e13f fd91 95c0 afdd 75c0 ea45 7d3f
000000e0: 4d87 5340 5c5c 28c0 18fc dec0 625f 93c0
000000f0: 159f 3940 8e73 2240 42df b440 b325 cbc0
2.9599733 1.2135218 -6.9093213 2.4453192 -4.168691 -6.861232 -9.415876 5.9229035
2.793018 5.7410665 -0.43634275 -2.3182871 -10.417823 -0.41314775 -4.6411605 -1.9502363
5.117447 -2.7040677 1.1809077 1.7674985 -5.659165 -2.9133134 7.5199366 -2.9079976
-9.485788 10.402122 10.161823 4.586029 -7.4731603 -0.9652487 -5.7001743 0.23070982
-8.622921 -6.2617364 5.0009193 4.9263954 2.9675846 -1.4356228 2.9406688 6.0826583
6.158118 -2.571056 3.4330714 -7.9101815 -8.352445 -7.2368965 -9.080218 -2.5108204
-0.2254062 -13.030586 -3.3093667 -2.3376446 1.7617022 -4.674071 -3.8416555 0.98934805
3.305133 -2.6306372 -6.968273 -4.6053934 2.9003346 2.538303 5.652253 -6.348352

bns.0.running_var f4 [64]
00000000: 9e07 0f3f 83af 2d3d f32f 1440 2f77 0e3e
00000010: d8c3 8b3f 8346 e63f 1ff9 9640 619f 1840
00000020: f8b6 373e ce4e 7f3f 2da0 8f3e d388 2a3f
00000030: e165 4f40 d0ef 223e 8f2c 523f a9f4 d83d
00000040: fbf6 453f 425f 173f 3e8a 093f cdd8 ba3d
00000050: 19f4 2a3f 6b44 803e 2f08 0c40 a545 f13f
00000060: 7c30 a640 e63e 2340 fefe 2c40 d4be 393f
00000070: b334 2040 9b77 d73e 6ade df3f bbf6 d63e
00000080: 1ae1 0940 cf93 4240 8685 1f3f 625c f13e
00000090: a146 ae3f e959 533e 1dbc 1b3f 5fd5 5540
000000a0: 18de ac3f 2f07 9a3d e2bc 233f 5e27 0540
000000b0: 8933 0e40 fdc9 7d3f 629d 7840 53a6 9b3e
000000c0: 8bf2 5a3d 6940 ba40 e8d3 4e3f 7006 3a3e
000000d0: 29cb e53d 21a7 c83f 4bed dc3e b852 9c3e
000000e0: 4f89 913e 1d21 143f d68b f63f d7fc 9c3f
000000f0: 2633 613f 8156 653f 5530 833f 645f 833f
0.55871 0.04240371 2.3154266 0.13912652 1.0919142 1.7990268 4.7179103 2.3847277
0.17940891 0.9972962 0.28051892 0.6661503 3.2405932 0.15911794 0.8209924 0.1059354
0.7732999 0.59129727 0.53726566 0.09123383 0.66778713 0.250522 2.1879995 1.8849379
5.1934185 2.550714 2.7030635 0.72556806 2.5032165 0.4208344 1.748975 0.41985115
2.154364 3.0402715 0.62313116 0.47140795 1.3615304 0.20639767 0.60833913 3.3411481
1.3505278 0.075209014 0.6396009 2.0805278 2.2218955 0.99136335 3.884606 0.30400333
0.053453963 5.8203626 0.80792093 0.18166518 0.1122039 1.5676004 0.4314979 0.3053186
0.2842507 0.57863027 1.9261425 1.2264661 0.8796867 0.8958512 1.0249125 1.0263486

bns.1.running_mean f4 [64]
00000000: d287 aec0 613e 2140 feab 8fc1 a838 b141
00000010: 4c26 2cc1 0f4b 1340 7c71 b541 7b87 dbc1
00000020: 9fa9 7bc1 6bae 1a42 8d5e 24c1 6b83 66c1
00000030: ce7a c141 c49d f441 9f35 4941 a085 c3c1
00000040: 3b52 ad41 a136 c441 5d58 c441 5909 51c2
00000050: c967 7c41 f646 0cc1 53ba 27c2 dde7 ed41
00000060: 730d 1f41 ea12 abc1 e2c9 aac1 f202 1942
00000070: 2e2b 8fc1 9c14 0a42 375a 483d 5b3f 943c
00000080: cbcd f441 6672 9540 94cc c0c0 e853 e441
00000090: f84e af40 93c3 84c1 2456 693f 6676 d7c0
000000a0: ef03 a0c0 cc7c c240 ee19 c1c1 ef14 ed41
000000b0: b245 ba41 a1fd bbbf 6219 b341 f599 4041
000000c0: 90ac 1341 55e1 bac1 ab2e b8c1 f205 7b42
000000d0: 8c01 c0c1 a260 24c1 801e 8941 2ff7 9b41
000000e0: a073 e1c1 0ffb 1042 5287 36c2 1c86 24c1
000000f0: 62a6 c9c1 290a be40 ab6a 8a41 e2b1 2fc0
-5.4540796 2.5194323 -17.95898 22.152664 -10.75935 2.3014562 22.680412 -27.441153
-15.728911 38.67033 -10.273084 -14.407084 24.184963 30.577034 12.575591 -24.440247
21.665152 24.526674 24.543146 -52.25913 15.775338 -8.767324 -41.931957 29.738214
9.9407835 -21.384235 -21.348576 38.252876 -17.896084 34.520126 0.04891416 0.018096616
30.600485 4.6702147 -6.024973 28.54097 5.4783897 -16.595495 0.91147065 -6.733203
-5.00048 6.077734 -24.137661 29.635221 23.28403 -1.4686776 22.387394 12.037587
9.2296295 -23.360025 -23.022787 62.755806 -24.000755 -10.273592 17.139893 19.495695
-28.181458 36.245174 -45.63215 -10.282742 -25.206242 5.9387403 17.302084 -2.745232

bns.1.running_var f4 [64]
00000000: 80db 1b42 5e02 7f44 8793 1042 9489 0e44
00000010: cbca 1b43 8f4c 2143 5804 2044 2173 b842
00000020: 1e0d e043 0ad5 4844 5a0a c443 97dc 8641
00000030: b3e4 a942 ae6e 2e43 b011 f841 a674 9d44
00000040: ce26 1842 56b5 7442 e1d7 2343 bcd5 0144
00000050: 8002 d244 f9d7 7543 c8c5 ef42 73ba 2343
00000060: e7fa bf43 72be d543 9651 ba43 15cf fa44
00000070: 63fa 2d43 e645 5643 b25e f441 2eb3 4c43
00000080: d547 0343 c39d 8e42 3054 fc43 73a1 0043
00000090: a19d 7643 9515 3743 68b1 9042 a331 7744
000000a0: 1cae 4044 e4ba 4142 023b 2943 c9aa 4342
000000b0: 49ab 1844 b4b9 b041 c3dd c944 2836 8342
000000c0: 56c2 cc43 00d7 5042 6ac0 3a44 9351 b043
000000d0: d73d 2842 9f92 6342 c2fd 3f44 86df bf43
000000e0: 09d8 0544 6db8 3744 8e3d 7c44 d87d 8242
000000f0: 9f90 0744 ddb3 2b43 e19c d443 2897 f943
38.964355 1020.037 36.14407 570.14966 155.79216 161.29906 640.0679 92.22486
448.10248 803.32874 392.08087 16.85771 84.94668 174.43234 31.008636 1259.6453
38.037895 61.177086 163.84328 519.3396 1680.0781 245.84364 119.88629 163.72832
383.96017 427.48785 372.6374 2006.4713 173.97807 214.27304 30.546238 204.69992
131.2806 71.30813 504.6577 128.63066 246.61574 183.0843 72.3465 988.7756
770.72046 48.43251 169.2305 48.916782 610.67633 22.090675 1614.93 65.605774
409.51825 52.20996 747.0065 352.6373 42.06039 56.893185 767.96497 383.74628
535.37555 734.88165 1008.9618 65.24579 542.2597 171.70259 425.22562 499.1809

bns.2.running_mean f4 [64]
00000000: 6dc8 d740 e4bc 9140 515f 7141 2e25 8e41
00000010: 7e2c 0a42 9efa b9c1 bfdd ac41 9f7e f1bf
00000020: 3843 61c2 a73f b3c0 77a3 4f42 303d 31c2
00000030: fd0c 1bc1 a243 4141 0275 a7c1 8d26 d041
00000040: 4545 fc40 e5fb e1c0 bff0 d2c1 cfea a73f
00000050: 3021 ebc1 a079 7dbf 1e4d 74bf def9 1640
00000060: 5f54 45c1 9552 7842 1781 1242 2227 bf41
00000070: f80a 3440 37ed f9bf 8027 03c1 c677 a4c1
00000080: b61b 6b40 2204 25c2 c7a0 11c1 8cb7 bb40
00000090: fa3b de41 d0c3 a3c0 2f18 1ac2 ecac c341
000000a0: 1c74 0142 286b 8140 ded6 4942 f87e 0f41
000000b0: 0110 2842 c49a be40 7d27 ef41 2e0a b341
000000c0: 3f3c 0240 f072 3a42 862c 94c1 1eac 9ac1
000000d0: 2443 2241 a7d5 1442 2496 0b41 7045 16c2
000000e0: ccbb 1842 50e7 7f41 e24e 4842 bfbe a941
000000f0: 422c 02c2 8205 2dc1 8f6c f341 e248 d141
6.743216 4.554308 15.085771 17.768154 34.54345 -23.247372 21.608274 -1.8866767
-56.315643 -5.60152 51.909634 -44.309753 -9.690671 12.079012 -20.932133 26.018824
7.8834558 -7.061999 -26.367552 1.3118533 -29.391205 -0.9901371 -0.9543017 2.3590007
-12.333098 62.080647 36.626064 23.894108 2.8131695 -1.9525517 -8.197144 -20.558483
3.6735663 -41.254036 -9.101752 5.8661556 27.779285 -5.117653 -38.523617 24.459435
32.363388 4.0443306 50.45983 8.968498 42.01563 5.9563923 29.894281 22.37997
2.0349271 46.612244 -18.52174 -19.334042 10.141392 37.208645 8.724155 -37.56781
38.183395 15.993973 50.077034 21.218138 -32.54322 -10.813845 30.428007 26.160587

bns.2.running_var f4 [64]
00000000: ccf1 2742 4402 7742 8d71 4a43 5f63 9942
00000010: dcfa 2643 a4cd 7d43 1929 5542 6470 4541
00000020: 8092 1f44 4b98 1e43 f160 2144 881c 2743
00000030: bbbb 9843 0769 2443 9bac c242 f0d2 f243
00000040: b65a 8242 52a7 9b42 f22e 6144 531d d642
00000050: 54f3 2644 7ec8 9143 05dc f243 6d4e dc42
00000060: 70c8 1d44 6976 dc44 e3a2 b143 41b3 b144
00000070: 18a3 2541 0685 7444 9fa3 d142 44f4 f042
00000080: eb23 bd42 4a54 5743 0e17 0f42 454d 4843
00000090: 38d3 6344 307d b243 e5f8 fc43 b144 be42
000000a0: 3529 8e43 0029 9f42 fc7e 1d44 77cf ae42
000000b0: d300 ca43 9d0b f641 b97d 9e43 4cc3 3c44
000000c0: 9ce9 4343 e52e f644 d26d b041 5f04 9043
000000d0: 8053 3142 d825 1244 af8b 0142 3ec5 7c43
000000e0: 5721 2943 9880 3343 5b3a 3645 2b4d 9142
000000f0: d40d b642 1800 0642 2204 8744 6fa0 6042
41.98613 61.752213 202.44356 76.694084 166.97992 253.80328 53.290134 12.339939
638.28906 158.5949 645.5147 167.11145 305.46664 164.41026 97.33712 485.64795
65.17717 77.8268 900.7335 107.057274 667.802 291.56635 485.7189 110.153175
631.13184 1763.7003 355.27255 1421.6017 10.352318 978.0785 104.81957 120.47708
94.57015 215.32925 35.772514 200.30183 911.3003 356.97803 505.9445 95.13416
284.32193 79.58008 629.98413 87.405205 404.00644 30.75567 316.9822 755.0515
195.91254 1969.4655 22.053623 288.03415 44.331543 584.5913 32.38641 252.77048
169.13023 179.50232 2915.6472 72.65072 91.02701 33.50009 1080.1292 56.156673

nns.0.0.weight f4 [64, 136]
00000000: 18db 01b9 f0e9 b0b0 b97f 7b2b cd0d 2b3a
00000010: ce59 8bbc f8bf 5cbd a37c a53d a425 0e3d
00000020: 8503 b1bc 6c72 ab3c f99d 71bc bb85 4dbd
00000030: 1e56 ba3c f5bb 28bd aa0e 0b3d 96a3 333b
00000040: 7daa afbd 7a84 03bb 7bc1 033a 59fa e9bd
00000050: 98cc 7abb e46e b73a 0666 65bd a3a3 d939
00000060: 6efa 9a3d c8e6 952b 1362 c4ad cbcf bdbc
00000070: c2f7 fb3a f3ff b733 9994 0c3c ecd1 aeb7
00000080: 66c9 4f29 9eaf 5f2b 38fd 2938 d295 f6b8
00000090: ca65 20ba b7aa 77ba 51e5 4db9 9724 3238
000000a0: 4ed6 b53b c104 b2bc a7df 832b 7410 b5bc
000000b0: b7c2 00ad 0692 bf2a 219a c12b 1858 cd39
000000c0: f0d9 1fb9 9292 38b8 3a95 d7b7 5b4d 2238
000000d0: e4a4 28ab ece0 012a 0b6f 78bb 49c2 0c2a
000000e0: 625a 13bd 5b73 06ad 377d 86a9 c00f 87bc
000000f0: 59af 26ab 4661 05ac 5e73 a429 b730 50ab
00000100: 2270 9cbd 37d4 4fbc ae44 49aa 91cc 1738
00000110: fab4 ac2d b385 45aa d1d8 95ab c526 872d
00000120: 3cd1 2837 2886 3135 122f 4c2a 43e2 41ad
00000130: c39b 3cab 2466 11ad d95c 1fac 6054 cfac
00000140: 5e69 8a37 cb07 5634 58bd 16ab 6dad 02b3
00000150: 2344 5f31 5c63 9eb8 e093 8cbd 9d51 9837
00000160: 0cf7 d22f 928b 15b8 e773 60ab 911c d324
00000170: 03d9 ca2a c5d7 642d e5b5 822c 441c 79aa
00000180: 92ae 9129 ccee bc2c 7627 8fa9 9c2e bbad
00000190: a1c1 9ab8 5ed1 0c2e 014c 952b b73d 90ab
000001a0: fb54 6432 d9b3 422b 75df a6b0 a63b 0539
000001b0: a0db 642b e8d3 3230 9916 312e c4d3 d7b8
000001c0: 75b4 352a 8cda 1eac de89 ad27 8c8e baaa
000001d0: ca97 68b0 b675 0eb5 28e7 7f31 8c0e bf34
000001e0: 4694 4c30 8ea5 652f 8a9c 50ac 4686 7c39
000001f0: a666 48b2 a02b 30ad 2dd5 1a2a e265 8baa
00000200: cea7 ab38 de07 6a2c b658 dfa9 fe1f 8535
00000210: 926d 38ab 8d94 832b c4dc 60a9 55fd e6ba
00000220: 7650 d830 ae7b 9237 ad9d 2f30 442b a0bd
00000230: 9c1c 0e3d 5681 8dbd 5abe c53d 6b9a 013e
00000240: 246c d53d c8dc 90bc 3c88 d3bd 71ab 07ba
00000250: 02e4 643b 78c5 2a3e 1e76 c93d 50a6 163e
00000260: 9590 03be 6d75 8c3b 5bb6 4ebd a3dc a03d
00000270: f064 89bd 4d8b b13d 446a 0cbe 5917 153c
00000280: 8133 d33d 4756 362b 043b 622f e5af e83c
00000290: f9ac b6bd d63e c8b9 f837 6c3d b5d7 1f3e
000002a0: 513a 312b 2633 0cab 4410 10bd a363 f93d
000002b0: b84d 4cbd 1854 7cbd c01b e33c 47c2 163e
000002c0: 6058 1cbd e6c6 babc cfad bf33 dc8b f63d
000002d0: 43fd 3bb9 cdef 242b aea8 182b 11f6 c6ac
000002e0: a1f3 88b0 b04c b1a9 7e57 d5aa 3e96 0f3d
000002f0: 6bb4 68af 1abb a5b9 2bed f73d 9738 ce2c
00000300: db95 333c aee4 ec2b 524a 82ac 3ed4 733d
00000310: 43b5 60af 0608 8638 fe40 272c 4647 59aa
00000320: aac9 5d3b 116d 4d3c 94f6 9733 b7bc e038
00000330: 9c8f e429 09fd 612b fda2 97a9 28d4 b1b9
00000340: d209 f0a9 0187 5bab 2e33 deb6 09ec d438
00000350: 5ca3 2bab 4eea 6eb2 65e6 f02d 2f21 e02a
00000360: 57e8 0eab ce8c 2fb6 8677 b636 82aa 982d
00000370: aa3c e92a 9cae 782d 322e 903d e9ee 382f
00000380: 163f 9ab9 a493 bc2b 782b ce36 48f0 2b39
00000390: 2a94 f6ad 532e 4328 aa72 c8aa d521 a039
000003a0: 83d8 342f 5f5e c7ad c8da d1b8 987d 8bb8
000003b0: c83c 7d32 e42b 462d 7d84 7a32 c702 d8a9
000003c0: cf09 d82b cb21 8b32 a01a db34 309e 992b
000003d0: 3cec d22a 9674 baac f433 75b2 dcf4 54b7
000003e0: 95a0 dbac b0ff 26b2 a5f9 f233 c34f 8828
000003f0: 427f 15b9 51d1 932b 622c 882e 7a09 d12d
-0.00012384017 -1.2872174e-09 8.9350364e-13 0.0006525189 -0.017010596 -0.053894013 0.08080413 0.034703866
-0.021608124 0.020928584 -0.014747136 -0.050176363 0.022746142 -0.041194875 0.03394953 0.0027410737
-0.0857744 -0.0020067976 0.0005026084 -0.11424703 -0.003826892 0.001399484 -0.0560055 0.00041511384
0.07567297 1.0651141e-12 -2.2326174e-11 -0.023170372 0.0019223618 8.5681584e-08 0.00858035 -2.0840169e-05
4.613792e-14 7.9469233e-13 4.052857e-05 -0.000117581 -0.00061186834 -0.0009447741 -0.0001963575 4.2472584e-05
0.0055492288 -0.021730782 9.370186e-13 -0.022102572 -7.319193e-12 3.402974e-13 1.3756254e-12 0.00039166282
-0.0001524461 -4.4005523e-05 -2.5699486e-05 3.8695853e-05 -5.991442e-13 1.1535537e-13 -0.0037907984 1.2501904e-13
-0.035974868 -7.642632e-12 -5.972517e-14 -0.016487002 -5.921839e-13 -1.8954434e-12 7.303076e-14 -7.396405e-13
-0.07638575 -0.012684873 -1.7876214e-13 3.6191723e-05 1.9634506e-11 -1.7543501e-13 -1.0647265e-12 1.536494e-11
1.00622965e-05 6.613286e-07 1.813517e-13 -1.102102e-11 -6.700718e-13 -8.2649755e-12 -2.26468e-12 -5.8926614e-12
1.6499947e-05 1.9933138e-07 -5.355347e-13 -3.0425714e-08 3.2489502e-09 -7.552534e-05 -0.068641424 1.8157816e-05
3.8374315e-10 -3.5654353e-05 -7.9741633e-13 9.155506e-17 3.603299e-13 1.300821e-11 3.7150166e-12 -2.2125449e-13
6.469577e-14 5.369793e-12 -6.357321e-14 -2.1280137e-11 -7.3793584e-05 3.201827e-11 1.0608182e-12 -1.0248945e-12
1.3290669e-08 6.9172234e-13 -1.21416e-09 0.00012706089 8.1306663e-13 6.505716e-10 4.026521e-11 -0.00010291443
1.6138638e-13 -2.2574468e-12 4.816662e-15 -3.313915e-13 -8.4616814e-10 -5.3070414e-07 3.723878e-09 3.5587107e-07
7.4425477e-10 2.0886246e-10 -2.9645474e-12 0.00024082614 -1.1664872e-08 -1.0014128e-11 1.3751908e-13 -2.4762055e-13
8.1851715e-05 3.3257767e-12 -9.918578e-14 9.918583e-07 -6.552199e-13 9.349341e-13 -4.9929475e-14 -0.0017623106
1.5738937e-09 1.746215e-05 6.38887e-10 -0.07820752 0.034695253 -0.069094345 0.09655447 0.12656562
0.10421017 -0.017683402 -0.10328719 -0.0005175388 0.0034925942 0.16676891 0.09836982 0.1471188
-0.12848122 0.004286459 -0.050466876 0.07854583 -0.067087054 0.08669148 -0.13712412 0.009099805
0.10312558 6.4779123e-13 2.0575547e-10 0.028404186 -0.08919711 -0.0003819379 0.057670563 0.1560963
6.296396e-13 -4.9808974e-13 -0.035171762 0.12177207 -0.049878806 -0.061603636 0.027723193 0.14722548
-0.03817022 -0.02279992 8.925746e-08 0.12038395 -0.00017928057 5.8597295e-13 5.423534e-13 -5.6548173e-12
-9.964546e-10 -7.873682e-14 -3.789711e-13 0.03505539 -2.1164374e-10 -0.00031610654 0.12105783 5.861155e-12
0.010961021 1.683228e-12 -3.7030734e-12 0.05952858 -2.0437078e-10 6.3911124e-05 2.3768205e-12 -1.92982e-13
0.0033842125 0.0125382105 7.076338e-08 0.00010716303 1.0150146e-13 8.0287215e-13 -6.734021e-14 -0.0003391814
-1.06598446e-13 -7.7991785e-13 -6.6220737e-06 0.00010152913 -6.097811e-13 -1.3906698e-08 2.7387157e-11 3.981342e-13
-5.077097e-13 -2.6158991e-06 5.437937e-06 1.735612e-11 4.1431209e-13 1.4135939e-11 0.07040061 1.681958e-10
-0.00029420172 1.3399182e-12 6.144339e-06 0.00016397343 -2.803276e-11 1.08347195e-14 -3.56067e-13 0.00030542785
1.6447825e-10 -2.266559e-11 -0.00010006648 -6.65143e-05 1.4740358e-08 1.1264743e-11 1.458204e-08 -9.592809e-14
1.5350446e-12 1.6197097e-08 4.08113e-07 1.091521e-12 3.7467414e-13 -5.2993816e-12 -1.427269e-08 -1.26931955e-05
-6.2421826e-12 -9.720608e-09 1.1314413e-07 1.5133624e-14 -0.00014257155 1.0503075e-12 6.192448e-11 2.3764758e-11

nns.0.0.bias f4 [64]
00000000: 5105 a9b8 1cc4 623d bd18 22b9 e306 b03c
00000010: d77b 39bc ad0d 27bd 4862 823d 81f1 86bb
00000020: 73b4 0bbc 2edc 4dbc 2c42 193d a4c8 a8ba
00000030: 3d7d 68bc b0ac 91bc fc23 d43c 5199 933c
00000040: 701c 02b6 3653 4f37 cdda 2dbd 5185 0d39
00000050: c733 143b aa60 5e3b c2e2 573d 0732 8abb
00000060: f243 933b 782c 2f3d c13a 15bc 70f0 bd3c
00000070: f901 423d 0727 8c3a 0412 353c ab69 8739
00000080: f20e a6bb 4003 693d 7a14 623a 206f ea3c
00000090: b649 99ba ef5c 4b3d e6fc 403c 48bf 543d
000000a0: 58df 12bd 1a39 b8bd dba0 4e3c 3035 f13c
000000b0: baed 4abc 1e80 b83d 78fd 8b3d c6e7 e6bc
000000c0: 9f98 51bc 2f4c 8fbc 4150 873c 57cd d4bb
000000d0: 77ec 9a3b eebd bd3c fbbe 1f3c ca9d 933b
000000e0: f75a aa3b d799 193d f65e 463a 43b0 e13c
000000f0: 467d c13c 417c 6bbd 66b8 11bd 3513 48bd
-8.059538e-05 0.055362806 -0.0001545874 0.021487659 -0.01132103 -0.040784527 0.06366402 -0.004118145
-0.008526909 -0.012564702 0.037416622 -0.0012877178 -0.014190015 -0.01778254 0.025896065 0.018017443
-1.9388062e-06 1.23575355e-05 -0.042444993 0.00013496472 0.002261387 0.0033932128 0.052706487 -0.0042173895
0.0044941837 0.042767018 -0.009108246 0.023185939 0.047365163 0.0010692783 0.011051659 0.00025827935
-0.0050676996 0.056887865 0.0008624267 0.028617442 -0.0011694941 0.049649175 0.011779046 0.051940233
-0.03585753 -0.08995266 0.012611593 0.029444307 -0.01238578 0.090088114 0.06835455 -0.02818669
-0.012792735 -0.017492382 0.01651776 -0.006494205 0.004727896 0.023161855 0.009750123 0.004504894
0.005198832 0.03750023 0.0007567251 0.027549868 0.023619305 -0.057491545 -0.035576247 -0.048846442

nns.0.2.weight f4 [64, 64]
00000000: bf5e abbc 02f7 2dbc 6448 423c 2233 c0bd
00000010: fe34 e53c 54ec dabd 9d16 47be a2bf 91bd
00000020: c50a 48be f780 15be 0b75 2d3e c0a5 313e
00000030: c0ef 9a3d 3360 b83c 7810 8dbd 9d61 f93d
00000040: bd62 b5bc 2291 123c 3af8 ebbd a861 34bd
00000050: 44cc 7f3d 84e5 073e 62c2 bb3d e36e 283e
00000060: e508 163e afdb 823d b49f 86bd 36b2 003d
00000070: ace0 57bd 3257 f93d ed5c debd 2d06 abbc
00000080: 77bb bb3b 8bcb d03d 9a4a 163e 8808 4abe
00000090: b5ad 703d 9292 24bb aa0e 2ebd c32d 403e
000000a0: 0524 33bd cabb 3a3e ff30 3abe bfaa 303e
000000b0: 1887 cbbd ca02 c03d 7d3b 4bbe 0c15 ba3c
000000c0: f8ea b53d aeee b43d 94c0 4dbe b0af cabd
000000d0: 3ef0 6f3d 2a60 8e3d 2e77 aebb ef13 33be
000000e0: a6c7 413b dc89 1fbe 9c3a ba3d 3104 aa3d
000000f0: 1d59 6bbd 717b 2fbe fb56 92bd f51b 363e
00000100: b5fb e63c e215 423e 1a28 9fbc 4bc5 aebd
00000110: cef8 103d cc3a 9a3b 858d adbd 9972 463e
00000120: 3e36 1fbc 5a09 4ebe bc4c fb3d a5a2 0e3d
00000130: c2ac 05be 41f5 0d3c 1d81 52bd 80cf 773d
00000140: 503d b0bc bb80 cf3b cf09 6c3d 8b76 383c
00000150: 50ef 9b3d 781b c0bd b08f 333e bae4 41be
00000160: 2c20 50bd ed4d 7fbd 09db 23bb 68c6 1a3e
00000170: b6cd c63d 9cb2 ffbd e52d b3bd 157e 023c
00000180: d508 11bd f6d4 8fbc 3334 0fbe eb6e 2bbb
00000190: 956c cabd 160b 7c3d ffd8 1ebe 6c52 a9bd
000001a0: 20a4 033e c5fd 263e 6ff5 54bd f809 52be
000001b0: 02a9 72ba 7874 77bd dd19 c0bd a1ed c3bd
000001c0: c0d4 063e cc53 5bba a07c 5a3e f7b4 95bd
000001d0: 061a 41bb 5808 363e 5881 9fbd 96c8 2b3e
000001e0: 84e6 763d e129 21be 1dc2 743d c13e 96bc
000001f0: 0fa0 253c f436 0ebe 4e92 053d 28c9 b9bc
00000200: f631 49bb 9a82 453d 10a1 e4bb 23b5 3e3e
00000210: 38b0 7c3a 9467 543d 1e25 833c 607a 063e
00000220: e3a0 cd3d 33e6 c0bc ca16 e3bd d206 1dbe
00000230: 8c90 113e 4581 853c 6bff 0a3e 13fb d13d
00000240: d113 8039 94c4 123d 092e fcbc d072 283e
00000250: 641a 32be 2ba9 52be 85db 5fbd 64ae e8bd
00000260: cfe5 93bd db44 d73d 9b1f 38bd e9fe cc3d
00000270: d485 cebc da8b 89bd f23f 2f3e 3ae3 9dbb
00000280: e002 303c 34cd 7bbd 5ecc 513e 48c8 8e3c
00000290: e851 3bbe 2366 a63d cfdd f23d f734 863d
000002a0: 2c7b 15bd e7b5 0cbe e886 c2bc 1118 933c
000002b0: 5ef9 913c 62d7 22be cba4 1dbd 47f5 c6bd
000002c0: f734 37bd f560 d7b9 10c2 01be c81c 25bd
000002d0: d1b8 81bc 302d 1d3e 054b 153b f2c6 ae3d
000002e0: c6c8 80bc 88d8 1c3e e163 15bc cce5 85bc
000002f0: 0c94 273c 02f2 7a3c 8b95 123e fa4d 933c
00000300: db80 5b3c 4f4f 9abc 8f03 583d 154d a6bd
00000310: e9ff 14ba b329 ad3d fba7 8dbd a1a6 613d
00000320: f409 2e3e 309b eb3d 926d cd3c c1a7 653d
00000330: 3839 09be ca16 dcbc c8f5 81bd 8b60 d83d
00000340: 7c31 ac3c 2116 c3bc 94ef f63d 670e f83d
00000350: 4e67 46be d309 383e fc67 553d 0fde 0a3d
00000360: 1693 063d 4769 003e 5cfa 663d b0f3 f83c
00000370: 74f7 443d 750c 78bd 8aea 0cbe 7d91 953c
00000380: 1afd 823c c66d 223e 3ed2 093e 6412 f9bd
00000390: fc4e 203e ef4d 023d 0b15 333d 7e3d 49bd
000003a0: 975d bb3d 33c5 86bc c613 66be a373 c5bd
000003b0: c2cc e3bc 85f2 a53a b658 d53c 6ba8 19be
000003c0: b5d8 bcbc 6c58 51be 08a4 1ebb 1a32 dabd
000003d0: 1342 853d 5047 fcbd cf7b 853d 89b0 eabd
000003e0: d251 513b 9e29 cc3d 89cb 26bd 99e6 b43d
000003f0: f2e6 d83d 6618 563d 0e53 2a3d 8a22 d1bc
-0.020919202 -0.010617973 0.01185808 -0.09384753 0.02797937 -0.10689607 -0.1944222 -0.07116629
-0.19535358 -0.14599977 0.1693918 0.17348385 0.0756526 0.022506809 -0.06887907 0.121768214
-0.022141809 0.008945735 -0.11521955 -0.044038445 0.062450662 0.13271147 0.09167935 0.1644855
0.1465183 0.063895576 -0.0657343 0.031419955 -0.0527045 0.12174834 -0.10857568 -0.020876968
0.0057291347 0.10195073 0.14676896 -0.19729817 0.05875941 -0.0025111777 -0.042494453 0.18767457
-0.043735523 0.18235698 -0.18182753 0.17252634 -0.099378765 0.09375532 -0.19846912 0.022715114
0.08882707 0.08834587 -0.20092994 -0.09896791 0.058578722 0.069519356 -0.005324266 -0.17488073
0.0029568463 -0.15579933 0.0909321 0.08301581 -0.057458032 -0.17136933 -0.071454965 0.17784102
0.028196195 0.1895366 -0.019428302 -0.085337244 0.03539353 0.004706716 -0.08474258 0.19379653
-0.009717522 -0.20120755 0.12270495 0.03482308 -0.13054183 0.00866443 -0.051392663 0.06050062
-0.021513611 0.0063324845 0.05762654 0.011258732 0.076140046 -0.09380239 0.17535281 -0.18934909
-0.05081193 -0.062330175 -0.0025002381 0.15114748 0.09707205 -0.12485239 -0.08748988 0.007964631
-0.035408814 -0.017557602 -0.13984756 -0.0026158642 -0.09883992 0.06153401 -0.15512465 -0.08267674
0.12855577 0.16307743 -0.051991876 -0.20511615 -0.00092567515 -0.060413808 -0.09379933 -0.095668085
0.13167095 -0.0008366674 0.21336603 -0.07309907 -0.0029464974 0.1777662 -0.07788342 0.16775736
0.06027843 -0.15738632 0.059755433 -0.01834047 0.010108962 -0.1388815 0.03261023 -0.022678927
-0.0030699945 0.048220254 -0.006977208 0.18623786 0.0009639296 0.051856592 0.01600891 0.1313262
0.10040452 -0.023547268 -0.11088331 -0.15334633 0.14215297 0.016296992 0.13573997 0.10252967
0.00024428827 0.035832003 -0.03078367 0.16450047 -0.1739288 -0.20572345 -0.05465271 -0.11361387
-0.07221567 0.1051118 -0.044952016 0.10009558 -0.025210299 -0.06716128 0.17114237 -0.0048183473
0.010742873 -0.061474994 0.20488116 0.017429486 -0.18292964 0.0812495 0.11858713 0.06553071
-0.03649442 -0.13741265 -0.023745969 0.017955812 0.017819103 -0.15902475 -0.038487237 -0.09714752
-0.044728246 -0.00041080234 -0.12671685 -0.04031065 -0.015835198 0.15349269 0.002278031 0.085340396
-0.015720736 0.15316975 -0.009118051 -0.016344927 0.010228168 0.015316488 0.14314859 0.017981518
0.013397421 -0.018836645 0.05273777 -0.08120171 -0.00056838855 0.08455219 -0.06916805 0.05509055
0.16995984 0.11504209 0.025076661 0.056068186 -0.13400733 -0.026866335 -0.06345707 0.10565289
0.02101969 -0.023814263 0.12057415 0.12112122 -0.19375345 0.17972498 0.05210112 0.033903178
0.032855116 0.1254016 0.056391105 0.030389637 0.048087552 -0.060558755 -0.13761345 0.01825785
0.015989829 0.15862188 0.13459107 -0.12161711 0.1565513 0.031812605 0.04372124 -0.04913091
0.0914871 -0.016451454 -0.2246848 -0.096411966 -0.027807597 0.0012660777 0.026043277 -0.15005653
-0.023052553 -0.20443887 -0.0024206657 -0.10654087 0.06506743 -0.12318289 0.06517755 -0.11459453
0.0031939638 0.09968875 -0.04072145 0.088330455 0.10590924 0.052269362 0.041583113 -0.025529165

nns.0.2.bias f4 [64]
00000000: 098f 43bc a5e9 33bc 707a 063b af93 2bbc
00000010: aaaa 403b ad15 8fbc d8ce 76bc 0f7a 0b3c
00000020: 9fe4 f63b e33e 7abc ae98 f03b 14a4 7c3c
00000030: 58e8 29bb ea56 863c a3e1 73bc a064 e139
00000040: 42c8 4aba a1b0 6bbc 850c 87bc d167 3abc
00000050: de8c 783c 9397 31ba 126d 853c 2365 803c
00000060: e9f5 ab3b b002 813c e7b4 70bc f580 8c3c
00000070: 0556 09bb 9d36 86bb d566 e33b f048 77bc
00000080: 1ba8 62bc d671 adbc 4463 1ebc e881 6dbc
00000090: 39fd 4fb9 ab55 24bc ff51 6b3c 7410 7739
000000a0: 4d9e 293c be64 653c 002d 893c 909f 1c3c
000000b0: 5c76 a63b 8908 5bbc 009f 90bc f6f7 a6bb
000000c0: 51d8 2f3b 15a8 8abc 61c6 87bc 8b3e 483c
000000d0: 4ee3 f3ba 4644 843c 4e0e 983b 34ea bc3b
000000e0: a033 833c 1bed 19bc fa63 74bc 65cd df3b
000000f0: 2fff 73bb 02bf 193c f046 27bc c7fa 8e3c
-0.011935958 -0.010980998 0.0020519756 -0.010472222 0.0029398599 -0.01746639 -0.015063964 0.008512988
0.007534578 -0.015273782 0.0073424196 0.015419979 -0.0025925841 0.016398866 -0.014885339 0.00042990316
-0.0007735529 -0.014385373 -0.016485462 -0.011377291 0.015170304 -0.00067746005 0.01628736 0.015673226
0.0052478206 0.015748352 -0.014691568 0.017151335 -0.0020955813 -0.004095866 0.006939749 -0.015093073
-0.013834025 -0.021172445 -0.009667221 -0.014496304 -0.00019835391 -0.01003019 0.014362811 0.00023561885
0.010352683 0.01400107 0.01674509 0.009559527 0.0050800275 -0.013368734 -0.017653942 -0.005095477
0.0026831815 -0.01692585 -0.016574087 0.012221943 -0.0018607171 0.016145837 0.004640377 0.005765224
0.016015828 -0.009394909 -0.014916414 0.006829905 -0.0037230959 0.009383919 -0.010209784 0.017453564

nns.1.0.weight f4 [64, 64]
00000000: 56fc 973d 326a 1bbe 917c 90bd 9889 33be
00000010: b05e 0d3e 9c07 d63d a5fa 7fbd 87b2 e23d
00000020: 1f2a 2cbe 8352 583d e880 283d c9fc 50be
00000030: 5bbe 083e bc3d b3bc 8f69 04bc 5a11 63bd
00000040: 1640 ba3d ba46 103e 5d0a 373d c8ed 703d
00000050: 623e d53b 7633 533d e98c 3dbe d76f 45be
00000060: a32d f93d a0df 123d 8be0 1c3e c033 083e
00000070: 562b 853d 84c4 023e 1ae9 823d 8af9 cd3d
00000080: f12d cd3d 1b1f c23d 7980 213e cf82 b2bd
00000090: c5a1 bcbd 055a 27be f8ec e23d e3ca 37bd
000000a0: 39b8 adbd b3e3 223e 1698 0f3d 6471 07bd
000000b0: 3dbd 1f3d b993 ac3c 9a47 01be 69cc c5bd
000000c0: 47a9 36be 4883 f8bd f29b 443e b7bd 07bb
000000d0: 2cc2 233d d495 e73d 85b5 0a3e 6dc4 1abe
000000e0: 6740 ca3c cfeb cf3d 89cb c2bd 57e8 5a3d
000000f0: 185d 0b3e 37ca 30be 5b5c 513c 5faa d2bd
00000100: 5694 9dbc 349c 75bd 141e 213e 2925 333d
00000110: 9421 1a3e 0d55 4dbe cb06 f3bd 6e0e 223e
00000120: 5cae f13d 4d56 5abe 0858 e53c d6ed 153d
00000130: aab3 92bc db6b cb3d 6de1 6ebd 0d12 e5bd
00000140: e8c1 7a3d 8f81 98b9 5fe0 623d d606 e2bd
00000150: b70c 4d3e 3d8e 21bb ed6b bcbb 05b2 6cbe
00000160: 627c 1bbd adf7 49be 86ba 1bbe 0c9f a1bd
00000170: 13e8 f4bd 8063 f3bd 974d 8cbd 7c10 533e
00000180: c155 0b3e 3e63 eabd 0a33 6cbc d825 053e
00000190: 2810 71bd a30e b6bd 71cc 183d 6d08 253e
000001a0: edfe 2abe 7fe2 8bbd 3b81 1fbd ca9c 87bd
000001b0: a920 10bd b682 523d 0a59 37be 92de 3e3e
000001c0: 25ce c13d be04 e5bd 9d83 72ba 13b2 3c3e
000001d0: 3d93 3bbe 774a bcbd b8c0 6abb 694d 98bc
000001e0: 6978 e2bd f4a1 6838 7078 a83c 0354 1f3d
000001f0: cd63 afbd 8970 80bd 2606 a4bd 1b99 89bd
00000200: 3082 54bb a36f 2abe 72db 45be 20fd 333e
00000210: e35a da3c e9a0 a93d 0dd8 303e b394 0038
00000220: e80b 61bd 6a95 49be 55af a23d 4cf7 383e
00000230: cee1 92bb 49c1 98bd 9f27 19be e920 f93d
00000240: 0a35 f73c 03bc 8a3b dba9 063e d6a1 833d
00000250: 8ce0 b73c 4e38 3abe b2ef 003c 7024 cebd
00000260: 8bef f4bd ba68 a1bd 22e0 5e3d 5b54 af3d
00000270: b05b 01bd a1f9 403e a98d 8d3d 754c 12bd
00000280: 2a27 1fbe dbac e93c 0897 cc3b 4c3d d83c
00000290: 487e 2dbe f56e d8bd 124b 04be 13e1 db3d
000002a0: 6595 393e 7034 123e 33c3 4fbd d871 353e
000002b0: 5368 58be fcaf 33be 10fd 05bd 3b90 103e
000002c0: bb9a 24be 2f89 c6bd 419d c9bd 362a 13be
000002d0: f480 193e 238d 8f3d bb76 a4bd 057a 9dbd
000002e0: 3e62 023e 5710 2ebe 5dfb bbbd a56a f7bd
000002f0: a4cb e8bd 23e4 4b3d 38e4 453e 386e 01be
00000300: a200 6fbe c056 8c3d e4e7 2b3e 838e acbd
00000310: 66f2 24be 32a6 b33d fe8a 2bbe 7077 31bd
00000320: 0cf8 34be dda7 323e 89ce 123e 92ec 80bd
00000330: ff4e fd3d fce5 07be 76e5 253e d1da 2cbc
00000340: 1df8 92bc c4f0 bd3d 708a 37bd 217d 453d
00000350: e369 b9bd 5e2d 34bd 7002 483d b25e 1cbd
00000360: 6d6b 2a3e 15f2 07be f66f 863d 12f2 42be
00000370: 2575 103e 88ac ca3d a081 e33b d113 393c
00000380: 9758 4fbd b86d f93d 420d f0bc fc38 0c3e
00000390: 60b9 a13d ce5c c53c fdb2 6b3e 6b41 743d
000003a0: 93e2 6a3d 4014 b23c b388 16be 6a06 69bd
000003b0: e2f4 13bd 36b9 19be d19b 353e 044b 18bd
000003c0: 920b ec3c 64b1 04be 81fb c3bd b051 193e
000003d0: d04b 28be f445 d43d 7034 04be 3691 5f3e
000003e0: 668f 3e3e ef50 843d 0d1e 0dbe 6409 d7bc
000003f0: 9c0b 8c3d 45e6 4ebe c5b6 893c 8505 47be
0.07421176 -0.15177229 -0.07055009 -0.17532957 0.13805652 0.1045067 -0.062494893 0.11069208
-0.16812943 0.052813064 0.04113856 -0.2040893 0.13353865 -0.021880023 -0.008081808 -0.05543647
0.09094255 0.1408948 0.044687618 0.058820516 0.0065076808 0.05156275 -0.18510784 -0.19280945
0.12166908 0.035857797 0.15320031 0.13300991 0.06502406 0.12770277 0.06392117 0.100573614
0.10018528 0.09478589 0.15771665 -0.08716356 -0.092105426 -0.16342933 0.110803545 -0.044871222
-0.08482403 0.15907173 0.03505715 -0.033067122 0.03899883 0.021066533 -0.1262497 -0.09658129
-0.17838012 -0.12134415 0.19200113 -0.0020712444 0.0399801 0.11307874 0.13545807 -0.15113993
0.024688913 0.10152399 -0.095114775 0.053444233 0.13609731 -0.17264639 0.012778367 -0.10286402
-0.019235771 -0.05996342 0.1573413 0.04373661 0.15051872 -0.20051976 -0.1186653 0.15825817
0.118008345 -0.21321984 0.027996078 0.03660377 -0.017907936 0.09932681 -0.05832045 -0.111850835
0.06122008 -0.00029088228 0.05538976 -0.1103646 0.20024382 -0.002465143 -0.0057501704 -0.23114784
-0.037960418 -0.19723387 -0.15207872 -0.07891664 -0.11958327 -0.118842125 -0.068507366 0.20611757
0.13606931 -0.1144471 -0.014416466 0.13002717 -0.0588533 -0.088895105 0.037304346 0.16116495
-0.16698809 -0.0683031 -0.038941603 -0.06621702 -0.035187397 0.051394187 -0.1790506 0.18639591
0.09463147 -0.11182545 -0.0009251179 0.18427305 -0.18317886 -0.091938905 -0.0035820436 -0.0185916
-0.11058123 5.546394e-05 0.020565242 0.03889848 -0.08563957 -0.062714644 -0.08008985 -0.06718656
-0.003242623 -0.16644149 -0.19321993 0.17577028 0.026654666 0.08282644 0.17269917 3.0656065e-05
-0.054942995 -0.19685903 0.07943598 0.18063086 -0.0044824844 -0.07458741 -0.1495652 0.1216448
0.030176658 0.0042338385 0.13150732 0.06427352 0.02244594 -0.18185541 0.007869648 -0.10065544
-0.11959752 -0.07881303 0.05441297 0.085610114 -0.03158158 0.18845226 0.06911785 -0.035717446
-0.15542284 0.028524807 0.0062435903 0.026396416 -0.16942704 -0.105680384 -0.12919262 0.10736289
0.18123396 0.14277816 -0.050723266 0.17719209 -0.21133547 -0.17547601 -0.032712042 0.1411752
-0.1607465 -0.096941344 -0.09844447 -0.14371571 0.14990598 0.070093416 -0.080304585 -0.07689289
0.12732789 -0.1699842 -0.09178803 -0.12080888 -0.11366966 0.049778115 0.1932534 -0.12639701
-0.23340085 0.06852484 0.16787678 -0.084256195 -0.16108093 0.087719336 -0.1675224 -0.043326795
-0.17672747 0.17446847 0.143366 -0.06295122 0.12368583 -0.13271326 0.16200814 -0.010550217
-0.017940575 0.09274438 -0.04480976 0.048215035 -0.090533994 -0.043988578 0.04883045 -0.038176246
0.16642542 -0.1327594 0.065643236 -0.19037655 0.14107187 0.09896189 0.0069429427 0.0112962285
-0.050621595 0.1217913 -0.029303197 0.13693613 0.078966856 0.024092104 0.23017497 0.0596327
0.057344984 0.021738172 -0.14700584 -0.056890883 -0.03612221 -0.15012059 0.1773522 -0.037180915
0.02881411 -0.12958294 -0.09569455 0.14972568 -0.1643517 0.10364905 -0.12910628 0.21832737
0.1860939 0.06460749 -0.13780995 -0.026249595 0.06838152 -0.20205028 0.016810784 -0.194357

nns.1.0.bias f4 [64]
00000000: 2606 e5bc 3939 7c3d 1738 09bc 6ce0 163c
00000010: 6238 81bb 7fc5 883d 6838 3dbd b046 03b9
00000020: 94b3 51bd a41d e03b aa0a bd3c 7bc2 b5bc
00000030: b874 9d3c c899 67bc 0da9 363d 85f2 b9bc
00000040: 0a54 6fbd f4c5 06bd eafd 753d c5a3 713d
00000050: 479a a63c 36d1 7a3d ee87 1ebd f52e 25bc
00000060: e017 223d 21be ae3c d07b e6bc abc1 4a3d
00000070: 7bcc 583d a003 833c a25e 37bd 9858 ed3c
00000080: 06f6 43bc 4f9d 133d 89ef c0bc 6b84 2c3d
00000090: c1e2 953c 92f5 933c 1ccb 82bd 19e8 61bc
000000a0: 827a a43c c511 e53c 8922 29ba 35a6 91bd
000000b0: da55 973c 2e44 7c3c dac5 0abd 18ab 60bc
000000c0: 6f75 293c b39e f8bc 5568 06bd f88d 09bc
000000d0: aa36 66bd cdf1 b1bc 7849 48bd f3dd 213d
000000e0: 9065 f83c 54eb dd3c a254 1abd ca9a 20bc
000000f0: d522 c43c 1933 173d b0f5 873b c8ca 14bd
-0.027957033 0.06157801 -0.008375189 0.00920878 -0.003943489 0.066782944 -0.04619637 -0.00012519467
-0.05119665 0.006839471 0.023076374 -0.022187462 0.019220695 -0.014135785 0.044594813 -0.02269865
-0.058429755 -0.032903627 0.060056604 0.058994073 0.020337237 0.061234675 -0.03870385 -0.010081996
0.03957355 0.021330895 -0.02813521 0.049501102 0.052929383 0.01599294 -0.044767983 0.028972909
-0.011960512 0.036038693 -0.02355172 0.04211847 0.018296601 0.018061433 -0.06386396 -0.013788247
0.020077948 0.027962575 -0.00064519845 -0.071117796 0.018473554 0.015397115 -0.033880092 -0.013712667
0.01034294 -0.030349111 -0.032814343 -0.008395664 -0.056204475 -0.021721745 -0.04889819 0.039518308
0.030321866 0.027089752 -0.03767837 -0.00980253 0.02394239 0.036913965 0.0041491613 -0.0363262

nns.1.2.weight f4 [64, 64]
00000000: d699 ed3d 5f94 963c e159 d3bd 2de7 24be
00000010: f092 ecbd a798 cb3d 37a8 a83c 6e56 4ebd
00000020: 4350 a9bb 6acd 203e 70c6 843d c4c6 023e
00000030: 1510 18be 25e6 803d 24d7 173d 1bab 18bc
00000040: 44cb 843d 616b 94bd 3e68 d63d 2de8 4c3d
00000050: 5764 213e 7659 18be ed47 d2bd 14c7 14be
00000060: f881 b6bd 6a81 dfbd fff8 c5bd e87e eebd
00000070: 9072 b1bd dbca 4fbd 9e6d fc3d 7413 10be
00000080: ac53 fd3d dda0 503d 3fe9 7b3d aa15 883d
00000090: e198 2abe 4aa0 d7bd a6e7 3dbe 28dc eebd
000000a0: 8418 b3bd 5529 f33d 47e2 9e3c 96da c93d
000000b0: 6055 1a3d 60f6 4dbe 62df 383e 73a9 093e
000000c0: 4d65 17be 349e 253e 6f14 b03d b43f e13d
000000d0: d801 a93d d137 a33d e95e b4bc 069f e4bd
000000e0: 996e fbbd 38a4 0a3d 4451 10be 8f10 4a3b
000000f0: 0df5 19be de6d 44bd f17e 023e 407e 0d3c
00000100: 7c29 373d c68a 51be abb1 133e 9c5a 13be
00000110: 7354 3e3e 190d c1bd 0839 503d 85b5 b33d
00000120: b2c9 91bd 556a 8abd e8fb bbbd 5943 6e3c
00000130: 55c0 1c3e 7f23 89bd f811 52bc 0f7a 27be
00000140: 79ad 813d 12f7 3ebe 27a7 313e 7c76 773d
00000150: 6ca2 e3bd 70c0 45be be6e 2abe 0366 a1bd
00000160: dbef a73c 06f6 17be b015 40be b001 993d
00000170: 87b1 8c3d 19be 62bc b881 90bd c807 6abd
00000180: 30ee 36be d73a 0ebd ff58 0bbe 8e61 b0bd
00000190: 3455 d43c db4f 443c cb9b 39be a174 4dbe
000001a0: 7aba a4bd 5bc5 5dbd fa6f 30be 2476 4b3e
000001b0: 0f29 553e fd72 1e3d ac7f 483e c805 32bc
000001c0: 2ebd cbbd ef6c 1ebc b530 4bbe c368 2c3e
000001d0: 9721 adbd d5cc 533e e065 d8bd ad94 bd3d
000001e0: 5e31 5abd e2ad 2a3d 4155 633d 71c0 23be
000001f0: 0669 1a3e ad25 e9bc 9e66 2abd 7c01 03be
00000200: d4d9 383e a168 26be 8886 eabd 77bb 00be
00000210: 8124 2dbd 22f3 e9bd 1cce ccbd 1805 553d
00000220: bfba ed3d 7e58 edbd ed06 363e 3a69 463e
00000230: bdcf 42bc 7da9 05be 8ad8 34bd d87b 07bd
00000240: 11fe 3f3d 560c e2bd a6b5 57be 4faa 613b
00000250: c69e 1bbe 4ef5 25be 69d5 18be 0389 eb3d
00000260: 697d 4d3d f031 1ebe 35ce babd 7c42 543e
00000270: e738 f83b 16c4 5abd 1d6f 2ebe c3eb 2abe
00000280: a7a9 a0bd a997 83bd 5ede 0b3e 0dc2 ce3d
00000290: b3a8 9c3d 7eac 053e f00e d3bc 4e97 27be
000002a0: f41c 1b3e 7c16 be3d a031 f7bc 1a7c c83d
000002b0: 46ba 2ebe 3f96 0e3e 834f b83d dabb 12be
000002c0: 7b84 4ebe 9565 c03d 7e78 613c 7122 0b3e
000002d0: 3650 2cbe 3b96 23bd c467 913c 00e0 3dbe
000002e0: 9333 a93d b1d5 87bd 9a72 22be 1c21 46bd
000002f0: 6780 fdbc 663b b73d 753f 2a3e 580b f73d
00000300: 86e3 c8bc 420a e53d d911 1d3e 4ebb 723d
00000310: b34f 39be 61bc c93d 2c48 2b3e bbb7 15bd
00000320: e8dd bdbd 6355 0fbd bc9c 363e f3b0 29be
00000330: e044 d33d e984 44bc 276d 1f3b 42d4 18bd
00000340: 6491 5ebe f872 3a3e 7cf8 033c cb7d f03b
00000350: b40f 26be 771e 583d 923c 303e c0e5 033e
00000360: df6f c7bd 9ed6 50bc cbef 16bd 879d dfbd
00000370: ee9b c93d b097 103d ea6a 46be 9b5c 62bd
00000380: 87c5 983d 3ffa 2ebd 7183 3c3e 9251 9cbb
00000390: a1f8 4bbe 190e 3d3d dfaf 4b3e 845d 03be
000003a0: fe59 293e d69f 19be 6dc3 fa3d 48dd 43be
000003b0: 4e58 1d3d 3f81 a03c 3e05 42be 434a 233e
000003c0: 573a 50be 0d7f 39be f89c b7bd 003e 60bc
000003d0: 7a30 4e3e c355 a93d 2519 b53d 9d57 f4bd
000003e0: 20da 433e b5b1 a43d 27b7 d53c 97d6 14be
000003f0: 1ac9 923c d37a 97bc e8ad 22be f41a 85bd
0.116016075 0.018381296 -0.103198774 -0.16103812 -0.115514636 0.099412255 0.020588024 -0.050375395
-0.0051670386 0.15703359 0.064831614 0.12771136 -0.14849885 0.062938966 0.03707041 -0.0093181385
0.06484082 -0.072470434 0.10469101 0.050026108 0.15760933 -0.14877877 -0.10267625 -0.14529067
-0.08911508 -0.10913356 -0.09666633 -0.11645299 -0.08664429 -0.050730567 0.12325595 -0.14069921
0.12369475 0.05093466 0.061501738 0.06644757 -0.16659881 -0.105286196 -0.18545398 -0.11663085
-0.0874491 0.11873118 0.019395007 0.09856145 0.037679076 -0.20113516 0.18053964 0.13443546
-0.14784737 0.16173631 0.085976474 0.109984785 0.08252305 0.079696305 -0.022017913 -0.11163144
-0.12276954 0.033848017 -0.140935 0.0030832624 -0.15034886 -0.04795634 0.12743737 0.008636057
0.044717297 -0.20463094 0.14423244 -0.14390033 0.18586902 -0.09426326 0.05083564 0.087748565
-0.071185485 -0.067585625 -0.09178907 0.014542424 0.15307744 -0.066962235 -0.012821667 -0.16355155
0.063319154 -0.18648937 0.1734892 0.06041573 -0.11114964 -0.1931169 -0.16643807 -0.07880785
0.020500114 -0.14839944 -0.18758273 0.07471025 0.06869798 -0.013839268 -0.07055992 -0.057136327
-0.17864299 -0.034724083 -0.13608168 -0.08612357 0.025919534 0.01198193 -0.18125837 -0.20064022
-0.0804338 -0.05414329 -0.17230216 0.19869286 0.20816444 0.03868388 0.19579953 -0.010865636
-0.099481925 -0.0096695265 -0.19842799 0.16836838 -0.084536724 0.20683606 -0.10566306 0.09256873
-0.053269736 0.041669734 0.055501226 -0.1599138 0.15079126 -0.028460348 -0.04160177 -0.12793535
0.18051845 -0.1625085 -0.11451441 -0.12571512 -0.04227114 -0.11423327 -0.1000025 0.05200681
0.116078846 -0.11589144 0.1777608 0.19376078 -0.011890349 -0.13052936 -0.04415182 -0.03307709
0.046873156 -0.11037509 -0.21065387 0.0034433787 -0.15197286 -0.16206858 -0.1492516 0.11500742
0.05016843 -0.15448737 -0.09121362 0.20728487 0.0075751427 -0.05340966 -0.17034574 -0.16691498
-0.078448586 -0.06425411 0.13659045 0.10095606 0.07649364 0.13054082 -0.025763959 -0.16366312
0.15147763 0.09281632 -0.03017503 0.097892955 -0.17063245 0.13924502 0.08999541 -0.14329472
-0.20167725 0.09394375 0.013761638 0.13587357 -0.16827473 -0.039938193 0.017749675 -0.1854248
0.0826179 -0.06632555 -0.1586403 -0.04837142 -0.030945016 0.08946876 0.1662577 0.120627105
-0.024522554 0.11183597 0.1533884 0.05926066 -0.18096809 0.098503835 0.1672675 -0.036552172
-0.09270841 -0.03499354 0.17833227 -0.16571407 0.10315871 -0.011994579 0.0024326534 -0.0373118
-0.2173515 0.1820792 0.008054849 0.0073392144 -0.16216928 0.05276343 0.17210606 0.12880611
-0.097381346 -0.012746481 -0.03684978 -0.10918718 0.09844194 0.03530091 -0.19376722 -0.055264097
0.0745955 -0.042719122 0.18409516 -0.004770466 -0.19919063 0.046156023 0.19891308 -0.12828642
0.16538236 -0.15002379 0.12244306 -0.19127381 0.038414292 0.01959288 -0.18947312 0.15946297
-0.20334755 -0.18114872 -0.08965486 -0.013686657 0.2013568 0.08268311 0.088426866 -0.119307734
0.19126177 0.080417074 0.02608831 -0.14534985 0.017918158 -0.018491184 -0.15886652 -0.064992815

nns.1.2.bias f4 [64]
00000000: fd53 a239 9729 403c 596c e73a 44f9 623c
00000010: c8aa 183c 8db4 3fbc b4a5 0fbc 6a5e 353b
00000020: 4a84 b5ba 0468 8ebb 1d28 86b8 284f 993b
00000030: 6f0c f039 21d6 a2bb 9637 2c3c 6dae ca39
00000040: 2a9e f93b a8c5 64b8 101c ebbb d3ad 6bbc
00000050: 2e3c 373b 5ea3 0d3c b1fc 7eb9 e9fc ce3a
00000060: d76a 1ebc 9e06 ea39 d21c 94bb c304 8a3c
00000070: 8776 68b8 4128 9339 2df0 033a 2127 28bc
00000080: bdda 0f3a 2771 1abc 106f b6bb d12c 063b
00000090: 2715 86ba 9700 1cbb ca41 b5bb 32e2 a9b9
000000a0: 47c9 be3b c13f d639 bb59 ef3b c40e 743b
000000b0: 4720 693b 9f60 8d3b 8cef b8b8 015b 77bb
000000c0: 5a7e 673c 5528 88bb e7db 073c 55af 733c
000000d0: 5858 9338 452e 91b9 6c33 c3ba 82ec 0d3c
000000e0: b894 6c3c 06da f03b eaae 4dbb 78e0 6eb7
000000f0: 93e7 ceb9 df3a e9bb bb2c 56ba 98ca 26bc
0.00030961624 0.011728666 0.0017656191 0.013853375 0.009318061 -0.0117007615 -0.008767534 0.0027674683
-0.0013848629 -0.0043458957 -6.3970896e-05 0.0046786256 0.0004578563 -0.004969374 0.0105113 0.000386584
0.0076177316 -5.4543518e-05 -0.007174976 -0.014384705 0.0027959454 0.008644907 -0.00024317463 0.0015791926
-0.009669027 0.00044636888 -0.004520037 0.016847974 -5.5423498e-05 0.00028068016 0.00050330424 -0.010263235
0.00054876116 -0.009426392 -0.005567439 0.002047349 -0.0010229693 -0.0023804063 -0.0055315243 -0.0003240272
0.005822334 0.0004086476 0.007304398 0.0037240246 0.0035572217 0.0043144966 -8.818423e-05 -0.0037743452
0.014129246 -0.0041551986 0.008292175 0.014873345 7.0259615e-05 -0.0002769103 -0.0014892644 0.008662345
0.014439754 0.007350209 -0.0031384774 -1.4238169e-05 -0.00039463918 -0.0071176137 -0.00081701175 -0.010180138

nns.2.0.weight f4 [64, 64]
00000000: 7418 62be 4bde 30bd af6b 0c3e 33d5 313c
00000010: 76b8 0ebe 9674 2d3e 6539 fa3c a89a 373e
00000020: c558 f13d 07b8 513e 8972 e7bd c14b 223c
00000030: ecc0 233e 00ed 91bd e631 fa3c 4b5b 903b
00000040: 02c1 983c 0e53 19be e1bc 08be 5f1d babd
00000050: e140 943d 61cf 45be 6f99 4dbc 145a ac3d
00000060: 8eba a73d 3981 53be 72f0 223d 2698 0a3c
00000070: b1d9 92bc e88e 293e 5199 a33c 1fbd 813d
00000080: 1746 113e a64a d93d b75e f1bd a644 553d
00000090: 9d30 80bd 1468 d53d 0711 eabb f4f8 2f3d
000000a0: 7722 483e 09be 5a3e 03fd d2ba ec6c c33d
000000b0: 3be3 ec3c 9e34 0e3e 6f70 a43c 3fac a63c
000000c0: 04da 323e d376 c03d fe38 02bd 5cb0 0c3e
000000d0: 5e55 15bc 8fde 3abe 3e55 20bd 3404 9bbd
000000e0: ab56 4cbe 55cf 26be c6f6 a7bd 123c 42be
000000f0: c8dc dcbd 4ed2 19be 4ff7 11be f48a 083c
00000100: 0043 d93d a3bb 653d afe1 2ebe c5b2 8ebc
00000110: a8bb 46bc 9856 dd3d 7323 013e a7bc acbc
00000120: 7468 35be c102 1dbe 6b92 dabd 6809 a43d
00000130: 2dac 2ebc d285 353e dae9 1d3e 8b3f 83bd
00000140: 3e39 013e 70f4 0abe aa63 f23d 5713 44bd
00000150: 9721 e4bc d550 f43d 15b2 4f3e adfb ec3d
00000160: a0fc ccbd 0e61 533c 3a6d 0cbe 720c f7bc
00000170: 85c0 f9bd ed3f e7bd 14f7 f7bd 905e 473e
00000180: ac7a c13d 7fa3 e9bd 2983 c03d 7371 1dbe
00000190: ea3a e9bd c306 513e edf6 09be 83d4 30be
000001a0: 0271 bd3d f48f c6bd fc93 ed3c ee31 3e3e
000001b0: ad27 c4bd 2fe1 88bd ea57 34bd 0bde 483d
000001c0: aadd a0bd a28c 5cbd 034e 1a3e 1fbe 403e
000001d0: 3777 42bc 5bb2 24be e0e6 a73d 38e1 05bd
000001e0: 0ea7 1a3e 6e15 3abe eddf 62bd be3b cb3d
000001f0: 369a c33d 3673 223d 2f4f 223e 6a8b 1abe
00000200: 898e 293e ae3e 7d3d 6fdb a9bd 10c2 12be
00000210: 417c a83d b651 2abe 574d 1d3e facb 01be
00000220: d2a3 1a3e 7ad5 0dbd 165f 1c3d dfb4 94bc
00000230: 6e14 09be 6930 3fbe 98e6 a4bc 6f77 223d
00000240: 7779 a8bc 3754 fc3d 69fa a13c 317e 56be
00000250: 839f c43d 29db d6bd 0ec1 da3d 7259 93bd
00000260: 7332 13be dac4 2b3d 4399 8b3c 7714 7cbd
00000270: 51f5 30be 20d2 d0bd 2b4b 173d 402d 533d
00000280: 4840 4a3d a974 8fbd 8b10 063e 3f6a d33b
00000290: b91e 633c 826e 1fbd 1725 2f3e 3653 bcbd
000002a0: c00e ea3d b474 a43d cb3d 1bbe 529c 06be
000002b0: fdf2 3c3e 62ff 25be 68f1 2f3e 60fa b23d
000002c0: 94a9 003e e056 52bd a637 f53d 6aa6 9a3d
000002d0: 8051 003d dfee d3bd f243 7dbd 6697 97bd
000002e0: d8de b3bc 82d1 0dbd 5acc 17be 1555 2ebe
000002f0: ae59 d23d 7743 9d3d 0902 1f3e 11b4 2ebe
00000300: 33db 32be 2807 a03d 6032 e9bd a200 903c
00000310: 8292 44be 4ca7 04bd 76c7 483e 7604 08be
00000320: cf4a 8bbd 8164 a53d 3717 cfbc 8b79 31be
00000330: dcc8 3fbe cb53 24be e718 eabd e694 6cbd
00000340: 63ac 48bd 3337 6e3d 8c34 993d 7777 b7bd
00000350: a06d 55be cd44 a7bd 60d1 5f3d a9ce bf3d
00000360: b858 e73c 2fc6 34bd e3d8 03be 4c1e 663b
00000370: 302c bd3d 43f0 13be c5b9 833d 716f 26bd
00000380: cd88 c23c 844d ce3c 90a8 043d dfbd 2c3e
00000390: 9218 3b3d 684d 94bd 7493 b13d 81e3 39bc
000003a0: df28 ed3d 43a4 1e3d 4224 16be 2276 aebd
000003b0: b8e6 c0bd 3e3d bbbc ec0e 9dbd 3d20 a5bd
000003c0: b9f5 2e3e 39bd 13be 7d56 453e 6ab1 7a3d
000003d0: d39c 8ebd 5021 23be 8119 afbc 5b40 ff3d
000003e0: e7bc e03d a42a 36bc c04e 18be f38a 013e
000003f0: 27a6 533d 83ce dcbd 9b96 953b 227c 3cbe
-0.2207964 -0.043180745 0.13712953 0.010854053 -0.13937554 0.16939005 0.030544946 0.1793009
0.117845096 0.20480357 -0.11301143 0.009905756 0.15991563 -0.07125282 0.030541372 0.004405414
0.01864672 -0.14973089 -0.13353302 -0.09087633 0.07238937 -0.1931739 -0.012548788 0.084156185
0.08189879 -0.20654763 0.039780088 0.008459127 -0.017926069 0.1655842 0.019970568 0.063349
0.14186893 0.10609941 -0.117856435 0.05206742 -0.06259272 0.10420242 -0.007143143 0.04296203
0.19544397 0.21361555 -0.0016097132 0.095422596 0.028916946 0.1388726 0.020073144 0.020345805
0.17465979 0.09397664 -0.031792633 0.13739151 -0.009114591 -0.18248962 -0.039143793 -0.07569161
-0.19954936 -0.16290028 -0.08201365 -0.18968228 -0.10784298 -0.15021631 -0.14254497 0.00833391
0.10608482 0.056087147 -0.17078279 -0.017419228 -0.012129702 0.10807532 0.12611179 -0.02108605
-0.17715627 -0.15333082 -0.10672458 0.080096066 -0.010661167 0.1772683 0.15421239 -0.06408604
0.12619492 -0.13569808 0.11835416 -0.047870006 -0.027848048 0.1192948 0.20282777 0.11571441
-0.10009122 0.012901558 -0.13713542 -0.030157302 -0.12194923 -0.1129149 -0.12107673 0.19469666
0.09447226 -0.114081375 0.09400017 -0.15375309 -0.1138819 0.20412736 -0.13473101 -0.17268567
0.0925007 -0.09695426 0.029001229 0.18573734 -0.0957788 -0.06683575 -0.044029154 0.04903988
-0.07854779 -0.053845055 0.15068822 0.18822525 -0.011869243 -0.16083662 0.08198333 -0.03268549
0.15102789 -0.18172237 -0.055389334 0.09923504 0.09550898 0.039660655 0.15850519 -0.15092245
0.16558279 0.061827354 -0.08293807 -0.14331841 0.082268246 -0.16632733 0.15361534 -0.12675467
0.15101555 -0.034627415 0.03817662 -0.018152652 -0.133867 -0.18670811 -0.020129487 0.039664682
-0.020565731 0.1232075 0.019772725 -0.20946576 0.09600737 -0.1049102 0.106813535 -0.07194795
-0.14374714 0.04193578 0.017040854 -0.061542954 -0.17281081 -0.10196328 0.03693692 0.051556826
0.04937771 -0.07004673 0.13092248 0.0064518745 0.013862305 -0.038923748 0.17103992 -0.09195559
0.114285946 0.08030072 -0.15160291 -0.13145569 0.18452068 -0.16210702 0.17181933 0.087391615
0.12564689 -0.05135238 0.11973505 0.07551272 0.031327724 -0.103482954 -0.061832376 -0.07401924
-0.021956846 -0.03462363 -0.14824048 -0.17024644 0.10271011 0.076788835 0.1552812 -0.17060877
-0.1746643 0.07813865 -0.113865614 0.017578427 -0.19196513 -0.03238611 0.19607338 -0.13282952
-0.06801378 0.0807581 -0.025279624 -0.17331521 -0.18728966 -0.1604759 -0.11430531 -0.057759188
-0.048992526 0.05815811 0.07480726 -0.08958333 -0.208426 -0.081674196 0.054643035 0.09365589
0.028240547 -0.044134315 -0.12875704 0.0035113273 0.09236944 -0.14447121 0.06431917 -0.040633623
0.023746872 0.025183447 0.032387316 0.16869305 0.04567773 -0.072413266 0.086707026 -0.011345745
0.11580061 0.03873087 -0.14662269 -0.08518626 -0.09419006 -0.022856351 -0.07668862 -0.080627896
0.17085923 -0.14427651 0.19271274 0.06120435 -0.069635056 -0.15930676 -0.021374466 0.12463447
0.1097353 -0.011118565 -0.1487379 0.12650661 0.051672127 -0.107815765 0.0045650727 -0.18406728

nns.2.0.bias f4 [64]
00000000: fa29 0abc 7048 c33c 1429 9d3b dae1 07bd
00000010: f7fc dbbc f03c 843c 7765 d7bb ce6b d53c
00000020: 8979 fdba 95b9 083c a8b9 8c3c 675d 103d
00000030: d7d4 13bd 91fe 3fbd 4a10 c4bb 01b5 893d
00000040: 8f59 343a 6660 06bd 9d88 373c c564 233d
00000050: 6b3e 3c3c b711 79bd fd83 4e3c e79d 863c
00000060: ecf3 ccbc 1976 fdbc 0ad7 0e3d 5c7e 47bc
00000070: 105d 6c3c e338 5abc 4286 91bb 7c54 28bd
00000080: e9a8 1cbc 8398 05bd b876 173d 8a0d df3c
00000090: abdc ecbb 8f76 823b 035f 8f3c 373f 2cbc
000000a0: 70b7 833c 616b 07bc 8e5c cfbc 11b1 04bd
000000b0: 0ca4 29b9 7126 073b a866 4bbc 329b da3c
000000c0: a448 94bc 9607 32bd ba97 61bc 6b3e 0bbc
000000d0: 1afa 28bc e75b fcbb 2306 b4bb c497 57bd
000000e0: a524 9cbb b416 d33c 4038 eb3c 8fe5 90bc
000000f0: b5a5 da3c a2a6 0a3d 98c2 083c ac01 08bd
-0.00843286 0.023838252 0.0047961567 -0.033174373 -0.026854021 0.016142339 -0.006573375 0.026052382
-0.0019338588 0.008345027 0.017178372 0.035245325 -0.03609165 -0.046873633 -0.005983387 0.06723977
0.00068798003 -0.032806776 0.011202005 0.039891023 0.011489491 -0.06080791 0.012604711 0.016432716
-0.025018655 -0.030940102 0.034873046 -0.0121761225 0.014426485 -0.013319227 -0.0044410536 -0.041096196
-0.009561756 -0.03261615 0.036978453 0.027228136 -0.007228454 0.0039814184 0.01750136 -0.0105131185
0.01607868 -0.008265347 -0.025312688 -0.032395426 -0.00016178208 0.0020622278 -0.012414612 0.026685331
-0.018101044 -0.043464266 -0.013769085 -0.008498768 -0.010313535 -0.0077013853 -0.0054938956 -0.05263497
-0.0047651106 0.025767662 0.028713346 -0.017687587 0.026690343 0.03385032 0.008347176 -0.03320472
