weight/IMDB-BINARY/Client_5.pth (torch, 260953 bytes, 24 tensors)

bns.0.running_mean f4 [64]
00000000: 252a 3ac0 3c40 b840 e4dd bc40 056a 39c1
00000010: 2ccd b9c0 40cc 5b41 985a 1241 87cc c940
00000020: c8f5 0841 7dc9 0141 9739 3e41 f673 ebc0
00000030: abfa 3a41 ec57 1841 1eaa 9ec1 701a 0b3f
00000040: 7803 91bf c081 bdc0 ee5e 6fc1 3b4f 5340
00000050: 1eb2 0141 9af6 7b41 f9b1 f9c0 5b60 5140
00000060: 96ee 7c3e dbe5 36c1 9198 4841 d2df f9c0
00000070: cf2f 32c1 84a5 ffc0 cdbe fbc0 d052 e340
00000080: 4e26 8dc0 1c7c 98bd 46a5 5441 2974 b040
00000090: 95db 3fc0 366a 2dc1 0d27 3641 dcd0 2541
000000a0: 4c99 69c1 e621 3841 ab81 4bc1 5341 04c1
000000b0: 175c 42c1 933e 9040 8800 b73f 16a2 d03e
000000c0: 85a9 d340 9524 683f 1271 8dc0 5e9f 0141
000000d0: 9870 01c1 38f1 01bd 8881 4dbd 1afa 31c1
000000e0: 8077 b4bf 27d8 243d 4271 8740 1989 c13f
000000f0: b72b 9840 cdd5 9040 f644 08c1 1e04 31c1
-2.9088223 5.757841 5.9020863 -11.588384 -5.8062954 13.737366 9.147118 6.3062167
8.560005 8.111691 11.88906 -7.3579054 11.686198 9.521465 -19.833065 0.54337215
-1.1329184 -5.9220886 -14.960676 3.3017108 8.105986 15.747705 -7.802975 3.271506
0.24700388 -11.431117 12.537248 -7.808572 -11.136672 -7.9889545 -7.867041 7.103859
-4.410926 -0.07445547 13.29035 5.5141797 -2.9977772 -10.83843 11.384534 10.363491
-14.599926 11.508276 -12.719157 -8.265948 -12.147483 4.5076385 1.4297037 0.40748662
6.6144433 0.9068082 -4.4200525 8.101408 -8.089989 -0.031724185 -0.05017236 -11.12356
-1.4098969 0.0402452 4.2325754 1.5119964 4.7553363 4.5260987 -8.516836 -11.063505

bns.0.running_var f4 [64]
00000000: c031 bf39 14a0 083a 7b28 333a 8ff9 553a
00000010: 52c6 5c3a 3f9c 3f3a 604f 1a3a a024 7039
00000020: e5c6 f439 a040 083a 8cfe be39 e223 0a3a
00000030: 2f50 d639 d088 ff39 359a ae3a 297f 163a
00000040: eda2 8d39 4540 383a c1ac 903a aa28 8539
00000050: 4b19 073a bcde 713a b361 2e3a 13af fd39
00000060: 875e f739 aa76 443a ecfc 2c3a c37a 273a
00000070: 39cb c639 63d5 0d3a d4fc 9b39 6d87 bd39
00000080: cc79 7c39 9ea5 be39 2ef6 673a 700b 8b39
00000090: 93ce cc39 e453 c739 d1f5 4c3a c1ee b139
000000a0: 887e e53a 59fe 863a 1a5c 643a a817 9a39
000000b0: 00b9 743a 367a 6f39 51ba 4c3a e247 7839
000000c0: 6c30 9d39 3b4d de39 a223 7539 8abd c739
000000d0: 0cf9 8c39 a39b 383a c033 a739 61a0 1f3a
000000e0: 5d52 c638 c894 1c3a 4702 ca39 abfe b839
000000f0: b7a5 4e39 0815 ca39 37d5 9c39 7c0b 5f3a
0.00036467426 0.0005211842 0.000683434 0.00081624923 0.0008421886 0.0007309354 0.00058864616 0.00022901827
0.00046687495 0.0005197618 0.00036429276 0.0005269629 0.00040877002 0.00048739323 0.0013321104 0.0005740994
0.00027015005 0.000702862 0.0011037813 0.00025398034 0.000515361 0.00092266104 0.00066521316 0.0004838636
0.0004718194 0.0007494489 0.00065989676 0.00063888374 0.00037916916 0.000541052 0.00029752275 0.0003614979
0.00024077966 0.00036363018 0.00088486343 0.00026520668 0.00039063822 0.0003801874 0.0007818612 0.00033937956
0.0017509023 0.001029919 0.0008711234 0.00029390794 0.00093354285 0.00022838343 0.0007809746 0.00023677901
0.0002998145 0.0004240068 0.00023378295 0.00038097455 0.00026888435 0.00070422346 0.0003189128 0.0006089267
9.456717e-05 0.0005973098 0.0003853014 0.00035284957 0.00019707425 0.00038544112 0.00029913496 0.0008508486

bns.1.running_mean f4 [64]
00000000: 8cad 8e3d c902 17bd 9560 2bbe 2815 38bd
00000010: 2f0b 95be 514b 87be cae0 063e 5af5 4e3d
00000020: a9c9 e5bd 3272 f2bd 8f4e f93c 86cb 633e
00000030: 57bc a9be 6b63 bc3d 10ea cb3e 35c2 313e
00000040: b5be eabd 5e78 8c3e edd9 d3be 0991 b4be
00000050: e5ba bbbd f0a0 7e3e f6b0 843e e67e 3f3e
00000060: 3f22 6abe c978 6b3e 3301 dc3d caae 6cbd
00000070: cc5a 693d ddf7 92bc e00a 7fbe e01d a23d
00000080: 3616 3cbe 5789 913b 06f5 db3d ee12 d93e
00000090: ee32 983e 9c95 eabd 8921 9abd 81d6 043e
000000a0: c7bd 853d 0e29 9b3d 0784 3f3d aa2e 073f
000000b0: 0384 0dbd 3fd5 913d bd61 84be b749 b3bd
000000c0: 6ae8 80be a061 123e decd acbe 20f7 55be
000000d0: 8689 f7bd f4e2 37be c544 5f3e 7dd5 a33d
000000e0: 22a9 5c3e 6977 bf3c 63dd 883e 9587 30be
000000f0: be7f bcbc 42e8 043e 67b0 4a3d 3895 b73d
0.06966695 -0.03686789 -0.16736062 -0.04494205 -0.29110095 -0.2642465 0.13171688 0.050526954
-0.11220104 -0.11838187 0.030432967 0.22245607 -0.33151504 0.0919865 0.39827013 0.1735924
-0.11462156 0.27435583 -0.41377202 -0.35266903 -0.09166507 0.2486608 0.2591626 0.18700752
-0.22864626 0.22995295 0.10742416 -0.05778388 0.056971356 -0.017940456 -0.24906492 0.079158545
-0.18367848 0.004441421 0.10740094 0.42397255 0.29726356 -0.11454317 -0.075259276 0.12972452
0.06530338 0.0757619 0.04675677 0.5280558 -0.034549724 0.071207516 -0.25855818 -0.08754294
-0.25177318 0.14295053 -0.33750814 -0.20895052 -0.120867774 -0.1795767 0.21803577 0.07999704
0.21548894 0.023372369 0.26731405 -0.1723922 -0.023010131 0.12979224 0.049484637 0.08964008

bns.1.running_var f4 [64]
00000000: ada2 353f 4b23 9d3f b885 8d3f 53f3 323f
00000010: 2f48 3940 a79a 2e40 b37e 9b3f fed1 b33f
00000020: 918c e03f 7fa1 673f 4cdf fc3e fd76 0340
00000030: e85e 4540 3656 263f 0799 6f40 283d 993f
00000040: ca3e b53e 5132 1440 769e 6f40 ada9 3440
00000050: f834 253f 7041 1540 6558 1e40 fe94 9d3f
00000060: f460 2d40 5705 c13f 6cae 4d3f 39b4 a03e
00000070: 2473 0e3f 4faa b23f 8301 4240 4d54 2f3f
00000080: 5036 593f 82cb 6a3e 4f4c dd3e 0437 8240
00000090: 2456 2940 0a36 043f f274 203f a44e c33f
000000a0: 6a2a 123f 4f9b 343f 9a29 153f b5ae e940
000000b0: 5218 5f3f 45cf c93e eae6 d73f fae6 e53e
000000c0: 441b ba3f c9ce 8c3f 2401 8240 5748 cc3f
000000d0: bf8f 1640 ba2d 813f bbb1 ac3f 85ab 1b3f
000000e0: 6e6b d03f c794 413e b295 4c40 a599 a53f
000000f0: 56d9 8e3e 76fa 913f 3e50 aa3e 3f4a c93f
0.7095135 1.2276396 1.1056433 0.69902533 2.8950307 2.7281892 1.214804 1.404846
1.7542897 0.904808 0.49389112 2.0541375 3.0839176 0.649753 3.743715 1.1971788
0.35399467 2.315571 3.7440467 2.8228562 0.6453395 2.332119 2.4741452 1.2311094
2.7090425 1.5079755 0.8034427 0.313875 0.5564444 1.3958224 3.0313423 0.6848801
0.848485 0.22929195 0.4322228 4.069216 2.6458826 0.5164496 0.62678444 1.5258374
0.5709597 0.7054948 0.58266604 7.3025765 0.87146485 0.39415947 1.6867344 0.44902784
1.4539571 1.1000606 4.062639 1.5959576 2.3525236 1.009208 1.3491739 0.60808593
1.6282785 0.1890441 3.1966367 1.2937514 0.2790019 1.140456 0.33264345 1.5725783

bns.2.running_mean f4 [64]
00000000: c46a 07bd e214 15be 678e cb3d c9c9 173d
00000010: 67db efba 7f11 4f3e 7403 83be 261c 993d
00000020: 1eb5 84be 230e 56bd 84c6 ddbd 3886 7dbe
00000030: 71f0 03bc a7f9 ba3d 5be7 263d 5ff8 253d
00000040: 8192 503e 6c63 eabc d9b1 3f3e 293a 9b3e
00000050: f393 a1bd d7c3 05be 6782 d9bc 3615 293e
00000060: 958c a6bd d474 923e 03f7 90be d56c 983d
00000070: 723f 863e eba7 81be 27b7 21bc 30d5 643e
00000080: f45e 36be a20a 433d 0356 da3d d076 1cbe
00000090: 29db 8abe 36f4 50be facb 8b3e 6eca b9be
000000a0: 2bb9 cdbe e2a6 2e3e 5c70 0dbc 3b36 c13d
000000b0: 2650 5e3e 2ddf fe3d 9646 803e 2e5d e3bd
000000c0: 5022 27be dbcb 3abe 931b 31be db97 0c3e
000000d0: 1fe9 ad3d 916d 943e 5061 29bc ef3d 60bd
000000e0: bbd6 b13d 9a64 23be 0fe8 82bd 359a 183d
000000f0: 99f6 023d fcd3 b33d 0480 163e 4e44 1e3e
-0.033060804 -0.14558747 0.099392705 0.03705767 -0.001829964 0.20221518 -0.25588572 0.07476072
-0.2591943 -0.052259576 -0.108288795 -0.24758232 -0.008052931 0.09129649 0.04074798 0.04052007
0.20368387 -0.028611861 0.18720187 0.3031781 -0.07889547 -0.13062988 -0.026551438 0.16511998
-0.08132283 0.28604758 -0.28313455 0.07442633 0.2622028 -0.25323424 -0.009870327 0.2234695
-0.17809659 0.047617562 0.10660937 -0.15279698 -0.2712033 -0.20405659 0.2730406 -0.36287254
-0.40180334 0.17055848 -0.008632746 0.09434172 0.21710262 0.12444911 0.25053853 -0.11101757
-0.16321683 -0.18241827 -0.17295675 0.13729803 0.0849173 0.28989843 -0.0103381425 -0.054746564
0.08683535 -0.15956345 -0.06391918 0.03725644 0.031973455 0.08780667 0.14697272 0.15455744

bns.2.running_var f4 [64]
00000000: 558e 183f 8cff 5d3f 4f67 0740 7c3d 593f
00000010: 8148 683f d09a 1840 3eb0 1240 bea1 423f
00000020: 9e86 3940 9861 663f 975c 9d3f debd 3e40
00000030: 5516 1a3f 76cd a83f bb6a e13e ea48 a33f
00000040: cc9b 0540 fab3 0a3f ad12 4c40 bd9e bb40
00000050: 23be 683f 0759 833f 3bbc f83e 2e79 c53f
00000060: 66c7 353f 3dfc 4a40 6843 2f40 06e0 0b3f
00000070: 018e 0b40 9b79 7a40 1870 bf3e 805d 4a40
00000080: d246 653f cd00 563f 41f4 473f b5e6 eb3f
00000090: 1c80 1840 f8f4 3640 1f0a 3740 c815 b940
000000a0: bd97 cd40 144d 9d3f 8492 af3f e64c 033f
000000b0: 04cf dc3f 9914 373f b0c7 0740 aab8 a83f
000000c0: 8799 a93f 8fc0 a13f a153 8a3f cdcb b83f
000000d0: 9cd1 603f db03 3940 c97f e93e f474 9c3e
000000e0: 69a1 f03e c226 3740 3615 0440 0eca a23f
000000f0: 317e 0240 281e 703f 71a8 0c40 561f bb3f
0.5959218 0.8671806 2.1156805 0.8485944 0.9073563 2.384449 2.292007 0.7602805
2.8988414 0.89992666 1.2293881 2.9803386 0.60190326 1.3187702 0.4402674 1.2756627
2.087634 0.5418087 3.1886399 5.863127 0.90915126 1.0261544 0.48581108 1.5427606
0.7100738 3.1716454 2.7384892 0.5463871 2.1805422 3.9136722 0.37390208 3.1619568
0.8956119 0.8359497 0.78107077 1.8429781 2.3828192 2.8587017 2.8599927 5.783909
6.4247727 1.2289147 1.3716588 0.5128921 1.7250676 0.71515805 2.121563 1.3181355
1.3249978 1.2636889 1.0806772 1.4437195 0.8781984 2.8908603 0.45605305 0.30557978
0.46998146 2.8617406 2.0637946 1.2717912 2.038952 0.93796015 2.1977808 1.4618938

nns.0.0.weight f4 [64, 136]
00000000: 851d ba2d 1aa7 30b4 f2e1 c72d 5cf0 23bb
00000010: 35fd d5bc e221 c5bd fc83 aebd 29fd 933b
00000020: 9137 173b b279 ee3d d4cc 433c c0f9 2d3c
00000030: c825 ce3c 16a9 773c 602c 9ebc 028c a039
00000040: 0db7 1a3b 1808 c4bd 87f5 813c 7bb4 0abd
00000050: a2ca 2b39 f6cd 09bb 595d 20ba 4d52 4bbc
00000060: 79c4 22bd 2eab ff38 dce2 752b ba01 3b39
00000070: 15e4 f0b9 08eb 483b ded6 da3b f024 8d30
00000080: 0e87 01ab 3ce7 68bb 4e9d cb38 3e70 87ad
00000090: e586 ae2a b3fd 442b 75f6 d0ab 4c62 e237
000000a0: 3d22 44b7 ca2b ed29 56de e8ac 44a9 6732
000000b0: e71d 2f2a 5173 862c d30c 4fb8 b666 8ea9
000000c0: 42d2 0fab 3d47 3cac 1cbb 78b9 56f7 992b
000000d0: 2541 d7ac 9a81 42ab 1e98 49b2 0025 8939
000000e0: 2d58 e136 1b35 9faa 2421 b328 8830 28b6
000000f0: 90ed c32b 1c27 9eac 58cf a039 c714 61af
00000100: 3e65 04ad 13f0 48b7 7354 f22a ab5e 4938
00000110: 22ff e1b8 098c ac2d 7228 05b7 ed98 ebb7
00000120: 4642 bdaf 0248 fe2a a614 9629 a9fa 3cb7
00000130: 6ca5 5dac bc22 dbb8 4386 d337 d3cc 0e32
00000140: cc4b 4b2f c792 c935 3fcc 532f 66db c62d
00000150: 249d ca34 6cc0 8c2b fe6a 82b1 da25 1aac
00000160: 73fb 08ac 673d 1b35 19b6 00ac 65b8 1538
00000170: 0e1b 3b2d 963e 9fa8 b4c6 2934 5d79 cb2c
00000180: 3f2e ab39 0f2b f636 dacc cdb9 d88e 082b
00000190: 2073 86b6 5bea cfaa 700b 7bad 641c 7e35
000001a0: 04d6 af2b 20c9 a2ab 302d 242c 14be 18ad
000001b0: 7775 3530 8c69 58b3 7295 07b8 b8f6 6e39
000001c0: e072 65b9 30f0 f02b daa9 d02c 9f2f 20ac
000001d0: 6674 b1b1 c03b 67aa 6c05 89ad 16e4 72b3
000001e0: 0911 aeaa 9a24 5bb1 4c32 87ac bdb1 972b
000001f0: 6e2d 8d2b 2056 ff2f 004f 3639 35ca d82e
00000200: afcf 1eaa 4de0 c9b2 68ba 3139 8739 442b
00000210: bd20 812e 1717 47b9 dcb4 de38 dcc0 5235
00000220: 501e 32b7 a48d 4b38 2754 c82a 9bb6 a739
00000230: 4b03 023d 9ccb 8f3d 50ef 1ebe 3d32 2abe
00000240: 410f dabd 0152 e03c 062d 05bc 64a7 93bd
00000250: 1ad9 98bd 1c82 2cbd 7cf3 29bb ea2e f4bc
00000260: 8c2f e43c c5a6 5c3d a893 db3c d454 b6bd
00000270: 83eb 81bd 7a96 873d 67ff d63c e287 923b
00000280: 95fa dd3b c885 8fbc e677 3d2f b5fd 1f36
00000290: 21b5 ae3b 1df1 92bc 7bfa 763c 8a3b b12b
000002a0: 68aa 76b2 c598 5eb9 7237 0435 7a10 b62a
000002b0: e333 ce38 654b 5639 7fca 88b3 d709 4cb4
000002c0: 86a0 cb2b 3264 41ac fb4c 9e39 9467 acb9
000002d0: 7536 6baf 2596 9a34 83f2 9aa8 01e6 7132
000002e0: cf12 0b2b f2b0 9caa b171 c1a7 1eec cfa9
000002f0: f6ce ae31 6b79 3238 ac5c 6632 99f2 5d37
00000300: 4fd9 18ad b219 562b 600f 70ac 5583 082a
00000310: 3f0a 54ae 4be4 f22c 5348 e0ac 0473 632f
00000320: 4c51 b731 88d2 1ab0 0459 05b4 2f66 4cb6
00000330: 1f0e 6b37 7805 a4ab bace b62e 602e 5534
00000340: bab1 c7b7 f38e e32a f543 c7b9 4eae caad
00000350: 98e6 d4af 029d 2b35 75c1 8c2b e1f9 0234
00000360: 17d3 11ae f343 3f2a 846c 77af 67ed b92a
00000370: a268 1db5 1f01 c2a9 2d83 a139 f77c e938
00000380: 8007 25b9 737e cd2a 9167 4432 0332 b1b0
00000390: bc91 6929 4a86 b1ab ae94 b92c 552a a2aa
000003a0: d66e 70b4 29f3 132b 3ef9 34b2 a9e7 c7aa
000003b0: 85d1 e329 f5df 4434 a463 4e2e 2f13 902d
000003c0: 4472 3b2b e419 bc2c 6312 e5a9 ed9d bb2d
000003d0: e892 aea9 5659 d7aa 46b6 c22a c941 51aa
000003e0: b461 842e bdde 0234 9f1e c32a 1fec 3e2a
000003f0: 1efb 2a39 2983 5c2b 2b6e 0529 11c1 beab
2.1158861e-11 -1.6452069e-07 2.272402e-11 -0.0025015092 -0.026121715 -0.09625603 -0.08521268 0.004516263
0.0023073892 0.11644305 0.01195069 0.010618627 0.0251645 0.015115997 -0.019308269 0.00030621892
0.0023607642 -0.09571856 0.015864147 -0.033863526 0.00016383317 -0.0021027303 -0.00061174255 -0.012409759
-0.039738152 0.00012191232 8.7356316e-13 0.00017834353 -0.00045946302 0.0030657668 0.006678446 1.0269599e-09
-4.601743e-13 -0.0035538217 9.7090946e-05 -1.5397569e-11 3.100221e-13 6.9985266e-13 -1.4847694e-12 2.6987072e-05
-1.1690482e-05 1.05325105e-13 -6.618521e-12 1.3484456e-08 1.5553497e-13 3.8213118e-12 -4.936459e-05 -6.323884e-14
-5.1095597e-13 -2.6755952e-12 -0.00023720827 1.0939953e-12 -6.1179e-12 -6.9102504e-13 -1.1734327e-08 0.00026158243
6.7157875e-06 -2.8280923e-13 1.9887365e-14 -2.50622e-06 1.392152e-12 -4.494972e-12 0.0003067206 -2.0471012e-10
-7.525812e-12 -1.1976826e-05 4.3046434e-13 4.80103e-05 -0.00010776358 1.9616324e-11 -7.936835e-06 -2.8085395e-05
-3.442599e-10 4.516943e-13 6.66492e-14 -1.1264035e-05 -3.1497817e-12 -0.000104492035 2.521568e-05 8.3120595e-09
1.8489671e-10 1.5018385e-06 1.9262901e-10 2.2607426e-11 3.7739767e-07 1.0001006e-12 -3.7956616e-09 -2.1905728e-12
-1.9466345e-12 5.783135e-07 -1.8290979e-12 3.56961e-05 1.0635727e-11 -1.7679688e-14 1.5811639e-07 5.783081e-12
0.00032650118 7.336384e-06 -0.00039253273 4.851514e-13 -4.0069135e-06 -3.6933203e-13 -1.4270238e-11 9.466369e-07
1.2493899e-12 -1.1566616e-12 2.3330886e-12 -8.6824055e-12 6.6014344e-10 -5.0387413e-08 -3.232569e-05 0.00022789359
-0.00021881936 1.7119691e-12 5.930573e-12 -2.2763803e-12 -5.164611e-09 -2.0537651e-13 -1.5577505e-11 -5.655246e-08
-3.092043e-13 -3.18895e-09 -3.842515e-12 1.0778528e-12 1.0031262e-12 4.6445425e-10 0.00017386302 9.858462e-11
-1.4105274e-13 -2.350148e-08 0.00016949477 6.9713023e-13 5.872056e-11 -0.0001898672 0.000106194726 7.8511744e-07
-1.0616684e-05 4.8530885e-05 3.558553e-13 0.00031988774 0.03174142 0.07021257 -0.15520978 -0.16620727
-0.10647441 0.027382853 -0.00812841 -0.072096616 -0.07463284 -0.04211627 -0.0025932482 -0.029807527
0.027854703 0.05386998 0.026803806 -0.089028984 -0.063437484 0.06620498 0.026244832 0.004471765
0.0067742565 -0.017519847 1.7232046e-10 2.3840523e-06 0.005331651 -0.017937237 0.015074368 1.2593132e-12
-1.43578305e-08 -0.00021228481 4.9254515e-07 3.2341127e-13 9.83251e-05 0.00020436717 -6.369827e-08 -1.900256e-07
1.4468572e-12 -2.748257e-12 0.00030193463 -0.00032883568 -2.1392473e-10 2.879398e-07 -1.7202607e-14 1.4080343e-08
4.940882e-13 -2.7833947e-13 -5.3691525e-15 -9.2336064e-14 5.0875952e-09 4.2551586e-05 1.3408833e-08 1.3229111e-05
-8.688452e-12 7.606373e-13 -3.4114586e-12 1.2124791e-13 -4.821232e-11 6.9033993e-12 -6.3744925e-12 2.0686391e-10
5.3352434e-09 -5.6324057e-10 -1.2418974e-07 -3.0457848e-06 1.4010379e-05 -1.1654419e-12 8.313124e-11 1.9854042e-07
-2.3805409e-05 4.042249e-13 -0.0003800687 -2.3042148e-11 -3.8726422e-10 6.393094e-07 1.0001293e-12 1.2198099e-07
-3.315667e-11 1.6987782e-13 -2.2503072e-10 3.3027332e-13 -5.863932e-07 -8.615525e-14 0.00030806047 0.00011133582
-0.0001573842 3.6503057e-13 1.143225e-08 -1.2892659e-09 5.1862797e-14 -1.2613879e-12 5.274523e-12 -2.8806355e-13
-2.2392064e-07 5.2562344e-13 -1.053405e-08 -3.5510248e-13 1.0117171e-13 1.8335398e-07 4.6927476e-11 1.6379424e-11
6.659432e-13 5.346156e-12 -1.01728325e-13 2.1329572e-11 -7.7526364e-14 -3.825366e-13 3.45878e-13 -1.8585753e-13
6.0200206e-11 1.2188225e-07 3.4660206e-13 1.6957311e-13 0.00016306012 7.834172e-13 2.9627488e-14 -1.3553899e-12

nns.0.0.bias f4 [64]
00000000: 40a5 7d37 b25e 02bd c973 65b8 4423 16bd
00000010: 9c84 0c3d 5bd8 7e33 7572 f6ba 9ba4 f0b9
00000020: b0ad d03c d64e 7431 cb20 133c b4e9 7eb4
00000030: 604d 24bb a7d5 953c 3a23 373c 66d4 44bc
00000040: 902e a3bc e81a 453c d036 003c 392a c138
00000050: 5010 5dbd 2fb3 a8bc aba8 8fbc 3203 50bc
00000060: beb4 60bd 5a6f bc32 3e74 8abc 603a 83bb
00000070: a697 d93b 1f41 b6bc 3ef2 23b3 da2e 0a3d
00000080: 1f11 99bd 988d e13c 7acc 903d b8f4 9fb8
00000090: 4e3c a7bb eee5 b537 f0fe 2b3c 5f71 78b8
000000a0: a624 0732 ef8c a23d b277 feb5 3b4e 5fbc
000000b0: d6ba aab7 076b 1935 7476 543c 4b43 473c
000000c0: 78dc 3fbc cb3e cf3b ca2b 3e35 db3a 5535
000000d0: 16d0 9fbc 0294 0dbc 5d2f a6bc 3ed9 ae3d
000000e0: 46a1 ff34 16c8 92b9 b201 2db9 a922 4a3d
000000f0: 6772 4a3c e34a dd3c da55 313d 4b2a 3eb9
1.511845e-05 -0.03182859 -5.4705688e-05 -0.036654726 0.034306154 5.9335758e-08 -0.0018802421 -0.00045899008
0.025473446 3.5551486e-09 0.008979986 -2.3740614e-07 -0.0025070533 0.018290354 0.011177832 -0.01201353
-0.019919664 0.012030341 0.007825568 9.210822e-05 -0.053970635 -0.020593254 -0.017536482 -0.012696074
-0.05485987 2.1936717e-08 -0.016901132 -0.0040047616 0.0066403924 -0.022247849 -3.8171713e-08 0.033736087
-0.07473969 0.027533337 0.07070251 -7.627293e-05 -0.0051036244 2.168395e-05 0.010497794 -5.9233393e-05
7.866367e-09 0.07937037 -1.8959311e-06 -0.013629491 -2.0352581e-05 5.7152687e-07 0.012967695 0.01216204
-0.011710279 0.006324624 7.0844237e-07 7.943433e-07 -0.019508403 -0.008641245 -0.020286256 0.085375294
4.7614793e-07 -0.00027996366 -0.00016499197 0.04934946 0.012356377 0.027013248 0.043294765 -0.00018135567

nns.0.2.weight f4 [64, 64]
00000000: ee3b 003b 409f ee3d dc33 4f3e 396b 4bbe
00000010: 2e15 9dbb e6ee 4dbd 5baf 803d 1c24 283c
00000020: ffc1 ec3b 76eb 87bd 2c8c 70bd ee1f 70bc
00000030: c4e8 073e f4f7 39be 5d06 2a3e 5e6c 49be
00000040: 933c 9b3d c84f 4c3d 072e e93d 20fe dcbd
00000050: cdaa d23d d256 02bd c87d b3bd 44ac 573d
00000060: e1e1 933d 4002 3f3c bb49 683d 69f2 1f3d
00000070: e97b 463e 5af5 1fbe 7e67 6cbd 170d 0dbd
00000080: 3b95 42be d5b8 8bbd b9f1 113e f776 02be
00000090: f4b4 5739 2d75 fb3d 8152 96bd ce60 23bc
000000a0: bfd3 bb3c ec54 eebd 9536 a8bb f6a5 173e
000000b0: 144a 293e 4376 1bbc fc63 1dbe 4be4 c1bd
000000c0: 6df2 c3bd 5c4a 323e 1fdc 4cbd 880c 3ebd
000000d0: c386 233e fd05 9d3d ba85 59be 6620 383e
000000e0: 59e3 e13c 8465 28be 6a23 3ebd 7dbc 2a3e
000000f0: 3ade a43c 629c c2bd 6815 043c 0aa0 1abd
00000100: abe8 40bd 7c61 bf3c 4250 37bd 77e6 28bd
00000110: 8c92 bebd fb99 b7bd f271 70bc abcd 8a3d
00000120: dde5 4cbe a97d 173c c787 48bd a250 253d
00000130: a26b 17be 91ff d1bd c89d 56bd 4b9d 1ebe
00000140: 9df5 323e b710 a5bd 9392 bc3d 97a7 9dbb
00000150: 6a9a 91bc 9152 503d 3b11 b33d 1d51 063d
00000160: bf40 55bd b4eb a0bd 1454 493e 2b5d 183e
00000170: 7ae1 b9bd d69d 88bc 1070 a73d 914e b3bd
00000180: d2fb 8c3d 0189 dcbd 8b05 ea3d 7288 4d3e
00000190: 32fa 7e3c 9988 fcbc 28a7 d53d c21e a73d
000001a0: e68b 10bd c8b5 8ebc 8ccd 433d 9bb5 733d
000001b0: c5cd 20be eefd 4d3d a9ef 703e 8d4e b5bd
000001c0: 2891 54be c762 1e3e 0932 593c d9f3 43bc
000001d0: ef42 1ebe c5ee db3d f75d e73b 06a4 323e
000001e0: 4eee 8c3d 1e66 6b3d 1503 933d e43c bfbc
000001f0: 90bf 11be b30e 8bbd b658 043e 1349 4a3e
00000200: 9e9c a1bd 93b1 193d 1d76 b63d ea69 06be
00000210: 4763 893c ef77 9dbc 449f 42bd cd1b 9d3b
00000220: 2dc9 953d 1011 1abd eded 163e cd5f 043c
00000230: 2d64 82bc b105 ffbb d5e8 2bbe 19ff 273d
00000240: e059 a33d fe8e 853c b731 9abb 9627 e63c
00000250: f73a 923d 85fd 58be a42b 4bbc 3002 eb3b
00000260: df1c 433d 8977 f63c dfd8 313e 46ec 15be
00000270: 66bf c0bd ee97 503d 5429 873c aa2e 8abd
00000280: 12ab 2c3e 148e 4f3d cf04 b3bd 4bc1 08be
00000290: be68 a8bd 50cb b3bb c8f9 bd3d 7eee 433d
000002a0: a281 913b 13a6 25be 2e35 4d3e 1325 d1bc
000002b0: 9d32 00be 1f50 533d 1018 fcbd 339d 0c3e
000002c0: 48fe 4a3e c048 98bd 3db9 643c 1e62 a03a
000002d0: 23ea 3f3e 9721 863d 9f9a ab3d de72 223d
000002e0: 6df7 f53b ba1f 06bd dd98 edbb 9545 9a3d
000002f0: 16c0 60bb 3162 213e 33dc 88bd 2269 ccbd
00000300: c244 0bbc 1e46 e0bc 75be 1abe 9c51 1ebb
00000310: 1b49 e7bd 9fcb 52bc b165 c3bd 847b 4b3a
00000320: 6a61 a6bd c3d6 c93b 0b92 1cbe b113 dbbb
00000330: 4a35 343e c10a 4d3c 7bb8 153d 02ba 073d
00000340: ae06 333e a945 10bd a691 34be 3241 7e3d
00000350: c00d bebd 689f 0dbe 0140 2e3d 5e5e 2bbc
00000360: eea5 01be 290e eabc 55bf d63d 1292 253e
00000370: fcd3 bb3d d194 d5bc 4de6 53bb 902b 363b
00000380: 7533 0ebe e302 16be 67c8 8dbc 345c 69bd
00000390: 816c 17bd 583b 99bd 23c7 6abd 7483 113e
000003a0: 015b 4cb9 e92c ee3b 4a16 3abe a60b afbd
000003b0: 1b50 fd3c e3f1 a7bb a520 40be 263e a83d
000003c0: 6b5e 573e 4002 de3c a424 7abc 45cc 363c
000003d0: 7aef f23d 92a2 533d 6986 eebd 36a5 123e
000003e0: 77fd a0bc c629 4cbe ca42 2b3c c7e7 d03d
000003f0: c889 f53b 2d7d 20be c08b d63d 85e4 173d
0.001956697 0.11651468 0.20234627 -0.19865121 -0.0047937846 -0.05027666 0.062834464 0.010262515
0.0072252746 -0.066367075 -0.05872743 -0.01465605 0.13272387 -0.18160993 0.1660399 -0.19670245
0.07579913 0.049880773 0.11385732 -0.10790658 0.10286484 -0.03182108 -0.08764225 0.05265452
0.07220817 0.011658251 0.05671094 0.03904954 0.19383205 -0.15620938 -0.057715885 -0.03443631
-0.1900224 -0.06822363 0.14252366 -0.12740694 0.00020571408 0.12278209 -0.07339955 -0.0099718105
0.022928117 -0.11637291 -0.00513346 0.14809403 0.16532165 -0.009488645 -0.15370172 -0.094673716
-0.095677234 0.17411178 -0.05001461 -0.04639867 0.15969376 0.07667158 -0.21242419 0.17981109
0.027574228 -0.16444975 -0.046420492 0.16673465 0.020125497 -0.09502484 0.008061744 -0.03775028
-0.04709689 0.023361914 -0.044754274 -0.041235413 -0.09305295 -0.08964916 -0.014675604 0.06777509
-0.20009561 0.009246268 -0.048957612 0.0403601 -0.14787152 -0.102538235 -0.052396566 -0.1548969
0.17476507 -0.08059829 0.09207644 -0.004811238 -0.017773826 0.05085999 0.08743521 0.0327922
-0.0520637 -0.07857457 0.1966098 0.14879291 -0.09076209 -0.016676825 0.08175671 -0.0875522
0.068839684 -0.10768319 0.114268385 0.20071581 0.015562581 -0.030826854 0.10432273 0.081601635
-0.035289668 -0.017420664 0.047803447 0.059499364 -0.15703495 0.050290994 0.23528923 -0.08852873
-0.20758498 0.15467368 0.013256558 -0.011959993 -0.1545522 0.10738901 0.007060762 0.17445382
0.068813905 0.057470433 0.07178322 -0.023344465 -0.14233232 -0.06789913 0.12924466 0.19754438
-0.078912005 0.037522864 0.08909247 -0.1312634 0.016770972 -0.019222228 -0.04751517 0.004794574
0.07313762 -0.03761393 0.14739199 0.008079481 -0.015916908 -0.007782661 -0.16788037 0.041014764
0.07976127 0.016303536 -0.0047056335 0.028095048 0.07140153 -0.2119046 -0.012400541 0.0071718916
0.047634955 0.030086296 0.17367886 -0.14640912 -0.09411506 0.05092614 0.016499199 -0.06747182
0.16862133 0.050672606 -0.087411515 -0.13354985 -0.08223103 -0.005486883 0.092761576 0.047834866
0.0044405023 -0.16176634 0.20039818 -0.025530374 -0.12519307 0.05159008 -0.12309277 0.13731842
0.19823563 -0.07435751 0.01396018 0.0012236272 0.1874166 0.065493755 0.08379101 0.039660327
0.007506302 -0.0327451 -0.0072508887 0.07532803 -0.003429418 0.15760113 -0.06682625 -0.0998099
-0.00850028 -0.027377184 -0.15111716 -0.002415753 -0.11293241 -0.01286593 -0.095408805 0.0007762241
-0.08124049 0.006159635 -0.15290086 -0.006685697 0.17598453 0.012514771 0.036552887 0.033136375
0.17483017 -0.035222683 -0.17633685 0.062073894 -0.09279966 -0.1383034 0.042541508 -0.010459511
-0.12660953 -0.028571205 0.104857124 0.16169003 0.09171292 -0.026071938 -0.0032333315 0.0027796961
-0.13886817 -0.14649539 -0.017307473 -0.056972697 -0.03696871 -0.07482022 -0.057318818 0.14210302
-0.00019488858 0.0072685373 -0.18172565 -0.08547144 0.030921986 -0.0051252707 -0.18762453 0.08214979
0.21032111 0.027100682 -0.015267525 0.0111571 0.11862083 0.05166871 -0.116467305 0.14320835
-0.019652111 -0.1993781 0.0104529355 0.10200458 0.0074932314 -0.15672751 0.10475874 0.037083168

nns.0.2.bias f4 [64]
00000000: 09d4 9e37 51b2 23b7 9944 8ab7 dfdc e937
00000010: d76b 4335 f8d8 8cb6 04d6 b4b7 aa12 ac37
00000020: 5727 d1b6 0af3 4038 66f5 9fb7 6b26 b835
00000030: 175e b537 3c64 3eb7 664b bfb6 3d91 f835
00000040: b9f2 7336 fd38 4338 be5e a0b8 8039 e8b6
00000050: 6974 09b8 3ea8 25b9 c7d1 a238 f533 4037
00000060: 58e2 e636 f043 e6b6 e58c 1bb8 99e9 c036
00000070: c528 9c37 64af a4b7 1e92 3138 93ba cab4
00000080: caa3 7b37 d23c 4cb6 119e 9538 549d 40b6
00000090: 8c3f a3b8 91bc 9837 3dbb a5b7 79b0 3c36
000000a0: b802 8fb6 f59a 1438 2d1b 0ab6 32f0 dab8
000000b0: c48e 3238 0d12 9cb6 5b18 3ab7 a336 0a38
000000c0: ffe0 51b7 911a 5f36 671d 94b8 75ae 7e36
000000d0: f864 b338 4309 3f38 e5f5 e9b7 47a7 4fb8
000000e0: 9c3a 67b7 8a93 ddb7 e2c9 5d38 7ca8 98b6
000000f0: 4301 b037 3f7a 7338 6c05 0bb6 54d2 0d38
1.8933804e-05 -9.757075e-06 -1.6482825e-05 2.7878616e-05 7.280009e-07 -4.1975836e-06 -2.1557331e-05 2.0512689e-05
-6.233265e-06 4.6002715e-05 -1.906855e-05 1.3720249e-06 2.1620695e-05 -1.134822e-05 -5.701021e-06 1.851971e-06
3.6351105e-06 4.6544697e-05 -7.647042e-05 -6.9208327e-06 -3.277176e-05 -0.00015798301 7.763836e-05 1.1456189e-05
6.880884e-06 -6.862443e-06 -3.7086098e-05 5.7492402e-06 1.8615634e-05 -1.9631996e-05 4.233617e-05 -3.7761183e-07
1.4998901e-05 -3.043377e-06 7.134316e-05 -2.8701807e-06 -7.784282e-05 1.820762e-05 -1.9756722e-05 2.8116904e-06
-4.2620486e-06 3.5430265e-05 -2.057942e-06 -0.0001043979 4.2571468e-05 -4.6512637e-06 -1.1092135e-05 3.295265e-05
-1.2509757e-05 3.3245053e-06 -7.0626666e-05 3.7950497e-06 8.554192e-05 4.5546574e-05 -2.7890268e-05 -4.9508435e-05
-1.3782319e-05 -2.6413956e-05 5.2878524e-05 -4.549567e-06 2.0981422e-05 5.8049565e-05 -2.071577e-06 3.3812903e-05

nns.1.0.weight f4 [64, 64]
00000000: 5e0a 353d 5ac2 aabd d862 ad3b b477 a93b
00000010: eb80 bcbc 13ed bcbd 55cb 193c c708 01bc
00000020: 9dbc 3cbe be6f 04be 40d1 e7bd 01ce 603e
00000030: 12c3 743d 1c29 c03c b617 fd3c b03b 993d
00000040: 0fea 42be 5d82 97bd 2021 7a3c 6acb 0bbe
00000050: 2b83 debd a90d 64be 7965 48bd a7a0 803d
00000060: c129 22be 9b6f 903d 419c 463d 9769 38bb
00000070: df74 a3b8 d3ed e63d 0e73 293e 393b 0dbe
00000080: cacd 9e3d 26ff f53c 524b 583d c7cc 41be
00000090: 013d d13d 2f1b 2d3e 1b34 0a3d a91a 3e3d
000000a0: fc9b c43d f867 2a3e 2924 5d3d 902f 053e
000000b0: 9523 003e f15d b5bd 41eb 90bd f14d 03bb
000000c0: 7559 243e 0112 0f3d 5b73 debc 3125 103e
000000d0: 9427 27be 4963 1b3e f8e5 2fbe 4722 403e
000000e0: 8ef4 15be c990 10be 076e 31be 2dfa f63d
000000f0: 3fe1 ecbd c8a8 2f3e d01c 4d3e a03d 583d
00000100: cd25 293e b2e8 acbb 2d5e c0bd dc15 12be
00000110: 0171 3c3e be04 92bd f3c5 23bd f0ea e83d
00000120: 5352 1e3e 013a 0dbe ee71 0d3e 5e85 0dbd
00000130: 9271 2e3e 0165 90bb b380 3bbe 6a3c 193e
00000140: c867 86bc d87b 2abe 93bd 133e 59de 39bd
00000150: 41bb 16be 4d2a 4bbd d9d0 2c3e 3c7d 3f3e
00000160: 231f 20be c624 d9bd c580 563e 0592 3dbe
00000170: 979c de3c 6e0d 0d3d bc65 333c 3f05 3cbe
00000180: 557a b93d 74f6 b4bd 4cac 883c e020 31be
00000190: 88ae 6fbd 5259 acbc 0cbd 493e 4f9a 7fbc
000001a0: 0496 8ebd 123c fcbd cb68 a83d ca82 a2bd
000001b0: 78f0 2cbe 3a80 27bd fc5e 0ebe 0399 2abe
000001c0: 5415 a5bc 59c4 143e 0886 68be be7f a03d
000001d0: 2b82 4c3e d783 753d 94af 663e 5bb8 1b3d
000001e0: 6c36 0bbe e214 a7bc 4199 d0bd f810 7bbd
000001f0: 7113 153e 1de0 96bd 5c34 2bbd a002 2bbe
00000200: e4e0 3dbd a836 37bc 9319 823d 05b2 d93d
00000210: 52f0 233d bc71 40be 3752 413e bba0 52be
00000220: 3c49 3dbe d20f f3bd 145b 1d3d 58a8 0ebe
00000230: 96db 353e 4ebe fe3d 0cc2 54be 8789 51be
00000240: 6ba2 ccbd 5ed1 d43d 8e78 eebd e668 1cbe
00000250: a611 bc3d a053 513e 4316 9a3a 0306 14be
00000260: 9e38 0e3e ef3c 14be c7a1 36bd 4077 c0bd
00000270: 171e 2cba 721e dabd cba8 52be 3f23 3b3e
00000280: 91b2 50be a98c 193e e837 a4bd e475 8f3d
00000290: c50e 103e eb47 f33d 267e 2abe 00fe bebc
000002a0: 3622 483e b2b7 f53c 8eb0 463d 3112 a03d
000002b0: 34b7 18be fca4 e6bd 2e58 423e ab27 d3ba
000002c0: d7c8 d9bd ab27 a7bd df1e e53d c51e 123d
000002d0: f73d af3d 56d2 393e ce67 01be b62c fcbd
000002e0: cbbb 1fbe b4da bcbc b7ba 343e 0080 6d3d
000002f0: 283a 9f3d 2e79 ff3c 9b44 13be eb38 33bd
00000300: c038 c1bd 6cb7 f73d ab74 3ebd b6b3 8bbc
00000310: 350c 84bd bf33 dc3d 7d46 febd de1d 29be
00000320: f04f 3fbe 5631 053d 1422 a1bc b33d c93d
00000330: f538 23be ee1e 443e 0348 3f3d 6097 1ebc
00000340: 7503 a93d 3427 bf3d 0781 293e 5b32 5a3e
00000350: d21d 183e f0cd 3ebe 94bd f2bd 6ccd 9bbd
00000360: 611d 4ebe 7edb 193e 1f28 66bc 017c 18be
00000370: da67 f8bd a99c dcbd 1df0 6a3e 7182 02be
00000380: 0ae3 eabd 8e90 3a3e 2c62 1c3d 9205 0c3e
00000390: 2867 3cbe 5077 4fbe 4c59 9c3d 3b86 d33d
000003a0: 52a8 ab3d 2c63 57be 256e 0ebe 5651 3ebe
000003b0: 002b 7fbd 0169 b63d cb2a 72be ebff e03b
000003c0: 652d 7b3d ab71 07be 0338 29be 66de 00be
000003d0: 91c3 fd3d a6f3 5b3d b53e fc3d 952e b43d
000003e0: 7556 d2bd 6e2d 613e 66c2 f73c de2c 853d
000003f0: 91e4 acbd 3db5 553d 576c a9bd 3b0a 5f3e
0.04419934 -0.08337851 0.005291324 0.0051717404 -0.023010692 -0.09224906 0.009386857 -0.007875628
-0.18431325 -0.12933251 -0.11319208 0.21953584 0.059756346 0.023457102 0.030895095 0.074820876
-0.19034599 -0.07397912 0.015266687 -0.13651815 -0.10864862 -0.22270836 -0.048924897 0.06280642
-0.1583624 0.07052537 0.04848886 -0.0028139108 -7.7942146e-05 0.1127583 0.16547796 -0.13792123
0.07754095 0.03002889 0.052806206 -0.18925773 0.10216714 0.16904901 0.033741098 0.046412144
0.09600064 0.16641223 0.053989563 0.13006425 0.12513573 -0.088558085 -0.07076121 -0.002003547
0.1604975 0.03492928 -0.027154615 0.14076687 -0.16323692 0.15174593 -0.1717757 0.18763076
-0.14644071 -0.14117731 -0.17327128 0.12059436 -0.115664 0.17154229 0.20030522 0.052793145
0.16518326 -0.005276763 -0.093929626 -0.14266151 0.18402483 -0.07129811 -0.0399837 0.11372936
0.15461092 -0.13791658 0.13812992 -0.034551017 0.17035511 -0.004406572 -0.18310814 0.14964452
-0.016406909 -0.16648805 0.14427786 -0.045378063 -0.14719869 -0.049600888 0.16876544 0.18700117
-0.15636878 -0.10602717 0.20947559 -0.18512733 0.027174277 0.034436636 0.010949548 -0.18361376
0.09056536 -0.0883607 0.01668372 -0.17297697 -0.058516055 -0.021038685 0.19701022 -0.015600755
-0.06962207 -0.12316145 0.08223113 -0.07935102 -0.16888607 -0.04089377 -0.13903421 -0.16659932
-0.020151772 0.14528026 -0.22707379 0.07836865 0.1997153 0.059940185 0.22527915 0.038017612
-0.13594979 -0.0203957 -0.10185481 -0.06129548 0.14558198 -0.07366965 -0.04179798 -0.1670022
-0.04635705 -0.011182465 0.06352534 0.10629658 0.04002411 -0.18793386 0.18879019 -0.20569126
-0.18484968 -0.11868252 0.038416937 -0.13931406 0.17759547 0.124386415 -0.20777148 -0.20462619
-0.09991916 0.10391496 -0.11644088 -0.1527439 0.09183054 0.20442057 0.0011755902 -0.14455418
0.13888785 -0.1447637 -0.044587877 -0.09397745 -0.0006565763 -0.10650338 -0.20572202 0.18275164
-0.20380618 0.14995064 -0.08018476 0.07004908 0.14068134 0.11878952 -0.16649684 -0.023314476
0.195443 0.02999482 0.04850822 0.0781597 -0.14913636 -0.11261937 0.1897895 -0.0016109844
-0.1063401 -0.08161863 0.11187529 0.035673875 0.08556741 0.18146643 -0.12637255 -0.123132154
-0.15598981 -0.023053505 0.17649351 0.0579834 0.07774764 0.031185713 -0.1438164 -0.043755453
-0.09434652 0.12095532 -0.046497982 -0.017053466 -0.06447641 0.10752057 -0.12415788 -0.165153
-0.18682837 0.032517754 -0.01966957 0.09826221 -0.15939696 0.19152424 0.046699535 -0.009679645
0.082526125 0.09333649 0.16553126 0.21308272 0.14855126 -0.18633246 -0.118525654 -0.076075405
-0.20128395 0.15025136 -0.014047652 -0.14891054 -0.12129183 -0.10772068 0.22943158 -0.12745072
-0.114690855 0.18219206 0.03817956 0.13674 -0.18398726 -0.20260358 0.076342195 0.10328337
0.08381714 -0.21033925 -0.13909204 -0.18585715 -0.062296867 0.08906747 -0.23649137 0.0068664453
0.06132259 -0.13226955 -0.16525273 -0.12584838 0.12390817 0.053699158 0.12316648 0.08797947
-0.102703966 0.21989986 0.030244064 0.06502698 -0.08442033 0.052174795 -0.08272617 0.21781246

nns.1.0.bias f4 [64]
00000000: 6d0f c3bc fca6 6f3d 4fe1 c23c ae4f d0bc
00000010: ff9e d83c 35e3 1c3d ef69 8fbc ebca d53c
00000020: ec60 563d 960e 18bd ab5a d13c 6240 4e3d
00000030: fbce a33b dc4d 1bbd 3e60 9fbc e83e 1dbc
00000040: 91fa 593d 7cc3 16bd 2825 9e3b 8e35 d9bb
00000050: 4c3f 5e3d a84b cabc 918d 2f3c 2753 83ba
00000060: 287b bb3c 9df0 753d c271 13bc fb4b 333d
00000070: 43a8 e53c af9b 133d ef3e 80bd a9c5 563c
00000080: a643 ae3d cccc 92bc 095d d73b 9ff2 46ba
00000090: 9b5f 4abb 099c 93bd 5627 d3bc 2305 1dbd
000000a0: eb9e 37bd f35a 313b 40bb bfbc 1f8c 2dbd
000000b0: e0cd c1bd 1354 1c3d b396 08bd a62d 223d
000000c0: 1dea 40bd d4f6 993c 453d aa3c b878 27bc
000000d0: 4737 e63c b4bf 8ebd 6736 08bc 07c5 03bd
000000e0: 6662 7ebc d048 e8bc 82fd d9bc 6a4b 09bd
000000f0: b91d c23b 4f70 833d 173a 283c 8604 4fbc
-0.023811067 0.058508858 0.023789076 -0.02542862 0.026443003 0.03830262 -0.017506568 0.026097735
0.052338526 -0.037123285 0.02555593 0.05035437 0.004999039 -0.03791605 -0.019455072 -0.009597518
0.053217474 -0.036807522 0.0048262067 -0.0066286987 0.054259583 -0.024694279 0.010714904 -0.0010019288
0.022885874 0.06004392 -0.00899929 0.043773632 0.028034335 0.036037143 -0.06262004 0.013108649
0.08508997 -0.01791992 0.00657237 -0.0007589254 -0.003087974 -0.07207496 -0.025775593 -0.038334977
-0.04482929 0.0027062267 -0.023404717 -0.042369958 -0.09463096 0.038166117 -0.033346843 0.039594315
-0.047098268 0.018794455 0.020781169 -0.010221653 0.02810253 -0.06970158 -0.008313752 -0.03217032
-0.01552639 -0.028355032 -0.02661014 -0.033519186 0.0059239534 0.064179055 0.010267756 -0.012635356

nns.1.2.weight f4 [64, 64]
00000000: 6c6c 3abe ba35 3f3e 2cc0 02be 2af5 1ebe
00000010: b523 2cbe b50e debd dc44 823d 2364 b4bd
00000020: 4f69 023e 7edf 12be ebb1 32bd 0792 32bd
00000030: d9e2 403e 00a5 5a3e 8364 52be a73c f63c
00000040: d7b4 1ebe be04 d03d 2cfd fdbd 3058 33be
00000050: 3a29 b73d 1da9 f8bd c48a f1bd eb05 953b
00000060: 40a8 503e 4a37 213e fcd3 0bbe c912 f03d
00000070: b2f3 38bd b3cd c3bc ddfe 213e 21c7 35bc
00000080: 6958 a03d 1607 033e 300f 20be 23cb 41be
00000090: f79b 3f3e 305a 8cbd a16e c8bd 485f 20be
000000a0: b8a5 7e3e e1ba 1e3e f26d 42be 7f82 2c3e
000000b0: 849a 5c3e af36 21be 1043 303e 53e9 29be
000000c0: d4be 3c3e 8be1 1a3d ce7a 85bd fb8e 01bd
000000d0: 1721 2f3e 3eaa 1cbe be5e 8abc c0fe 383e
000000e0: 5dc6 9cbd 6663 593e 55e8 29be c59f d4bc
000000f0: 7e04 2e3e 57e0 26be ae2e 51bd 4674 c83d
00000100: f618 2dbe 9d80 13be ae19 023d faee 1ebd
00000110: 57bf 3c3e 8d43 9abc 5673 743c e1c2 07bd
00000120: d5b9 20be 42a3 363d 3a33 2ebd bc5e 1dbe
00000130: aad1 193e cc75 47bd 240d 9c3b 8472 8c3d
00000140: 119f a4bd 59eb e3bd 6dfd cf39 e300 01bd
00000150: d173 e6bd 1a78 28be c117 9cbd 1cb8 323e
00000160: 23d4 aabc f356 06bd bd12 b3bd 729e 4dbe
00000170: 2b5d 2ebe 447c 4ebc cd57 18bc 925a b13c
00000180: e223 d6bd 96b0 1d3e cfcd 503e fda8 5bbe
00000190: 4837 7ebd 4af0 aebd 28ff de3d 21d7 50be
000001a0: 07a1 f73d 8592 d8bd a1f9 2cbe ec54 0abd
000001b0: 98ee 063e f771 503e 7807 e1bc a0a1 793b
000001c0: 4be7 2f3e 545c 5cbe 92cd 3abe 24d1 173e
000001d0: c299 593e 13e5 3a3e 9952 1c3e 2aed 22bd
000001e0: c82e 39bc 2658 823d 052e 40be 861f 373e
000001f0: 0c59 56be a288 493d e8a9 bfbd 8dda 243d
00000200: f764 12be b1e7 1cbe 9f5d 3cbe d8a1 243e
00000210: 23ec 153e 820d ffbd 5aec a4bd 6179 073e
00000220: d2b0 103e b736 c33d 6bd0 15bd 85be ebbd
00000230: 314f d43b 192e 06be 50dd fd3d f900 423e
00000240: 65e1 7d3d 69d5 293e 2b1d 0e3e 7d31 50bd
00000250: cb68 493e ae1f e83c d9f5 99bd 823c b0bc
00000260: ca1f dfbd a8f5 af3c dbd3 97bd bdb4 443d
00000270: facd bd3d 5c2e 143e d092 cabd c14e c33d
00000280: f31e 043e 8942 743c c358 1abe e20b afbc
00000290: 37e2 3ebe 60bd cabd 102f cebd 9f6b 793d
000002a0: d7d3 b3bd bed9 76bd 38de e2bd 65c9 6d3d
000002b0: 08ac 3abe d815 3abe 692f 1a3e 34a8 15be
000002c0: cc5b 1f3c e531 a3bd 6970 b7bd 03a0 26be
000002d0: a152 a3bd a09d 433d 31a6 f83d f30f a1bc
000002e0: 7cbb 013e ef57 bcbd 3e4e b4bd 6d5f a83d
000002f0: 728a 6b3e a635 7fbd a68d e1bd 5ec0 5fbd
00000300: 7fe3 3ebe 7b19 3f3e b4d7 133e 88de 513c
00000310: b408 5c3e 7b45 4e3c 9876 de3d 9a46 823c
00000320: 5513 5cbc 4a01 b03d 6354 2d3c 63f0 f63d
00000330: fa3f 43be 60eb 303e 7273 963d 5563 273e
00000340: f48e a5bd dd17 6bbe 2188 e6bc 9228 34bd
00000350: 8d17 253d 9a7b a5bd 2ebe 843d 8c9c ffbd
00000360: adcd bfbc 1190 8c3d 0d45 91bb a816 16be
00000370: df99 e2bd 1284 223e 97d8 15be cf1b 4f3d
00000380: 1090 cf3d a8c3 923c 1b40 4cbe c63e 03be
00000390: f7ce 513e 1d77 0cbe 7d8f ef3d ba5d 27bd
000003a0: 0751 cb3d 142d a93d 40a3 91bd dc9b 3abe
000003b0: c125 f2bd 9278 b4bd a803 23bd 7fc3 143e
000003c0: 7c87 2dbe 43db a3bd 9923 2dbe 24e4 793d
000003d0: 37ca 853b db5c 2b3e a06d b63d 5724 42bb
000003e0: 4b95 1ebe f70a cc3d b542 013a a0d8 a43c
000003f0: 2fbf 0f3e 498f 02be e890 cabd 95c7 1fbe
-0.18205422 0.18672839 -0.1276862 -0.1552321 -0.16810496 -0.10842649 0.0636079 -0.08808162
0.12735485 -0.14343068 -0.043626707 -0.043596294 0.18836536 0.21352005 -0.20546155 0.030058218
-0.15498672 0.101571545 -0.12401804 -0.1751411 0.0894341 -0.12141631 -0.117940456 0.0045478246
0.20376682 0.15743747 -0.13655084 0.11722333 -0.04515428 -0.023901796 0.15819879 -0.011094839
0.07829363 0.12795672 -0.15630794 -0.18925147 0.1871184 -0.068531394 -0.09786726 -0.15661347
0.24867904 0.15500976 -0.18987253 0.16846655 0.21543318 -0.15743516 0.17213082 -0.16592912
0.1843217 0.03781275 -0.06517564 -0.031630497 0.17102467 -0.15299317 -0.01689088 0.1806593
-0.07655022 0.21229324 -0.16592534 -0.02595509 0.16993901 -0.16296516 -0.051069908 0.097878024
-0.16904053 -0.14404531 0.03176277 -0.038802125 0.18432365 -0.018831039 0.014920076 -0.033144835
-0.1569589 0.04458929 -0.042529322 -0.1536817 0.15021387 -0.048696324 0.0047623087 0.068577796
-0.08038152 -0.111288734 0.00039670934 -0.031494986 -0.11252559 -0.16452065 -0.07621718 0.17453045
-0.020853108 -0.032797765 -0.087438084 -0.20079973 -0.17027728 -0.012602869 -0.009298277 0.021649633
-0.10456063 0.15399393 0.2039101 -0.21451183 -0.06206444 -0.08541925 0.10888511 -0.20394565
0.120912604 -0.105748214 -0.16892101 -0.033772394 0.13176954 0.20355974 -0.027469382 0.003809072
0.17178075 -0.21519595 -0.18242481 0.14825875 0.2125006 0.18251447 0.15265884 -0.03977696
-0.011302657 0.06364469 -0.18767555 0.17883119 -0.20932406 0.04920257 -0.09358579 0.04024749
-0.14296328 -0.15322758 -0.18395089 0.16077363 0.1464086 -0.12453748 -0.08052893 0.13229896
0.14129952 0.095319204 -0.036575716 -0.11510948 0.006479167 -0.13103522 0.12395728 0.18945684
0.06198253 0.16585316 0.13878314 -0.050828446 0.19668882 0.028335419 -0.07517595 -0.021513227
-0.10894735 0.021479443 -0.07413455 0.048023928 0.092678025 0.1447081 -0.098912835 0.095365055
0.12902431 0.014908441 -0.15072922 -0.02136797 -0.18640982 -0.09899402 -0.1006757 0.06089365
-0.087806396 -0.06026625 -0.11077541 0.058053393 -0.18229687 -0.18172395 0.15057148 -0.14614946
0.009726476 -0.07968501 -0.089569874 -0.16271977 -0.079747446 0.047757745 0.121410735 -0.019660925
0.12669176 -0.091964595 -0.08803986 0.08221326 0.23002031 -0.062307023 -0.110133454 -0.054626815
-0.1864147 0.18662064 0.14437753 0.012809403 0.21487695 0.012589808 0.10862464 0.015902806
-0.0134323435 0.08593996 0.010579201 0.12057569 -0.19067374 0.17277288 0.07346238 0.16346486
-0.08083907 -0.22958322 -0.028141083 -0.043984003 0.040305663 -0.08080216 0.064815864 -0.12481031
-0.023413504 0.06863416 -0.0044332803 -0.1465708 -0.11064505 0.15870693 -0.14633404 0.05056363
0.101348996 0.017915562 -0.1994633 -0.12816915 0.20489107 -0.13717313 0.1169729 -0.04086087
0.09927564 0.08260551 -0.071112156 -0.18223518 -0.11823607 -0.088120595 -0.03979841 0.14527701
-0.16946214 -0.08000805 -0.1690811 0.061008587 0.004082944 0.1673464 0.08907628 -0.002962371
-0.15486638 0.09963029 0.00049308996 0.020122826 0.14037775 -0.12749971 -0.0989092 -0.15603478

nns.1.2.bias f4 [64]
00000000: 5370 2eb8 5a5c 0137 056a f4b7 98f1 63b5
00000010: 6a6d 86b6 7782 3937 15ec b8b7 76eb 2ab8
00000020: a9f8 e2b5 a94a 6437 0c9f ca38 8fc6 6c36
00000030: 0a88 30b9 028e 77b7 8f46 bc35 d680 e036
00000040: b17e 2f39 3778 bd36 1d13 37b7 ed7c 88b8
00000050: 8af7 2337 e2d1 6937 1222 e237 53d5 9ab6
00000060: cb4d 23b7 508d 6db6 a5b9 0e38 0e11 4437
00000070: fef4 9a37 063f 07b7 8809 acb5 64ef abb6
00000080: af02 a0b7 7882 ac36 7030 46b8 b344 1938
00000090: 6742 cb36 4582 2636 3231 0a36 af7c 31b7
000000a0: 6c83 18b7 851e 9bb7 4497 b5b6 83d7 01b8
000000b0: 84e0 4637 8656 e4b6 90bb 56b7 16f7 3737
000000c0: 39ea 35b8 dd06 c6b6 6d7b 4d37 f00c 96b7
000000d0: bc15 6d37 a3b8 eeb6 09f5 9135 6273 90b7
000000e0: 4c29 7f36 65b8 5d37 0477 9c35 dc85 5fb7
000000f0: 989e 72b6 645a 16b8 6f1c 7d37 9c6f ae36
-4.1589443e-05 7.710501e-06 -2.9136436e-05 -8.4915655e-07 -4.0062487e-06 1.10572355e-05 -2.2044444e-05 -4.075045e-05
-1.6910682e-06 1.3607242e-05 9.6617354e-05 3.5282317e-06 -0.00016835346 -1.4755411e-05 1.4027627e-06 6.6907187e-06
0.00016736497 5.646634e-06 -1.09121e-05 -6.5082546e-05 9.773192e-06 1.3936749e-05 2.6957165e-05 -4.614392e-06
-9.73367e-06 -3.5398007e-06 3.4028333e-05 1.1686481e-05 1.8472314e-05 -8.061301e-06 -1.2817773e-06 -5.124066e-06
-1.9074736e-05 5.141188e-06 -4.725199e-05 3.6542024e-05 6.0576017e-06 2.4811754e-06 2.0592238e-06 -1.0579052e-05
-9.090505e-06 -1.8491652e-05 -5.41183e-06 -3.0956708e-05 1.1853994e-05 -6.805002e-06 -1.2799064e-05 1.0965179e-05
-4.33719e-05 -5.901659e-06 1.22476895e-05 -1.7887418e-05 1.4131361e-05 -7.1144473e-06 1.0874656e-06 -1.7219867e-05
3.8022e-06 1.3215559e-05 1.1657544e-06 -1.3323002e-05 -3.6153124e-06 -3.584697e-05 1.5086595e-05 5.198597e-06

nns.2.0.weight f4 [64, 64]
00000000: 4813 e93d 3675 993d c2c7 d43d 308b f23d
00000010: e806 83bc b3a1 1ebe fcf1 4d3e 9f4e 41bd
00000020: 7d74 4a3e f6bc 64bd 60be 3abe f8b7 213e
00000030: 4d83 43bd 66c5 55bb ebb0 f03d 8f59 36be
00000040: 42b9 433c 0cc0 a63d 7e9f 03be 18ef 35bd
00000050: 83bb bfbc b551 92bd 173b b9bd 1fd4 61bd
00000060: 02bd 26be a9c1 51be f2e2 823d e736 acbd
00000070: 5118 e43d 389f b53d e4b4 23be 08d3 5bbe
00000080: 2eae 3fbc b9d3 43be 20a3 60bd 268b 2bbd
00000090: 1ffb 07bd 405a b13c d858 913d 3b08 3bbe
000000a0: b35c 11be dc95 6a3e a609 36be c66c 413e
000000b0: 32d2 c3bd c01b 443e ee4a 873d bd04 1abe
000000c0: bef6 873b e096 51be 724b bfbd ff74 df3b
000000d0: 47c1 d8bd 2f2f c63c caa3 a4bd def4 933d
000000e0: 347d 87bd 4473 a43c 2894 71bd af01 513c
000000f0: 73d0 bebd 046b 8b3d 0110 bdbd 46eb 22be
00000100: 7c4e f1bd 1cb7 0c3b 55d1 c23d 36e1 443d
00000110: 5b22 2c3e 35cf 153e b829 3ebe b8b7 d03d
00000120: e9c9 1a3e 4e83 1f3e eeb1 ce3b 8514 16bd
00000130: f5bd 213d 8b74 dfbb 4fc5 ee3d b9fe abbd
00000140: f808 31be 4031 42bd 4b6a 1cbd 10d6 1dbe
00000150: 97d7 483e c59e dabd f1f7 a2bc b1d4 62bc
00000160: 5f42 60be b729 c63d f781 403e af7b 883d
00000170: d20a 21be a876 3c3c 1fd3 183e f075 12be
00000180: 1b95 e93d b0fe 003e 5bb9 0dbe 095d 0d3e
00000190: a4d4 573e 08d0 8abd bd3b adbc 0974 efbc
000001a0: 5816 0d3e 3da4 43bd f92e 323e 0564 3f3d
000001b0: 4b87 16be 650d 103e 933c d93d abb5 623d
000001c0: ebee dcbd da96 263e bf4d 533e 9904 0ebe
000001d0: c4ab 2dbe 9310 5d3b 31b4 0a3e 92fb f53d
000001e0: 2e97 febc 4e4c 103c 3994 27be 897f 463d
000001f0: 316a 4fbe 4368 32bd 9068 6ebd dbc3 183d
00000200: 6f1c 39be b9d6 3d3e f12d 57bd 0dbf f83c
00000210: 2d9e 683d 30a7 0ebe 1d43 75bc d8c0 afbd
00000220: 7072 36be 01b7 1e3e d390 3f3e 4b82 263e
00000230: 23ca 323e 26bb 2cbe 1cff d8bd 3017 ac3d
00000240: 400c 11be 848f 473e d088 55be 8d68 66be
00000250: 7f18 063e 0063 8c3d dadd c03c f455 263d
00000260: da7b 3a3e 2073 b4bd 0171 2abd 0088 f9bd
00000270: 47ce 16be 80fe 30bd 8354 3f3d 3230 333e
00000280: 5943 1cbe 3aef 173d f27f db3d 7d4a 0dbd
00000290: 6a20 fdbc 13ee d63d a535 7f3c 7217 efbd
000002a0: a4e3 e6bc d5cb 1d3e 277c 47be 480a 41be
000002b0: 95ac 37be dec2 8d3d a4c2 043e c181 043e
000002c0: 2992 92bb 45b6 533d 33bc 1a3d 5593 863d
000002d0: a7e2 34be 54cf 783d 7165 323e fe1c 9c3d
000002e0: beba 07be 748e 47be d019 1a3e f31e 243e
000002f0: d9c7 e6bd c87d ef3d 174f 66be da58 5d3e
00000300: cc35 303e a23a 1d3e c7b6 593d 9636 ee3d
00000310: 23fd ea3d 605f 2b3d 80ac 1a3e 095c 35be
00000320: 67ef 2d3e a733 e3bd acb9 e33d eccb 293d
00000330: b6e3 0fbb 04f4 2e3e d932 d23c 8d28 083e
00000340: 1330 593e 5752 f1bd 6b2e d6bb f8f1 f33d
00000350: a7b4 47bb 872a 96bb 8f95 2e3d 74b4 1ebe
00000360: 3348 013d c50f 30be 8fbe a73d 6283 33be
00000370: c7be 51be a447 1a3e e928 c3bd 8c76 60bd
00000380: ffcd 60be fdca 8fbd 8844 003e 38b8 bcbd
00000390: 0dd9 2c3d 7e41 4f3e a5f4 5bbe fa86 24be
000003a0: 9be5 5ebd 846e 653e d0bb 95bd 1996 213d
000003b0: c462 063e b1d4 363e 3bef 8dbd 9b0d 2cbe
000003c0: b798 8e3d 0265 c33b e0f2 c63c 7f31 fa3c
000003d0: 4d1b 2bbe fceb 4e3e 01c2 0f3e b781 12bb
000003e0: f37e 3abe 4cb7 453d 5bd3 0f3e 8166 d13d
000003f0: fc3a 8ebd f683 5d3e 99b5 95bd f5fd 52bd
0.11380631 0.07493059 0.10389663 0.11842954 -0.015994504 -0.15491371 0.20111841 -0.04719412
0.19770999 -0.05584427 -0.18236685 0.15792835 -0.04773264 -0.003261888 0.117524944 -0.17807601
0.011946024 0.08142099 -0.1285381 -0.04441747 -0.023404842 -0.07144491 -0.090444736 -0.055133935
-0.16283038 -0.20484032 0.06390943 -0.08408909 0.111374505 0.08868259 -0.15986973 -0.21467221
-0.0116992425 -0.19123735 -0.054843068 -0.04188075 -0.033198472 0.02164948 0.07097024 -0.18264858
-0.14195518 0.2290873 -0.17777118 0.1888915 -0.09561576 0.19151211 0.066060886 -0.1504087
0.004149287 -0.2046771 -0.09340562 0.006819367 -0.1058374 0.02419242 -0.08039053 0.07224439
-0.066156775 0.020074494 -0.058979183 0.012756749 -0.09317102 0.06807521 -0.09231568 -0.15910062
-0.11782548 0.0021471446 0.09512583 0.04806634 0.1680998 0.14629824 -0.18570602 0.101912916
0.15116085 0.15577433 0.006307832 -0.036640663 0.039487798 -0.006819313 0.116587274 -0.08398194
-0.17288578 -0.04741025 -0.038187306 -0.1541369 0.19613491 -0.10674814 -0.019893618 -0.013844655
-0.21900319 0.09675925 0.18799578 0.06664216 -0.15726784 0.011502899 0.14924286 -0.14302802
0.11405393 0.12597156 -0.13840239 0.13805021 0.2107721 -0.0677796 -0.02114665 -0.029230135
0.13778055 -0.04776405 0.17400731 0.046726245 -0.14700048 0.1406761 0.10607257 0.055349033
-0.107877575 0.16268483 0.20635127 -0.13868941 -0.16960055 0.0033731803 0.135453 0.12010874
-0.031077947 0.008807255 -0.16365136 0.04846147 -0.20255353 -0.043556463 -0.058205187 0.037296157
-0.18077253 0.18538941 -0.052534048 0.030364538 0.056791473 -0.13930964 -0.014969614 -0.08581704
-0.17817092 0.15499498 0.1870759 0.1626064 0.17459922 -0.16868266 -0.10595533 0.0840286
-0.14164829 0.1948834 -0.20852971 -0.2250082 0.13095282 0.0685482 0.023543287 0.040609315
0.18211308 -0.08811021 -0.041611675 -0.12184143 -0.14727126 -0.04321146 0.046711456 0.17498854
-0.15260066 0.03709338 0.10717763 -0.034494866 -0.030899245 0.10494628 0.015576755 -0.11674394
-0.02818472 0.15409787 -0.19480954 -0.18851578 -0.17936929 0.069219336 0.12964875 0.12940122
-0.00447299 0.051687498 0.037777137 0.0657107 -0.17664586 0.0607446 0.1742151 0.07622717
-0.1325483 -0.19487935 0.15048909 0.16027431 -0.11268587 0.11693913 -0.22491108 0.21615925
0.17208022 0.15354398 0.053152826 0.11631505 0.11474063 0.041839004 0.15104866 -0.1771089
0.16985856 -0.11093836 0.111193985 0.04145424 -0.0021955795 0.17085272 0.025659012 0.13296719
0.21209745 -0.11783283 -0.006536295 0.11911386 -0.0030472667 -0.0045827064 0.0426231 -0.15498525
0.031562995 -0.17193516 0.08190643 -0.17530587 -0.20482932 0.15066391 -0.09529287 -0.054800555
-0.21953581 -0.07021139 0.12526143 -0.092148244 0.042199183 0.20239827 -0.21480043 -0.16067114
-0.054418188 0.2240544 -0.07311213 0.039449785 0.13123614 0.17854573 -0.06930395 -0.16802065
0.06962722 0.005962969 0.024285734 0.03054118 -0.16709633 0.20207208 0.1403885 -0.0022355148
-0.1821249 0.04827051 0.1404547 0.10224629 -0.06944844 0.2163237 -0.07310028 -0.051511724

nns.2.0.bias f4 [64]
00000000: 84c3 37bc d2d8 cbbc 4ff1 26bc 291d 283c
00000010: cab4 c0bc c76e 13bd bc65 fc3c 2125 c9bb
00000020: ce9f 88bd 80eb 1c3d c860 71bb 65ee fbbc
00000030: c779 58ba 0b9f a9bc 4ecf 503d fb05 a73b
00000040: 774e a5bb 760b f53a 912e 143c 10aa ed3c
00000050: da4c a6bc 6515 953c 5500 22bc 9cae bb3b
00000060: 49a1 fbbc b5a9 68bd 5227 a1bb 4623 f3bc
00000070: 9839 303d 059e 813b 450e 9a3c 27c5 993d
00000080: e611 113c bcba cd3c 424c 533c 6176 c43b
00000090: fc19 103d 1f46 0cbb e471 aabc 89d9 6b3d
000000a0: 0bb2 01bd 892a a4bc e0cf 31bd e6a3 663d
000000b0: 2288 8dbb 9f9b f7bb a159 0dbd f9cd 9d3b
000000c0: 2ff4 2bba b550 0d3d b85b 7f3c 7f81 07bd
000000d0: 2ea3 86bb c382 58bc bf15 70bc f69d 12bb
000000e0: 5af7 003d ca97 d9bb aac4 803c 766e 7f3c
000000f0: 9cc9 d83b da74 813c 8092 33bc a4b6 a93c
-0.011216048 -0.024883661 -0.010189368 0.010260859 -0.023523707 -0.035994317 0.03081023 -0.0061384593
-0.06671105 0.038310528 -0.0036831368 -0.030753324 -0.00082578923 -0.02070572 0.05097895 0.0050971485
-0.005044754 0.0018695432 0.009044305 0.029011756 -0.020300318 0.018198678 -0.0098877745 0.005727602
-0.030716555 -0.05680247 -0.0049180174 -0.029679906 0.043023676 0.003955605 0.018805632 0.07508307
0.008854365 0.025113456 0.012896599 0.005995557 0.03518103 -0.00214041 -0.02080626 0.057580505
-0.031663936 -0.020039814 -0.043411136 0.05630865 -0.004319207 -0.0075563933 -0.034509305 0.0048158136
-0.00065595185 0.034500796 0.015585832 -0.03308248 -0.004108808 -0.01321477 -0.014653622 -0.0022371984
0.031485893 -0.006640409 0.015718777 0.015590301 0.0066158306 0.01580279 -0.010960221 0.020716973
