weight/IMDB-BINARY/Client_8.pth (torch, 260953 bytes, 24 tensors)

bns.0.running_mean f4 [64]
000000 82 fc f3 40 5f 59 49 40 e1 5e 08 41 49 cd 9f 40
       7.6245737 3.1460798 8.523164 4.993809
000010 26 b1 71 41 34 aa 87 40 c5 fb c7 40 4f cb 19 c1
       15.105749 4.2395267 6.2494836 -9.612136
000020 84 f5 99 bf 9c 7f 16 41 30 99 93 41 36 b0 1e 41
       -1.202805 9.406155 18.449799 9.91802
000030 a8 70 58 41 25 3b 2f c1 e8 d0 22 c0 3f 93 96 c0
       13.527504 -10.95194 -2.5440006 -4.7054744
000040 45 cf 2e c1 f8 db 96 c0 f5 fc 97 40 45 05 14 41
       -10.925603 -4.7143517 4.7496285 9.2512865
000050 99 7e fd 40 dc 36 00 41 b3 d2 e1 bd 1f f9 ef 40
       7.921704 8.013393 -0.11026516 7.4991603
000060 6a d5 9d c1 3e 38 a9 c0 7b 70 28 41 4f a7 77 c1
       -19.729206 -5.2881155 10.527461 -15.478347
000070 26 04 d8 c0 bd 14 f5 c0 62 9b 2e c1 cb c0 3e 41
       -6.7505064 -7.6587815 -10.912935 11.922069
000080 75 e4 51 41 dc 75 53 c1 05 d2 16 c1 7d 2f 24 c1
       13.118276 -13.216274 -9.426274 -10.261594
000090 9a b0 42 c1 05 72 43 41 69 3b fc 3f 15 f6 a5 c0
       -12.168116 12.215337 1.970563 -5.1862893
0000a0 35 12 cf c0 ee b4 5b 41 f0 3e 2d c0 ba 5d 0d be
       -6.4709725 13.731672 -2.7069664 -0.13805285
0000b0 dc 21 71 c0 63 24 e7 c0 ee 35 71 41 dc f2 4a c1
       -3.7676916 -7.2231917 15.075666 -12.684292
0000c0 1a 47 5b c1 70 30 95 3f a1 70 e7 40 0e 8b 4b 41
       -13.704859 1.1655407 7.2324986 12.721449
0000d0 62 5b 6a 40 da 47 66 c0 54 fe 79 41 7c dd 81 40
       3.6618276 -3.5981355 15.624592 4.0582867
0000e0 95 4b e3 c0 c3 d1 fa c0 4f ab 50 c0 b4 cb f2 c0
       -7.1029763 -7.8381057 -3.2604558 -7.587366
0000f0 ff 9c 8b 40 db ad da c0 89 f8 8b 41 c2 8b 2c c1
       4.3629146 -6.8337226 17.496355 -10.784121

bns.0.running_var f4 [64]
000000 d8 dd be 3a c3 9a 4d 3a c1 29 20 3b 0a 51 0b 3b
       0.0014561964 0.00078431907 0.002443895 0.002125802
000010 05 68 8d 3b 10 36 3b 3a 6e e9 8c 3a b5 e2 3c 3b
       0.0043153786 0.000714154 0.001075072 0.0028821651
000020 ac 61 a6 39 08 2a 27 3b 6c d4 0c 3c 96 46 42 3b
       0.00031734759 0.002550723 0.008595567 0.0029644123
000030 b4 82 5d 3b b7 99 25 3b 45 38 04 3a cb 3d b4 3a
       0.003379983 0.0025268623 0.0005043785 0.0013751326
000040 9f d7 30 3b c6 d5 60 3a 9e d8 98 3a 1b 1d 12 3b
       0.002698399 0.00085767766 0.0011661237 0.002229518
000050 96 cd 0e 3b fe fe 01 3b b4 b2 b6 39 e9 00 08 3b
       0.002179002 0.0019835825 0.0003484689 0.0020752496
000060 92 08 fb 3b e1 39 ea 3a 80 cb 2b 3b e0 d1 91 3b
       0.007660934 0.0017870032 0.0026213825 0.004450068
000070 6e 64 dd 3a d4 48 67 3b 4c 28 21 3b 3a 18 2e 3b
       0.0016890892 0.0035291212 0.002459067 0.0026564733
000080 1e 8c a1 3b 3a 62 5f 3b f3 c9 db 3a b1 49 3f 3b
       0.0049300333 0.0034085647 0.001676856 0.002918821
000090 1e af 85 3b 6c bd 63 3b 10 87 39 3a 03 d2 a8 3a
       0.0040797135 0.0034750355 0.0007077316 0.0012879971
0000a0 5b 56 e1 3a f9 7b 62 3b e9 ad 3f 3b 84 37 08 3a
       0.0017191874 0.0034558757 0.0029247946 0.0005196261
0000b0 1e 84 12 3a 79 1f c9 3a 50 b6 9b 3b a8 23 88 3b
       0.0005589145 0.0015344463 0.004751958 0.004154641
0000c0 7b b5 92 3b b5 de b1 3a 21 4b 01 3b 78 6d 62 3b
       0.0044772006 0.00135704 0.0019728618 0.0034550112
0000d0 ba 82 01 3a 33 5c f2 3a 1c 06 89 3b ec 16 c1 3a
       0.0004940439 0.0018490612 0.0041816365 0.0014731563
0000e0 29 b5 b5 3a 32 c6 90 3a cf f8 7d 3a e0 35 5a 3b
       0.0013863194 0.0011045395 0.00096882595 0.0033296272
0000f0 5c 7a ad 3a b6 14 5e 3b 1f 7d c6 3b 28 13 42 3b
       0.0013235318 0.0033886856 0.006057396 0.0029613469

bns.1.running_mean f4 [64]
000000 95 f5 8d be 14 11 39 bf cc 03 18 3e 6a 13 8d bd
       -0.27726427 -0.72291684 0.14845198 -0.068884686
000010 c7 22 fd be bc ef 49 3f 4e 02 5c 3f e9 33 12 bf
       -0.49440596 0.7888143 0.85941017 -0.5711046
000020 d6 23 a7 3f 0f 66 59 be 28 f9 83 3e 84 2d a6 be
       1.3057811 -0.21230339 0.2577603 -0.324566
000030 a7 66 3d bd da 10 a8 3e 33 97 0b bd 44 25 41 be
       -0.046240475 0.32825357 -0.03407974 -0.18861872
000040 d3 96 2a bf 2f 54 0f 3e 81 db 85 3f cc c9 87 bd
       -0.6663639 0.13996957 1.0457612 -0.066302866
000050 95 0d 23 be 2a b7 8b 3f 63 29 8a be 2a 54 f9 3e
       -0.1592315 1.0915272 -0.269847 0.48697025
000060 a1 b1 81 bd 82 38 2b be ed ca af be f5 22 37 bf
       -0.06332708 -0.16720775 -0.34334508 -0.71537715
000070 98 9a f3 3d 0d 25 81 3f 2c 36 53 bf b2 a8 7c 3f
       0.11894721 1.0089432 -0.82504535 0.9869491
000080 71 dc 3b 3d 75 6a 58 bf 01 58 4d 3f 41 e7 41 3f
       0.045864526 -0.8453744 0.8021241 0.7574349
000090 1f e8 19 bf 1d 65 e4 be 07 39 1d bf 82 f6 df 3e
       -0.60119814 -0.44608393 -0.6141514 0.43742758
0000a0 5f 97 8b bd 66 c8 80 be 7c 6c 06 3f ca ad 02 bf
       -0.06815981 -0.25152892 0.52509284 -0.5104643
0000b0 14 ec 05 3f f4 13 3b 3f ab bb 0c bf 9c d8 95 3e
       0.5231335 0.7307732 -0.5497386 0.29266822
0000c0 07 62 b2 be 90 b0 bb 3e 5f 00 f2 bd e1 ef cf 3e
       -0.34840414 0.36658144 -0.11816477 0.406127
0000d0 27 ba 0d bf 52 14 a0 bf 74 c0 07 3f 98 4b 6f 3f
       -0.5536217 -1.2506201 0.53028035 0.9347472
0000e0 28 67 4c bf 2f 0f 4b bf ca cf 86 bf f0 3d 1a 3e
       -0.79844904 -0.79320043 -1.0532162 0.1506269
0000f0 9c 60 5b bf cf b9 2b be 26 18 60 be 2f 18 53 3e
       -0.8569429 -0.16770099 -0.21884212 0.20614694

bns.1.running_var f4 [64]
000000 26 8d 37 40 ff df 09 41 9c 03 b7 3f f5 8d 7a 3f
       2.86799 8.617187 1.4297976 0.9787286
000010 f1 88 93 40 ac 2a 3b 41 79 d1 62 41 bb 3e c5 40
       4.6104665 11.697918 14.176141 6.1639075
000020 eb 39 0e 42 42 03 f4 3f 20 ce 07 40 21 c0 94 40
       35.55656 1.9063494 2.1219559 4.648453
000030 bb d5 80 3f 0e a9 3f 40 17 01 f7 3f 13 39 c4 3f
       1.0065225 2.9946933 1.9297208 1.5329918
000040 e6 97 0f 41 79 f0 02 40 cb 62 a1 41 be 5a 80 3f
       8.974585 2.0459273 20.173239 1.0027692
000050 da 07 2f 40 91 4b ce 41 8d a1 d4 40 97 a2 a7 40
       2.7348542 25.786898 6.6447206 5.2385974
000060 d9 52 e3 3f 78 89 15 40 07 f4 1d 40 82 2e 87 41
       1.7759658 2.3365154 2.4680192 16.897709
000070 5f b0 8d 3f 9e cf a3 41 67 75 8b 41 c6 6c ad 41
       1.1069449 20.476376 17.432325 21.678112
000080 cc bd 59 3f 32 50 3f 41 d3 1f 80 41 fc 1a 31 41
       0.8505523 11.957079 16.01554 11.069088
000090 7a 03 09 41 f4 db 9a 40 15 7a 0e 41 ff e3 92 40
       8.563349 4.8393497 8.904805 4.5903316
0000a0 2d b0 3c 3f 46 d2 7a 40 69 c2 08 41 cb 16 c1 40
       0.7370632 3.919084 8.547463 6.0340323
0000b0 b8 34 dd 40 c3 be 3d 41 e0 d2 ca 40 97 2b 3d 40
       6.9126854 11.859073 6.3382416 2.9557855
0000c0 f2 0d 24 40 63 98 8d 40 60 af c8 3f ee 8d 64 40
       2.5633512 4.424852 1.567852 3.5711627
0000d0 81 e4 12 41 2a f1 fe 41 a3 12 1d 41 1a 9d a9 41
       9.180787 31.867756 9.81705 21.20171
0000e0 5d 24 95 41 f3 e5 5c 41 16 e7 e8 41 18 ae 85 3f
       18.642756 13.80614 29.112835 1.0443754
0000f0 cb c0 7f 41 6b ab db 3f f0 9d 1d 40 35 ba 9f 3f
       15.984569 1.7161688 2.4627647 1.2478701

bns.2.running_mean f4 [64]
000000 f7 7c b0 3e 4f db 47 3e 0b 4c 83 3d 3b 70 91 be
       0.3447034 0.19517253 0.064109884 -0.28405938
000010 1f fb 03 3f 08 e9 99 be 87 30 8a be 7f f4 58 be
       0.51555055 -0.300606 -0.26990148 -0.21187018
000020 b0 2f 01 be 59 b0 c2 be ca a0 8b 3e 1b ac 6a bc
       -0.12615848 -0.38025168 0.2727111 -0.01432326
000030 cc 17 a4 be cb 6b c8 be 01 6e b0 3e 6b c1 65 3e
       -0.32049406 -0.3914474 0.34458926 0.22437064
000040 1a 25 4e 3e d5 a5 da bd 46 b4 61 3e 55 9d d4 be
       0.2013134 -0.10676161 0.22041425 -0.41526285
000050 d4 1d a4 3d 5b d1 03 3f 51 79 e2 3e 5c 0c b5 3e
       0.08013502 0.51491326 0.44233182 0.35360992
000060 f2 36 1c bf 80 c4 ba 3c 1b 56 c8 3d 12 ec 77 bc
       -0.6102134 0.022798777 0.09782048 -0.015131967
000070 3d 92 10 be 20 6d a6 bd f3 a7 95 bb 10 e9 39 bd
       -0.14118285 -0.08126283 -0.0045671402 -0.04538828
000080 48 f5 88 3d 13 e0 09 bf 41 95 87 bd c8 0b 8a 3e
       0.06687409 -0.53857535 -0.06620265 0.26962113
000090 c3 6d 98 be f8 03 b8 3e 24 27 d6 3e 21 32 49 be
       -0.29771242 0.35940528 0.41826737 -0.19648029
0000a0 22 25 96 be 00 55 9d 3e 98 12 aa be 1d 5e ca be
       -0.29325205 0.30728912 -0.3321731 -0.39524928
0000b0 ec 61 07 3f 0b fe 38 3d c9 ad 8a be bf 39 76 be
       0.5288379 0.04516415 -0.27085713 -0.24045466
0000c0 e8 ba 90 3e 0c 74 d5 3b 1e 97 5a 3a 58 eb 96 be
       0.28267598 0.006514078 0.0008338558 -0.29476428
0000d0 2b 53 84 be ed 28 03 be b2 bf ae bc 63 84 ac be
       -0.25844702 -0.1280858 -0.021331642 -0.33694753
0000e0 f5 ab 50 bd 10 b8 17 3e 38 b8 9b be ca d0 aa bd
       -0.05094524 0.14816308 -0.30413985 -0.083406046
0000f0 6d b5 b1 bd 88 cf 8c 3d 02 42 35 3e 96 e9 d4 bd
       -0.08677182 0.06875521 0.17700961 -0.103961155

bns.2.running_var f4 [64]
000000 8f f4 d0 40 76 ac ba 3f 70 30 2d 3f bb 36 bc 40
       6.5298533 1.4583881 0.67652035 5.881681
000010 f9 57 b6 41 b1 fc 8a 40 ba 03 ec 40 88 6b 0f 40
       22.792955 4.343346 7.375455 2.2409382
000020 9e 90 ac 3f c8 05 6a 41 4b 50 c8 40 05 2c ca 3e
       1.3481634 14.626411 6.2598014 0.3948671
000030 60 ba 27 40 1f 4c 7a 41 ca 42 89 40 e4 95 a4 40
       2.6207504 15.643584 4.289403 5.143297
000040 25 23 d0 3f 65 94 f7 3e c8 21 8e 40 f6 74 76 41
       1.6260725 0.48355404 4.4416237 15.403555
000050 46 a4 bc 3f cb 81 b3 41 8e a5 24 41 f3 39 27 41
       1.4737632 22.438375 10.290419 10.451648
000060 49 f8 c5 41 7c 67 8b 40 8c 97 f8 3f ad 17 01 40
       24.746233 4.3563824 1.9421248 2.01707
000070 4a 71 d7 3f 6b ab 94 40 69 8a 55 3f a7 c1 0e 40
       1.6831448 4.645925 0.8341432 2.2305696
000080 28 70 8e 3f dd 48 7c 41 46 dd 28 40 6a ab a5 40
       1.1127977 15.767789 2.6385055 5.1771746
000090 65 a6 17 41 6e dd e8 40 91 fa 1f 41 c3 1d f7 3f
       9.478124 7.27703 9.998673 1.9305958
0000a0 5f f2 b6 40 c5 2a 35 41 bc b5 7d 41 71 66 06 41
       5.7170863 11.322942 15.856869 8.40001
0000b0 08 60 c7 41 20 45 97 3f 0f 80 e1 40 9c 3a 6d 40
       24.92189 1.181797 7.046882 3.7067022
0000c0 2b 1f 5c 40 48 79 69 3f 7f cd 15 40 f1 94 6e 40
       3.4394023 0.91200686 2.3406675 3.7278407
0000d0 c5 f0 2a 41 ac 68 81 3f 3b f1 0f 40 46 2d c0 40
       10.683782 1.0110068 2.2490985 6.0055265
0000e0 10 1c 01 3f f3 94 dd 40 f0 b9 32 41 9f 0d 4e 40
       0.50433445 6.9244323 11.170395 3.2195814
0000f0 23 23 46 40 7c de 83 3f 97 04 03 40 36 8c 3f 40
       3.0958946 1.0302272 2.0471551 2.9929328

nns.0.0.weight f4 [64, 136]
000000 8c fa 27 39 fe 6f b0 3d 40 e5 e0 28 1a 43 3c be
       0.00016019697 0.08615111 2.4968417e-14 -0.18384972
000010 f1 4b 87 bd 92 b1 02 bd 01 72 ba 3d f7 9e 35 be
       -0.066062815 -0.031907625 0.09103776 -0.17736422
000020 be 9f 2c 3d cf 37 07 3e 81 33 ee 3d 6e 17 3e 3c
       0.04214453 0.13204883 0.11630917 0.011602266
000030 06 77 a0 3d 77 4d aa 3c 7b 91 22 3d aa cc 92 bd
       0.07835202 0.020788891 0.039689522 -0.07167943
000040 a7 e5 13 be fe 7a 30 be 6a 67 db 3d 73 85 e6 bd
       -0.14443074 -0.17234418 0.10713084 -0.11255922
000050 7d 22 29 3d 22 20 20 bc 86 81 8e b9 8a f8 d6 3c
       0.041292656 -0.009773286 -0.00027180853 0.02624156
000060 00 54 6e ba 30 fa 86 bc 8c 8f be 3c e5 ba 93 3d
       -0.00090914965 -0.01647672 0.023261808 0.07213382
000070 13 08 e4 bd 30 42 12 3c 85 aa be bd 0b 43 fb 3d
       -0.111343525 0.008926913 -0.09309868 0.12268647
000080 23 ec eb 3c 05 92 4b 2c db 13 87 2f a2 1d 46 3d
       0.028799122 2.8929092e-12 2.4570465e-10 0.048368104
000090 26 22 8d 29 1e 94 46 b8 d8 24 29 32 84 0b cd 39
       6.267582e-14 -4.7344824e-05 9.845472e-09 0.00039109227
0000a0 68 61 5a 37 5e 1f c4 bd d0 99 24 a9 96 df 37 ad
       1.3016492e-05 -0.09576295 -3.6548726e-14 -1.0451992e-11
0000b0 e5 07 06 bd f0 d6 7c 37 7b 52 ed b6 ab ab 09 aa
       -0.032722373 1.50704145e-05 -7.0727524e-06 -1.2227604e-13
0000c0 06 be 33 29 21 b8 a7 2b c3 73 b6 ac e5 90 48 b7
       3.9910803e-14 1.191717e-12 -5.1856032e-12 -1.1954665e-05
0000d0 ac bf 3d b7 f8 f6 4d b2 8b d7 3d bb 19 42 75 38
       -1.1309905e-05 -1.1988725e-08 -0.0028967585 5.847411e-05
0000e0 c6 fb 14 3d 9f 80 77 af 8c 10 f4 2c 7c 6a e1 2a
       0.036372922 -2.2510215e-10 6.936734e-12 4.0041917e-13
0000f0 b6 62 49 af a3 28 da b8 68 e3 78 af ac e6 b1 b9
       -1.8315913e-10 -0.00010402619 -2.263626e-10 -0.00033931935
000100 ea 43 46 b5 e5 07 3e 39 bc 3d 86 ac 1e ba b0 b4
       -7.3859576e-07 0.00018122753 -3.815363e-12 -3.2917973e-07
000110 e9 2b cd 2c 3c 18 cf b9 f4 93 16 b2 42 0a 98 bd
       5.8313254e-12 -0.00039500173 -8.76479e-09 -0.074238315
000120 32 c1 b0 a9 34 23 a1 29 e9 33 39 2d 49 3e 22 ac
       -7.849484e-14 7.155943e-14 1.0527559e-11 -2.305616e-12
000130 f9 cd 1a b8 72 c4 b4 39 ae 47 91 ab 70 01 a2 31
       -3.6908288e-05 0.0003447864 -1.0322765e-12 4.714984e-09
000140 26 89 03 ac ab 2f 17 b2 64 04 6c 27 c3 2d 1a be
       -1.8692352e-12 -8.800195e-09 3.275396e-15 -0.15056519
000150 3e 50 a7 b6 46 6f 3e 2b 15 1e 01 2b e7 d0 8e 2c
       -4.9863293e-06 6.7655983e-13 4.5871754e-13 4.0590756e-12
000160 6c 38 b3 2d b4 2b 58 ab e2 18 9d 30 58 b1 c4 31
       2.0375e-11 -7.6799266e-13 1.1430326e-09 5.7245124e-09
000170 94 59 47 af 4d 35 3a 2f f6 45 c5 b1 3c 66 db 34
       -1.8130769e-10 1.6935538e-10 -5.7414082e-09 4.0866314e-07
000180 06 9f 47 b7 2e 47 57 2b f8 71 38 2d 60 ee 06 2c
       -1.189835e-05 7.6482126e-13 1.0484495e-11 1.917487e-12
000190 42 4e ea 29 05 da 9c ab 6f 10 80 b1 11 7e 3f a7
       1.0405263e-13 -1.1144979e-12 -3.7271586e-09 -2.6574915e-15
0001a0 a3 22 d1 b6 23 35 77 39 d0 d4 03 ac 1f 7c fc b3
       -6.2327176e-06 0.0002357555 -1.8734354e-12 -1.1757242e-07
0001b0 a5 d9 b0 38 91 cb 09 37 44 0b 1f 35 21 22 8a 2b
       8.4328734e-05 8.213233e-06 5.924851e-07 9.814962e-13
0001c0 04 4d ae a9 ff b8 81 b9 f2 15 90 b7 1b de 57 b9
       -7.740512e-14 -0.0002474263 -1.7176357e-05 -0.00020586739
0001d0 cc 50 3b ad c4 d9 c0 38 81 d0 18 ac a6 46 6b b8
       -1.064766e-11 9.1958354e-05 -2.1716242e-12 -5.6094163e-05
0001e0 86 a2 77 b5 ff af 7a a9 e4 c5 83 32 15 ab e8 2b
       -9.2251173e-07 -5.5663804e-14 1.5340397e-08 1.6532076e-12
0001f0 ec b8 48 ab 97 e4 90 2a d8 b3 be a9 c3 a6 4c b9
       -7.1310904e-13 2.5738155e-13 -8.468893e-14 -0.0001951708
000200 1a 4b 7d ac 0b 0a ca ae 6c 8d 95 b0 e0 c3 fe 2b
       -3.5995152e-12 -9.1876805e-11 -1.0881371e-09 1.8102152e-12
000210 e6 42 88 2d 60 96 ec 29 59 38 41 b0 2b 5c 85 38
       1.5491119e-11 1.0506591e-13 -7.0293066e-10 6.359102e-05
000220 aa 0d 9b b4 5a 6b ab bc de 96 3d b6 4b 24 1f be
       -2.8880942e-07 -0.020925213 -2.825101e-06 -0.15541188
000230 dc 7d 0b 3e 18 72 e3 3d 77 ce b5 3d 68 ac 77 bd
       0.1362223 0.11105746 0.08877271 -0.060467154
000240 65 85 00 3e 17 82 d1 bc d6 be 4c be 91 06 71 3c
       0.12550886 -0.025574727 -0.19994673 0.014711038
000250 0f 5c 22 be 90 30 56 bd a4 db a1 3d 8a 3e 17 bd
       -0.1585543 -0.052292407 0.07903221 -0.036924876
000260 a6 cd 07 3e 01 d5 b5 3b ca 79 cc 3d 39 57 f9 3b
       0.13262042 0.0055490737 0.09984167 0.0076092747
000270 42 03 ad 3d 4f 37 56 3d 0a 90 42 bc b4 89 98 3b
       0.08447887 0.05229884 -0.011875162 0.0046550874
000280 7b 97 b7 3b 3f c7 f4 3a a5 85 c9 3d 6c 5e f6 3d
       0.0056027747 0.0018675103 0.09839944 0.12029728
000290 a9 29 b3 bd f9 14 37 3d 74 22 58 bd 74 d5 d0 bb
       -0.087481804 0.044697735 -0.052767232 -0.006373102
0002a0 35 48 8a bd 55 ff 92 ab 36 fb 97 39 b3 68 69 bd
       -0.06752054 -1.0444793e-12 0.0002898813 -0.056984615
0002b0 60 0a 6c 38 c9 35 64 b9 0c 47 a3 36 7f b0 b7 b8
       5.6276447e-05 -0.00021763811 4.8660495e-06 -8.758995e-05
0002c0 92 25 63 af f9 3b c0 3d df d1 90 37 dd 44 20 aa
       -2.0658877e-10 0.09386439 1.7263867e-05 -1.4234746e-13
0002d0 f4 d4 8f 3d dc 35 41 ab 06 39 32 29 e8 60 35 2a
       0.070230395 -6.864212e-13 3.95734e-14 1.610965e-13
0002e0 0a 50 a7 b0 b1 89 af ae 56 45 30 ab 3a ae 83 31
       -1.2173598e-09 -7.9825375e-11 -6.2623984e-13 3.832409e-09
0002f0 ed ce 0d b9 9d c9 af ad 52 1f fb bd 38 57 ae 37
       -0.00013523894 -1.9984731e-11 -0.12261833 2.078303e-05
000300 bf ad 09 3e 98 b4 3e b7 1d 70 0d 2a a6 ac a2 ab
       0.13445185 -1.136693e-05 1.2562213e-13 -1.1558712e-12
000310 dd 8f 91 ad ba 4c 33 39 9a 43 90 b6 cf b6 19 38
       -1.654848e-11 0.00017099353 -4.2994043e-06 3.6648296e-05
000320 6a 15 36 2d 74 20 0d aa 4c ec 9a 38 2a 5c c9 27
       1.0350257e-11 -1.2534575e-13 7.387306e-05 5.588863e-15
000330 eb 7a 2e 29 06 4b 71 28 db 9f 82 ac f5 b1 e2 3b
       3.8742376e-14 1.33944556e-14 -3.7125697e-12 0.006918187
000340 d9 96 39 ac 7f 9c ac ac 64 97 09 b9 cd f1 10 ac
       -2.6373818e-12 -4.9059086e-12 -0.00013121736 -2.0597857e-12
000350 27 52 58 b9 c3 80 2f 2e f3 56 0b b5 37 57 7d ab
       -0.0002062997 3.9904757e-11 -5.1908063e-07 -9.000469e-13
000360 51 a0 59 af c1 c5 42 a9 0c 78 ed b4 b7 75 12 bd
       -1.9792991e-10 -4.3248178e-14 -4.4232036e-07 -0.035756793
000370 af 5a 06 2c 07 18 ae 2b 9a 77 35 ab 8a 92 1e b8
       1.9092885e-12 1.2370113e-12 -6.44701e-13 -3.780661e-05
000380 49 6e ce 2b 5a 49 cd 2a 61 90 99 39 77 8f 93 b7
       1.4667791e-12 3.6466213e-13 0.00029290005 -1.7590572e-05
000390 a0 e0 ca 2d b0 da ba b6 09 13 ce 2c 15 67 ec b8
       2.3064495e-11 -5.5686905e-06 5.8569855e-12 -0.000112725575
0003a0 ed 1f b0 b8 4d 58 6f 2b ef a6 af aa 3e 64 1a 2b
       -8.3982806e-05 8.50324e-13 -3.1202078e-13 5.4850905e-13
0003b0 37 4d f0 aa 72 47 b6 37 2f 8a c5 ab 30 5c 96 2b
       -4.2686143e-13 2.172936e-05 -1.4036046e-12 1.0683728e-12
0003c0 53 19 9c b6 cf 97 62 2b 17 f4 a1 39 f7 ba 25 32
       -4.6521104e-06 8.0502006e-13 0.00030890174 9.646775e-09
0003d0 fa 3f 23 37 a6 3c c1 29 6a 65 72 b0 ef dc ad b9
       9.730453e-06 8.5814426e-14 -8.8183205e-10 -0.0003316174
0003e0 48 4b 0e aa b7 a7 bc b2 ca 77 83 32 b5 3f cc 39
       -1.2638252e-13 -2.1962348e-08 1.5304881e-08 0.00038957378
0003f0 b1 42 ac af b1 02 02 39 d1 5e a4 2b 3d 07 2e 39
       -3.1334005e-10 0.00012398769 1.1679218e-12 0.0001659663

nns.0.0.bias f4 [64]
000000 86 30 13 bb e1 f4 79 ba 38 00 34 3c 43 bc f5 3c
       -0.0022459342 -0.0009535086 0.01098638 0.029996997
000010 dc 8c 48 b7 b2 64 00 3d 6b 61 89 3c 49 3b 1d bd
       -1.1953725e-05 0.03134603 0.016770085 -0.038386617
000020 12 43 87 bc 81 2d 1b 3c 1a 34 98 b7 2f ca 11 3a
       -0.016511474 0.009471298 -1.8144074e-05 0.0005561439
000030 9a 38 08 3c a7 a7 7a 3a 44 1e 5f 3b 27 64 09 bd
       0.008314276 0.00095617253 0.003404514 -0.03354278
000040 6c a5 28 3d f5 f7 39 bd 41 88 34 bc e5 4c 9a 3c
       0.041173384 -0.045402486 -0.011018814 0.018835494
000050 64 5b 91 bd 85 92 f4 bc a8 1f 65 3c cb 51 cc 39
       -0.070975095 -0.029855022 0.013984598 0.00038970853
000060 2b d6 c6 3c 3d 84 af bd 73 fa a4 bb 21 ef 3a 3d
       0.024272045 -0.08570144 -0.0050347387 0.045638207
000070 ef 77 88 3c 46 50 a2 3d 57 25 92 3d f1 9f 05 bc
       0.016658751 0.07925467 0.07136028 -0.008155809
000080 0e 88 11 bd 64 bb 1c 3d c5 f6 f7 3a c9 a2 f6 3c
       -0.035530142 0.038264647 0.0018918148 0.030106919
000090 bf 32 10 3d 3d 9f fb 3a 96 c9 50 3c 98 6f 3d 3c
       0.035204645 0.0019197237 0.012743374 0.011562251
0000a0 87 0f 84 3c ed 9f 06 bd e9 72 87 bd 8c 3b 52 3d
       0.016120685 -0.03286736 -0.06613714 0.05132632
0000b0 54 5c a1 3c 1f 13 9e 3c b6 8c 6a 3b e4 87 c7 3c
       0.019697346 0.019296227 0.0035789437 0.02435679
0000c0 e9 6d a0 b6 40 65 ba 3b a0 2f 77 3b 13 60 ab bc
       -4.781167e-06 0.0056883395 0.0037717596 -0.020919835
0000d0 0b c6 41 3c 89 d2 10 3b 66 1b 96 3c 18 11 72 3d
       0.011827002 0.0022098145 0.018323611 0.059098333
0000e0 1c fe b2 3c 76 33 5e bc 81 fc 1f bd ea af 00 ba
       0.021849684 -0.013562074 -0.039059166 -0.0004909026
0000f0 fa 4e 0b bd 59 fa 17 bb 32 c5 30 bd 75 9d 30 3d
       -0.034010865 -0.002318999 -0.04315681 0.043118913

nns.0.2.weight f4 [64, 64]
000000 57 41 a7 bd bf 2c 2c bc da 28 13 3d d4 f0 cd 3d
       -0.081667595 -0.010508715 0.03592763 0.100557
000010 4a 46 70 3a 6e 37 d6 3c 83 e7 22 3c 73 08 aa bd
       0.00091657473 0.026149478 0.009942892 -0.08302393
000020 17 90 1d 3e c0 81 28 3d 1b 24 97 bd d3 e0 74 bd
       0.15386997 0.041139364 -0.073799334 -0.05978472
000030 38 eb 76 3e 67 ca 3d 3e f1 7d 54 3c 7a e8 0a 3e
       0.24113166 0.18534242 0.01296948 0.13565245
000040 a1 0f 34 bd 71 0c 4c 3c bc 13 b1 bc fb a6 22 be
       -0.043960217 0.012454138 -0.021615855 -0.1588401
000050 f2 4c 6e bc 61 ee 71 3c 41 19 1b 3e 31 29 45 3e
       -0.014544712 0.014766307 0.15146352 0.19253995
000060 0c 71 29 be 06 7f 9d 3d 0b fd 4d 3e dd 5b 93 bd
       -0.1654703 0.076902434 0.2011606 -0.07195256
000070 fd 42 19 3d 9e f8 62 be 74 15 56 bd aa 70 2c 3d
       0.0374174 -0.22165152 -0.052266553 0.042099632
000080 df ed f2 bd 4c 9a dd bc b5 51 eb 3a 31 6c 14 3e
       -0.118617766 -0.027051114 0.0017953428 0.14494397
000090 cd b2 c3 3d 58 ef 66 3d 15 f2 0a be ec c3 74 3d
       0.09555588 0.0563806 -0.1356891 0.05975716
0000a0 18 90 af 3d 44 a4 36 3e a2 4f 21 be ec 40 91 bd
       0.085724056 0.178361 -0.15753034 -0.07092461
0000b0 17 7b 32 3e 6e 16 3c 3e 6b 64 cf bd 3e 12 d3 3d
       0.17429768 0.18367931 -0.10126575 0.10306214
0000c0 36 69 12 bd 59 69 95 bd 53 5a c0 3d d9 d6 96 3c
       -0.03574487 -0.07295484 0.09392228 0.018412994
0000d0 ad 77 83 bd 21 03 24 be c6 f3 6f 3d 38 5f bd 3b
       -0.06419311 -0.16016819 0.05858209 0.005779173
0000e0 48 5d 20 be ed 36 28 be 0b df 07 3e f0 07 70 bd
       -0.15660584 -0.16427203 0.13268678 -0.05860132
0000f0 c3 77 0a be 89 a2 cf 3d 2d b3 c1 bd 0e 2b 42 bc
       -0.13522248 0.10138423 -0.09458003 -0.011851085
000100 1d 27 3b 3e b2 8d 04 be d0 99 e8 bd aa eb a8 bd
       0.1827664 -0.12944677 -0.113574624 -0.08248074
000110 b0 08 3d bd 20 f4 c7 bd 6a 76 ca bc 43 39 ba bd
       -0.046150863 -0.0976336 -0.024714667 -0.09092953
000120 81 a8 2a bc 46 12 ec bd c0 be a9 bd 7a 8c ab 3d
       -0.010416151 -0.11526923 -0.08288336 0.08376403
000130 e0 f4 dc bd 4b 3b 8e 3d 21 65 b8 3d e4 73 ad bc
       -0.10788894 0.06944903 0.09003664 -0.021173425
000140 87 e1 16 be 37 8c 4f bd 47 5b 18 3d 64 87 37 be
       -0.1473447 -0.05067083 0.037196424 -0.17922741
000150 68 12 54 3d 32 54 b1 bd 6c 06 81 bd 79 13 b3 3d
       0.051775366 -0.08658637 -0.06300053 0.087439485
000160 2c 7c 21 3d 07 75 10 be 83 4d 85 3d bb ae a3 3d
       0.03942506 -0.14107142 0.06508925 0.079923116
000170 05 f1 27 bd cf ff 01 3d b8 31 c8 bd 57 0a 1a be
       -0.04100134 0.0317381 -0.09775108 -0.15043007
000180 75 0d c7 3d d7 0c 37 3b 46 af 9d bc ee 01 9f 3d
       0.097193636 0.0027931237 -0.019248616 0.0776404
000190 2e 75 d0 3c ce a7 33 3d 37 5d 66 3d 33 7c 1a be
       0.0254465 0.043861203 0.05624124 -0.1508644
0001a0 cd fe 9e bb 75 c1 5d 3e 44 5b 83 bd 5b f8 87 ba
       -0.004852152 0.21655829 -0.06413892 -0.0010373698
0001b0 a7 55 f7 3d 15 7e a4 3d 50 67 a6 bd fd 17 82 bd
       0.12076884 0.08031861 -0.08125174 -0.06352232
0001c0 e4 35 87 bc df 05 ae bd aa 55 d7 bd 30 e5 5c be
       -0.01650519 -0.084972136 -0.10514386 -0.21571803
0001d0 fa ae 42 bc fc 14 f9 bc 78 78 3d 3d d1 ce 21 3e
       -0.011882538 -0.030405514 0.046257466 0.1580155
0001e0 83 99 17 bc 3e 9f 1e be f7 c1 ad bd 20 5f 19 3e
       -0.009252909 -0.15490434 -0.084842615 0.14977694
0001f0 94 57 87 bd b2 2b 6a bc f3 64 14 bd 15 08 a9 3d
       -0.06608501 -0.014292644 -0.036229085 0.08253495
000200 8e 22 3d be 62 4b 87 bd 39 c9 47 3d ba eb 11 be
       -0.18470213 -0.06606175 0.048775885 -0.14250079
000210 80 ca a8 bd e9 cb 4f bd 68 f3 23 3e d3 37 0d 3e
       -0.08241749 -0.050731573 0.16010821 0.13790826
000220 f4 f4 65 bd fd 4b 27 3d 53 78 01 3e 5e 43 16 be
       -0.05614181 0.040843952 0.12643556 -0.14674136
000230 7d b7 8f 3d 1d c5 90 3c 5f a4 c3 bd cc 8a 63 bd
       0.070174195 0.017672116 -0.09552836 -0.05555229
000240 54 fa f1 bd d0 21 2a 3e 35 bd 04 be b8 ea ce 3c
       -0.118153244 0.16614461 -0.12962802 0.025258407
000250 6c f3 0d bd d4 87 27 be ef d7 af 3d 1c 75 13 3e
       -0.034655973 -0.16360408 0.08586108 0.14400142
000260 6c da 17 bd d2 16 79 3a 48 97 c1 bd d0 d2 ac 3d
       -0.037073538 0.00095019967 -0.09452683 0.08438647
000270 41 14 23 3d 7d dc 1b 3e 83 e3 51 be f1 aa e8 3d
       0.039814238 0.15220828 -0.20496945 0.113607295
000280 b0 d3 8d bd 58 81 30 3d 19 eb 4c 3e e3 96 21 be
       -0.06925142 0.0430921 0.20011558 -0.15780215
000290 b4 45 99 3d 3c c5 d2 3d 32 fa 27 3d 1d d4 3b 3d
       0.07483998 0.10291526 0.04101009 0.045856584
0002a0 ca 35 34 3d b8 4d d9 3d 8d ec 06 3d f1 f1 51 3d
       0.04399661 0.10610527 0.032940436 0.051256124
0002b0 9c cf 1b 3c a3 6c 6b bc e0 2b 33 3d 12 30 3a 3e
       0.009509947 -0.014369163 0.043743014 0.181824
0002c0 76 e6 84 bb 6b 0f 04 3e ec 6c d7 3d 9b 0e 87 bd
       -0.0040557934 0.12896506 0.10518822 -0.06594583
0002d0 03 38 00 be 65 98 ef 3d 4f 04 05 3e 62 0d 3c be
       -0.12521367 0.11698989 0.12989925 -0.1836448
0002e0 2c 01 85 bd 10 38 bc bd d3 9e 25 3e e2 99 21 be
       -0.06494364 -0.091903806 0.16173868 -0.15781358
0002f0 ec 8a 2c 3e 45 3d fc bb 25 17 eb bd 82 fb fe bd
       0.1684987 -0.0076977336 -0.11479024 -0.12450315
000300 94 a6 fa 3d 7d cb 34 be 4a 1a ec 39 14 ed 36 3e
       0.122388035 -0.1765575 0.00045033015 0.17863876
000310 06 7a a3 3d 9a 5f 52 ba c0 30 34 3e 43 bc 93 bd
       0.079822585 -0.000802511 0.17596722 -0.072136424
000320 2c 1e 71 3d fc e2 05 bd 93 1c f3 bd b4 af cb 3c
       0.058866665 -0.032687172 -0.118706845 0.024864055
000330 d4 25 82 3b a7 9c 4b 3e 20 9f dc bc 62 d4 05 be
       0.0039717946 0.19883977 -0.026931345 -0.13069299
000340 96 e9 9b 3d 87 68 57 be 5d 7b 76 3d 69 32 c4 3d
       0.07612912 -0.21035968 0.060176242 0.095799275
000350 19 83 59 3e a5 c4 16 be 5c 11 4a bc 4e 1e 1d be
       0.21241416 -0.14723451 -0.01233324 -0.15343592
000360 2f c4 42 3d 35 90 cf ba 60 11 d6 3c 21 37 4a 3d
       0.047550377 -0.0015835824 0.026131332 0.04936898
000370 f2 f0 f3 b9 87 9e 1d 3e 34 22 56 3e a6 4e e6 bd
       -0.0004652809 0.15392505 0.20911485 -0.1124547
000380 1d 81 4d be 05 dd a2 bd b9 49 d5 3c b9 c1 c1 3c
       -0.20068784 -0.079523124 0.02603613 0.023651944
000390 ca 43 11 be eb 10 a3 bc f8 19 db 3c bf e7 3c be
       -0.14186016 -0.019905528 0.026745781 -0.18447779
0003a0 37 56 ad 3d 0e 30 ba 3d 76 a5 15 bd ad f5 b6 3d
       0.0846371 0.09091197 -0.03653475 0.08933578
0003b0 12 68 46 3e 8e ff f0 3d da 23 d3 bd 9e 40 c1 3d
       0.19375637 0.11767493 -0.103095725 0.09436153
0003c0 c4 f4 04 bc b8 f1 a6 bd 14 3c c0 bd cf 9c 1c 3e
       -0.008114997 -0.08151573 -0.09386459 0.15294193
0003d0 9e 3d 71 bd 63 0c 08 be b3 03 4c be 43 7b 29 3e
       -0.058896653 -0.13285975 -0.19923286 0.16550927
0003e0 93 ef b5 3d 8e ae 03 3e f8 da 19 3e 0a 92 30 be
       0.08883586 0.12859556 0.15024936 -0.1724321
0003f0 65 f1 c4 bc 0d fe 45 bd d7 fe 3c be da 50 a1 3d
       -0.024040887 -0.048337985 -0.18456589 0.07876749

nns.0.2.bias f4 [64]
000000 ec f5 9e b9 ff 28 25 b9 6f 9f a3 3b 28 a6 45 3b
       -0.00030319334 -0.00015750898 0.004993371 0.0030158851
000010 93 55 90 3a 13 9c cd ba f3 90 b8 3b 71 da ab 39
       0.0011011831 -0.0015686773 0.0056325137 0.00032778413
000020 6a ce 51 bb ba 28 83 ba 17 64 96 ba 63 1b 66 38
       -0.0032013902 -0.0010006644 -0.0011473921 5.486178e-05
000030 43 35 08 3a 13 03 56 ba 5d 46 77 bb fa fa 61 bb
       0.0005195925 -0.000816391 -0.0037731149 -0.003448187
000040 42 4e 26 3a 34 eb f3 39 52 bd 7d ba db 1b 02 ba
       0.0006344059 0.00046523812 -0.0009679395 -0.0004963257
000050 ca 51 e6 b9 e6 3a 75 ba 21 9b 46 bb 5e 83 7b 39
       -0.00043929956 -0.0009354785 -0.0030304866 0.00023986163
000060 34 f9 54 ba 3a aa 01 bb 75 9b 6f b9 f6 a7 66 38
       -0.00081242924 -0.00197853 -0.00022850728 5.49927e-05
000070 9b ed c8 bb 02 3d cb 3b 83 05 22 38 86 f9 1a b8
       -0.0061318404 0.006202341 3.8628943e-05 -3.6948848e-05
000080 87 48 40 ba c8 a0 97 b9 05 dc 43 bb c1 fb 27 bb
       -0.0007335026 -0.00028920756 -0.002988578 -0.0025632235
000090 d8 86 2d 39 ae ea 56 ba 22 c7 29 3b ac 1d 42 b7
       0.00016548799 -0.0008198422 0.0025906046 -1.157021e-05
0000a0 16 f6 ee ba 99 8e c9 b9 08 b5 e7 39 bf db e5 39
       -0.0018231298 -0.0003844395 0.00044194632 0.00043842007
0000b0 ce ff 20 ba e4 f1 e1 bb 84 51 a9 39 64 fd 1e 3a
       -0.00061416335 -0.0068952907 0.00032294926 0.000606498
0000c0 71 06 eb b8 c9 60 c8 39 ec db f2 b9 de ff 93 3b
       -0.00011206873 0.00038219083 -0.00046321691 0.0045165857
0000d0 bf b0 07 3a dc f3 2a 3a b1 e1 df 3a 67 ad 39 b9
       0.00051761785 0.0006521323 0.0017080811 -0.00017707572
0000e0 3e 65 9f bb 87 29 0f 3b 88 3b 01 b7 0d bc b1 b9
       -0.004864364 0.002184482 -7.70286e-06 -0.0003390018
0000f0 fa 55 ae 39 23 76 18 b8 cc 89 a1 b7 70 84 5d 3b
       0.00033251924 -3.6349647e-05 -1.9256862e-05 0.0033800863

nns.1.0.weight f4 [64, 64]
000000 70 eb 23 3e c7 a8 f1 3d 21 29 25 3e ac d0 b1 3d
       0.16007781 0.1179977 0.1612897 0.08682379
000010 e5 37 19 3e 37 83 f9 bd 96 0f 92 3d a1 86 42 3e
       0.14962728 -0.1218323 0.07131879 0.1899667
000020 76 7b 51 3e 06 c5 84 bc 5c 8b d6 bd 2b 6d 95 3d
       0.20457253 -0.01620723 -0.104757994 0.07296213
000030 cc 11 3a 3e 11 7a 08 3d de fa 5b be 70 5c 7a bd
       0.18170851 0.033319537 -0.21482417 -0.06112331
000040 89 4d e2 bd f2 86 ee 3d be 00 49 3e 84 57 e7 3a
       -0.11049945 0.116468325 0.1962919 0.0017649983
000050 1a 2a b6 3d 7e c5 a2 3d c2 39 06 be cc 19 03 3e
       0.08894749 0.07947825 -0.1310797 0.1280281
000060 50 28 12 be 87 66 87 3a cd ba 0e be 9b 29 33 3e
       -0.1427319 0.0010330238 -0.13938446 0.1749634
000070 aa 32 0d 3e f9 6e 01 bc b7 fb 0d 3d ce ce b5 3d
       0.13788858 -0.007899993 0.034663882 0.088773355
000080 c2 c5 65 3d 51 e6 23 be 7e ce 2a 3e 86 9b 00 be
       0.0560968 -0.16005827 0.16680333 -0.12559327
000090 05 c8 dc 3c 67 21 3f 3e 14 4b c0 3d a9 19 75 3d
       0.026950845 0.18665086 0.0938932 0.059838925
0000a0 06 8d 01 3e 89 56 16 3e eb 84 a3 3d 43 f7 20 3e
       0.12651452 0.14681448 0.079843365 0.15719323
0000b0 d0 87 14 be 74 b3 31 3d c0 f1 c6 3d ea 7c 9b 3d
       -0.14504933 0.04338403 0.09714079 0.07592185
0000c0 e3 92 22 3e 7f 44 cb bc 4c 1b 61 bd d0 79 1d be
       0.15876345 -0.024812935 -0.054957673 -0.15378499
0000d0 71 00 2c bd 9a 33 35 3e ee 0f 8d 3c 99 e7 bd 3c
       -0.04199261 0.17695466 0.01721951 0.023181723
0000e0 cf fa 6f 3b 28 ea fc bc c1 4e 4e bd 8f 16 ef bc
       0.0036618 -0.030873373 -0.050368074 -0.029185561
0000f0 89 3b 2e 3e 8d 49 46 be 57 bf e6 bc 0a 61 01 3e
       0.17014898 -0.19363995 -0.02816741 0.12634674
000100 c2 1c 30 be 3e 25 cb bd 1e 11 92 3d 7b f7 97 3c
       -0.1719847 -0.09919213 0.07132171 0.018550625
000110 11 7c cf 3d 94 59 99 3d 50 53 8b 3c cc fc 9a bd
       0.10131086 0.07487789 0.0170075 -0.075677484
000120 9c 6e 16 3c 0e ae e2 3d e7 6b 32 3e 95 d8 fb 3c
       0.009181645 0.110683545 0.17423974 0.030742923
000130 3e cf e9 3d d0 cb 8e 3d 61 6a fb 3d d2 9e ea 3d
       0.114164814 0.06972468 0.122761495 0.11456074
000140 32 fe 52 3e 4d a1 b5 3d 47 af 02 3c 64 eb 3b bc
       0.2060478 0.08868656 0.00797636 -0.011469696
000150 71 2d 47 3e 6d 24 0a be af bf 24 3e 2b 77 b9 3d
       0.19450928 -0.13490458 0.16088746 0.090559326
000160 b5 7b 1d 3e 15 d9 94 bd 22 e3 5a 3d 83 15 0e bd
       0.15379222 -0.072679676 0.053439267 -0.034688484
000170 91 e7 f9 bd 5a ba 20 be c3 79 8f 3d df 4e f3 3d
       -0.12202371 -0.15696087 0.07005646 0.11880278
000180 99 34 f5 bd 9e 2e 44 be 0f a8 c0 3d f3 61 b5 bd
       -0.11972923 -0.19158408 0.09407055 -0.08856573
000190 9a d0 60 3e 1e 2d f3 3d 14 a4 b4 bd a5 94 46 be
       0.21954575 0.1187384 -0.08820358 -0.19392641
0001a0 63 d4 23 be 9d 82 9f 3d 7a c8 95 bd 20 1d b2 3c
       -0.15998988 0.077885844 -0.073136285 0.021742404
0001b0 f1 d2 b2 3d e2 13 59 bd 46 40 8d 3d 2b 35 54 be
       0.0873164 -0.052997477 0.06897025 -0.20723407
0001c0 2c e6 2b 3c 3d df f6 bd 81 97 f7 3d dc 99 81 3d
       0.010491889 -0.12054298 0.12089444 0.063281745
0001d0 74 eb 6c bd 7d 89 cf 3d 17 3a be 3d 25 64 38 bb
       -0.057841733 0.10133646 0.092884235 -0.0028135863
0001e0 58 5d 34 bd f6 70 0d bd 82 f7 42 3e 3a c1 e0 3d
       -0.044034332 -0.034531556 0.19039729 0.10974355
0001f0 32 83 19 3d f9 58 05 3d 75 2b 92 3c 92 c5 64 3c
       0.037478633 0.032555554 0.017842988 0.01396312
000200 e3 0c c8 3d fb f3 1f 3d 54 da cd 3d 78 ce 4f 3d
       0.09768083 0.039051037 0.100514084 0.050734013
000210 84 23 fd 3d 2e 2d 10 bc ae 55 85 3d 2b d2 5f bd
       0.1236029 -0.008799834 0.06510483 -0.05464379
000220 3d 24 30 bd 6f f5 4e 3e 65 5d 1d be 2a f1 fb 3d
       -0.04300331 0.20210813 -0.15367658 0.12301858
000230 d1 5e 4b 3e de 0d 0d 3d 1f 44 29 3e e1 e2 2c be
       0.19860388 0.034437053 0.16529892 -0.16883422
000240 f7 d3 73 3d 58 11 22 be b7 ec 55 be f6 b8 20 3d
       0.059528317 -0.15826929 -0.20891081 0.039238892
000250 3a 44 cf bd e5 9f 06 3e 32 5d 99 3d ab a1 a0 bc
       -0.10120435 0.13146932 0.07488479 -0.01960834
000260 49 a2 2f be 8b 4d 80 bd ce 60 89 3d 72 15 ab 3c
       -0.1715175 -0.0626479 0.06707917 0.02088425
000270 73 0e bf bd 32 47 2a 3e 37 b0 02 be 7e 61 82 bb
       -0.09328928 0.16628721 -0.12762533 -0.003978907
000280 3f 0d 03 3e a2 d7 c0 bd d0 19 ad bc 6b 4b fc bd
       0.12798022 -0.09416129 -0.021130472 -0.12319072
000290 2b 2f 5a 3e 11 0f d0 bd 26 3d 90 bd 67 97 60 3d
       0.21307056 -0.10159124 -0.07042913 0.05483189
0002a0 05 10 4d 3e 52 8b 86 3d fa 93 e2 bc 56 a8 48 be
       0.20025642 0.06569542 -0.027658451 -0.19595465
0002b0 7c 82 7f bd 9c 98 9b bc e1 1e b7 bd b9 71 2a bd
       -0.0623803 -0.018993668 -0.089414366 -0.04161236
0002c0 4e 2b c2 bc ea 92 3c 3e f3 62 0f bd 89 c9 0a 3e
       -0.02370229 0.18415418 -0.035006475 0.13553442
0002d0 ba 0c 3d 3e 22 c7 a1 3d f1 ee fd bc 5a a7 33 bd
       0.18461886 0.0789931 -0.030997725 -0.04386077
0002e0 a9 f1 ae 3d 6e 5d 46 3e 7e 4b 26 3e f8 42 33 be
       0.08542187 0.19371578 0.16239735 -0.17506015
0002f0 a6 ed ce 3d dd 6a 38 3c d3 d0 4b 3e e1 f0 d6 3d
       0.101039216 0.011255947 0.19903879 0.10495163
000300 5f ed 58 be 70 31 be 3a cb 1e 55 be 0a f3 44 be
       -0.211843 0.0014510583 -0.20812528 -0.19233337
000310 c1 49 98 3d 7a 6a 89 bc 51 fa 46 be cb 85 a7 3d
       0.074359424 -0.016774405 -0.19431426 0.08179816
000320 1b ab fb bc 67 6d c4 3d 55 e1 75 be ea b6 f9 bd
       -0.030721238 0.09591179 -0.24011739 -0.12193091
000330 92 17 81 3d ff 67 12 3e 44 d8 0a 3e 47 7d 26 bd
       0.06303324 0.14297484 0.13559061 -0.040646818
000340 89 d9 1d 3e e5 fb 26 be ac 96 19 3e 91 4c 49 be
       0.15415014 -0.16307028 0.14998883 -0.19658114
000350 a2 b0 42 3d 97 21 25 be 17 04 3f 3e 1d 35 b2 bd
       0.04753173 -0.16126095 0.18653904 -0.08701537
000360 3f ce 16 3d 3a 01 67 3d 2d 3d db bd d4 3c 50 3e
       0.036817785 0.056397654 -0.10705028 0.20335704
000370 55 ea 1a 3e 62 42 a6 3c 68 03 3e 3e 50 6b 82 bd
       0.15128453 0.020295326 0.18555987 -0.063681245
000380 f8 7e 97 bd d7 e8 b8 bd dc 0f 6d 3d 74 bf 16 bd
       -0.07397264 -0.09028786 0.057876453 -0.036803678
000390 ca cf 97 bd 78 6e b9 3d 8f 5f a5 bd 07 1d e4 3d
       -0.074126795 0.09054273 -0.08074867 0.11138349
0003a0 80 9b b5 39 84 70 f5 3d 73 05 40 be 91 09 04 3e
       0.00034638867 0.11984351 -0.18752079 0.12894274
0003b0 15 e0 83 3d 1f 02 01 3e 36 0e 59 bd c0 60 7e bc
       0.06439225 0.12598465 -0.05299207 -0.015525997
0003c0 5d 7b 14 3e e6 b8 07 bd 40 84 0e 3e b0 b3 8e 3d
       0.14500184 -0.033135317 0.13917637 0.069678664
0003d0 62 1f 60 3c 4b cd 18 3e f8 16 14 3e 3a 94 2f be
       0.013679357 0.14922063 0.14461887 -0.17146388
0003e0 0b f4 10 3e fa ea fc bd 8e 4c 2d be 07 f1 c5 3d
       0.14155595 -0.12349506 -0.16923735 0.09665113
0003f0 b3 4d bc bd ba 72 2b 3d 59 3c 15 bd a0 b8 9e 3d
       -0.091945074 0.04185746 -0.036434505 0.07750058

nns.1.0.bias f4 [64]
000000 a9 f8 99 bc 60 3b 17 bd 66 08 fe 3c 53 e6 a2 3c
       -0.018795328 -0.03692186 0.031009864 0.019885218
000010 1f 73 27 bc 94 3f 9c bc df c1 0d 3c e1 a5 e7 ba
       -0.010220318 -0.019073285 0.0086521795 -0.0017673337
000020 2f f2 8d 3c 57 dd 29 3d 93 2c 0f b9 39 52 36 bd
       0.017327396 0.04147085 -0.00013654148 -0.044512007
000030 89 cb 96 bd 8b 23 46 3d 08 07 ee bc 76 dd c2 bc
       -0.0736304 0.04837374 -0.029056087 -0.023787241
000040 82 dc b4 bc 59 74 5d bd 46 0b b2 3c 0b 48 04 3d
       -0.022077803 -0.054066036 0.021733891 0.032295268
000050 42 c0 2f 3d dd 1a 69 3d a3 ea 8c 3d 29 0a 70 bc
       0.04290796 0.056910384 0.06880691 -0.01465086
000060 81 37 63 3c 33 ff 1f bd 4e 11 e5 bc a5 fc 29 3c
       0.013868214 -0.039061736 -0.027962353 0.010375177
000070 56 43 36 3d f8 9f ba bd cf 36 a8 bd 95 76 7e bd
       0.04449781 -0.09112543 -0.08213579 -0.062124807
000080 ba 50 05 bd bf a4 10 bd d6 6a 3b bc a6 48 6a bc
       -0.03254769 -0.035313364 -0.011439046 -0.014299547
000090 1a f2 05 bd 5b 66 62 bc cb 0a bc bb 40 45 b7 bd
       -0.03270159 -0.013818349 -0.0057385913 -0.08948755
0000a0 91 3c 38 bc 5e 55 3e bd 56 fd db 3c 5d ed 08 bd
       -0.011244909 -0.04646813 0.026854198 -0.033429492
0000b0 a4 c0 66 3c 8c 2e cc 39 0c 7a 85 3d 6a c5 63 3a
       0.014084015 0.00038944592 0.06517419 0.000868878
0000c0 88 21 0e 3c 14 b9 b0 3c 95 ed 35 3d 30 16 13 bd
       0.008674987 0.021572627 0.04441603 -0.03590983
0000d0 71 ab 99 3b 2e d4 fe 3c 50 06 41 bd da cf d4 ba
       0.004689627 0.031107035 -0.04712516 -0.0016236261
0000e0 3f 71 f5 bc 2e f1 46 3d 9b 83 c4 3c 92 d1 a7 bc
       -0.029961227 0.04856985 0.023988536 -0.020485673
0000f0 41 6c 16 bd 90 98 37 bd 18 73 9a bb b1 1c 7e 3d
       -0.036724333 -0.04482323 -0.0047134273 0.06203908

nns.1.2.weight f4 [64, 64]
000000 9f ff ef bb ae d6 af bd 90 d9 3a be c3 8c 46 bd
       -0.0073241736 -0.08585869 -0.18247056 -0.048474085
000010 0e fd e5 bd e8 55 10 3e 9b ea e6 3c 7b b7 39 3e
       -0.11229907 0.1409527 0.02818804 0.18136398
000020 6a c0 c3 3c b9 07 52 3d 94 7f 83 3c 6b 8a a2 3d
       0.023895461 0.051276896 0.016052045 0.079365574
000030 c7 6a 16 3e de df d7 bd 3b d4 04 be 6e 09 ff bc
       0.1468917 -0.10540746 -0.12971584 -0.031132426
000040 c8 02 06 bd 10 56 b1 bd 52 39 9d 3d 32 88 46 bd
       -0.032717496 -0.08658993 0.076769486 -0.04846973
000050 c1 c6 a1 3c 0b 6b 00 3e 18 b5 4b 3e a5 ac de bd
       0.019748094 0.12540834 0.198933 -0.10872773
000060 72 81 bd 3b 89 13 61 3d 7d 50 b5 3d f1 7d 06 3e
       0.0057832533 0.05495027 0.088532425 0.1313398
000070 a0 bd 3c be 65 59 0f 3d da 88 6a bd d6 30 16 3d
       -0.18431711 0.034997363 -0.057259418 0.036667667
000080 ae 36 c4 3d ba 41 7e 3d 4c 27 fb bc 37 30 06 bd
       0.09580742 0.0620744 -0.030658387 -0.032760825
000090 1f db c7 bd 96 ce ae bd 2f 08 a5 bc 3d e9 0b 3b
       -0.09758591 -0.08535497 -0.020145504 0.0021348738
0000a0 c5 49 97 3d 0d 99 58 3e 15 a0 d1 3d 56 3f 6f bd
       0.07387117 0.21152134 0.10235611 -0.05841001
0000b0 da cf 8d bd 92 1b 3d bd 3c 3a 17 be 0f e3 3e bd
       -0.0692441 -0.04616887 -0.14768308 -0.04660326
0000c0 f0 ef e2 3c 06 24 f0 bc c6 ba 89 bd 72 bf 3d bc
       0.027702302 -0.029314052 -0.06725077 -0.011581289
0000d0 01 56 d5 bd e2 23 82 bb 15 16 b7 3d a9 34 66 3d
       -0.104167946 -0.0039715627 0.08939759 0.056202564
0000e0 95 e4 ec 3c c9 4c 13 3e 2a 65 8d bd 22 c4 89 bd
       0.02891759 0.1438476 -0.06904061 -0.067268625
0000f0 8c 57 25 3e 00 0e 55 3d ea 11 1c 3e b1 e0 10 be
       0.16146678 0.052015305 0.15241209 -0.14148213
000100 27 eb 01 be f4 08 1f be be 29 81 3c 08 a2 18 bd
       -0.1268736 -0.15530759 0.015766975 -0.0372639
000110 48 bb 42 be c4 54 32 be ed 7f a9 bb 50 29 45 3d
       -0.19016755 -0.17415148 -0.0051727206 0.0481351
000120 33 95 59 3d 6e 30 f8 3b 5b 97 83 bc 9b cb 88 bd
       0.053120803 0.0075741326 -0.016063383 -0.0667946
000130 1c 71 99 bd 1e 4d 34 be b4 a9 b4 3d 61 04 81 bc
       -0.07492277 -0.17607543 0.08821431 -0.015749158
000140 61 72 d1 bc 13 cc ab 3d 2f 93 2b 3e eb f9 5c 3e
       -0.025567235 0.083885334 0.16755365 0.21579711
000150 7c 66 68 3d fd c0 1d be 64 d8 78 bd b3 cb 06 be
       0.05673836 -0.1540565 -0.06075324 -0.13163643
000160 95 ea 9a bd 5e 05 40 3e 4d 13 14 bd 9c a8 86 3d
       -0.07564274 0.18752047 -0.03615122 0.065751284
000170 27 43 ec 3c 13 54 85 3c 35 64 08 bd 30 ff 04 3d
       0.028840614 0.016275441 -0.03329869 0.03246993
000180 06 c8 b6 bb 8d 80 ba 3d 96 86 7f 3d d5 22 fe bd
       -0.005578044 0.0910655 0.06238421 -0.124089874
000190 b7 60 06 be 76 5b 29 be e6 2b 2f be bf e5 ef bd
       -0.13122831 -0.16538796 -0.1710659 -0.117137425
0001a0 3e 11 40 bd 4b 4d cd bd b8 f1 a4 bd d9 b8 15 be
       -0.046891443 -0.10024508 -0.08053917 -0.14621295
0001b0 ef 5f 31 bd 6a 62 92 3d 12 57 cb bd 23 fd 08 3d
       -0.04330438 0.07147677 -0.09928717 0.033444535
0001c0 ef 84 8d 3d de a4 00 bd cc cd b6 3c 9a d3 01 bd
       0.06910121 -0.03140723 0.022314928 -0.03169594
0001d0 a1 42 41 be 67 2f 01 be 4c 66 c2 bd ef 72 16 be
       -0.18873073 -0.12615739 -0.09492168 -0.14692281
0001e0 3f 5b a1 bd d9 f3 1d be b5 c0 68 3d d1 0e fe 3d
       -0.07878732 -0.15425052 0.056824405 0.1240517
0001f0 6c a6 1b be 34 b0 0a be c1 27 31 be 46 77 80 bb
       -0.15200204 -0.13543779 -0.17300321 -0.0039204685
000200 c5 f9 b2 3d 0e a8 25 bd a3 cf 35 3e 82 48 31 3e
       0.08739046 -0.040443473 0.17754988 0.17312816
000210 17 2c 3e bd de 03 d5 ba da 21 2a be 3d 94 b5 3c
       -0.046428766 -0.0016251763 -0.16614476 0.022165412
000220 a4 11 28 be b0 21 14 3e 48 34 c3 bd 70 3b 2a 3d
       -0.1641298 0.14465976 -0.09531456 0.04156059
000230 bf 52 30 be eb a9 4c 3d 94 67 ba bd 06 83 3b 3d
       -0.17219065 0.049966734 -0.09101787 0.04577925
000240 ff 79 28 be cf cd d0 bd e4 c7 95 bd d0 be 0b 3d
       -0.16452788 -0.10195505 -0.07313517 0.03411752
000250 a6 54 43 be d7 5d ab 3d 15 7a 3c bd b1 2c 0d 3e
       -0.1907526 0.08367508 -0.046014864 0.1378658
000260 54 80 44 bc b6 ce 40 be 81 7c 9f bd 43 73 03 3d
       -0.011993486 -0.18828854 -0.07787419 0.032092344
000270 b7 0f 89 bd c4 69 07 be 5c 32 27 be 4d fd 20 3e
       -0.066924505 -0.1322394 -0.16327804 0.15721627
000280 99 cc 59 bd 3b a5 86 3c 92 ea 91 bd 8d 7b be bc
       -0.053173635 0.01643621 -0.07124819 -0.023252273
000290 29 96 57 bd 72 eb 03 be 33 52 4d 3e 59 c1 48 3d
       -0.05263344 -0.12882784 0.20050888 0.049012516
0002a0 89 58 01 3e c9 17 16 3e 93 ca c7 3c 09 84 42 3d
       0.1263143 0.14657511 0.024388587 0.0474892
0002b0 e4 2b 76 bc 8d 56 60 bd 49 20 fb 3d 69 a1 f9 3d
       -0.015025113 -0.05477004 0.12262017 0.1218899
0002c0 e9 4e 8b bb 1f 32 31 3e 3f 4a f1 3c 90 1f 53 be
       -0.00425135 0.17304276 0.029454349 -0.20617509
0002d0 cc 0c 51 3e 77 f1 ac bd c8 67 29 bd 71 7c 05 3e
       0.20415038 -0.08444493 -0.04135874 0.13035752
0002e0 cd 7c e3 3d 7d de 21 3d 76 9e e7 bd b4 17 e4 bd
       0.11107788 0.039518822 -0.11309521 -0.111373335
0002f0 d7 1f 1c 3d 20 a3 d3 ba 1b d1 28 be 0c 04 c8 3d
       0.038116302 -0.0016146637 -0.16486017 0.09766397
000300 28 0b 09 3d 7f 60 f8 bd 4b 3c 88 bd 4d 04 7a 3d
       0.033457905 -0.1212778 -0.06652125 0.061039258
000310 38 0b 30 3e 88 3b 32 be 5f 93 72 3d 98 39 bb bd
       0.1719178 -0.17405522 0.059222575 -0.091418445
000320 1e 78 dd 3d ff c0 48 3c 7a 98 1a be 43 e7 24 3e
       0.10813926 0.012253045 -0.15097228 0.16103844
000330 d0 20 4e 3d 47 13 6d bd d8 50 e8 3d 82 a9 43 bd
       0.05032426 -0.057879712 0.11343545 -0.047769077
000340 18 c1 ca bd e2 10 25 3c 2c 96 4b be 6e 63 c0 bc
       -0.09900111 0.010074826 -0.19881505 -0.023484912
000350 26 cd 11 be 84 4f c2 3d a0 51 92 bd ab fd 17 3e
       -0.14238414 0.09487823 -0.07144475 0.1484286
000360 6f eb 7b bc a0 c8 c9 bd f2 6c 3f 3c a4 26 0c bd
       -0.015375956 -0.09852719 0.011683689 -0.034216538
000370 fb a2 28 3e f7 53 04 3e c6 03 28 3e b8 a4 43 be
       0.16468422 0.12922655 0.1640769 -0.19105804
000380 a6 88 1a 3e 5d e2 2b bd f5 8e 65 bc 9b 7f c9 bd
       0.1509119 -0.041963924 -0.014011134 -0.09838792
000390 dc 72 3b bd 3e e2 85 3c a8 51 32 3d 9d fe 82 bd
       -0.045763835 0.016343232 0.043534905 -0.0639622
0003a0 81 59 28 3d 11 fa a0 3d 28 fa 54 bd 2e 52 de 3c
       0.041100983 0.078601964 -0.05199638 0.027138796
0003b0 62 d9 f2 3d 22 c6 30 3e 16 76 c5 bc cb 30 11 3d
       0.11857869 0.17263082 -0.02410416 0.035446923
0003c0 a7 dd d8 3d 01 16 08 3d 67 5a 01 be 3a 2e be bd
       0.10589152 0.03322411 -0.12632142 -0.09286161
0003d0 3d de 97 3d 31 ac 3a be de 3f e7 3c 08 9f 1d 3e
       0.074154355 -0.18229748 0.028228696 0.15392697
0003e0 c6 4c 15 3e 18 76 44 3e 8f d0 2d 3e 6f d3 1f be
       0.14580068 0.19185674 0.1697409 -0.15608
0003f0 55 fc 51 bd dc c8 f8 3d 09 75 1a 3d d9 c6 20 3d
       -0.051266033 0.12147686 0.03770927 0.039252136

nns.1.2.bias f4 [64]
000000 ec 50 1c b9 9b 8a 0c 3a 3b 33 57 39 c5 2f 1f 3a
       -0.00014907465 0.000536123 0.00020523083 0.0006072487
000010 12 ce 8e ba 13 d4 88 39 6e da 23 bb ca 77 14 3b
       -0.0010895154 0.0002609795 -0.002500202 0.0022654408
000020 9e 94 c6 3b 69 61 d0 3b 21 8d ec b8 7e d9 d2 ba
       0.006060197 0.0063592684 -0.00011279644 -0.0016086546
000030 23 39 9a ba 96 2c f1 3a 83 d1 77 bb ca cf 6c ba
       -0.0011766296 0.0018400128 -0.0037814088 -0.00090336485
000040 4e ab 62 3a 58 a7 20 ba 8b ea 92 ba 0e 21 a3 ba
       0.0008646742 -0.0006128452 -0.0011208815 -0.0012445764
000050 20 0a 0a ba e6 43 05 3b d9 b3 da b7 f1 41 90 3a
       -0.0005265791 0.002033466 -2.6071373e-05 0.001100598
000060 91 6c 39 3a 52 16 db 3a 5f 95 1c bb 6e 31 75 3b
       0.00070733676 0.0016715026 -0.0023892743 0.0037413496
000070 8f 77 b2 ba f1 c4 d2 37 4e e7 34 bc 84 4c 8e 3a
       -0.0013615954 2.5125659e-05 -0.011041475 0.0010856544
000080 b7 87 a0 b8 00 e1 87 38 0d af 5c bb c0 e5 d9 b7
       -7.6546734e-05 6.479211e-05 -0.0033673674 -2.5975402e-05
000090 b0 d2 b4 bb 10 b6 6f b9 70 e1 d4 3a 25 04 a9 b9
       -0.00551828 -0.0002286064 0.0016241502 -0.0003223728
0000a0 c1 06 54 3b 55 64 41 bb c2 52 8c b9 d1 80 8d b9
       0.0032352658 -0.0029509265 -0.0002676454 -0.0002698959
0000b0 9c 77 5b 39 4e 97 17 3b e0 e1 db b8 71 96 3c 3a
       0.00020930025 0.0023130956 -0.00010484806 0.00071940484
0000c0 f9 a6 b9 ba 87 ef ba 3a 7a 9b 55 3b 1e 4e 73 ba
       -0.0014164142 0.0014262059 0.0032593892 -0.0009281355
0000d0 d0 aa 1b ba d1 70 2e bc df 4c 03 3a 10 80 c3 ba
       -0.0005938234 -0.010647015 0.0005008708 -0.0014915485
0000e0 60 cc be 37 6c 8f ff 38 3e d7 62 ba 2d d3 e7 3a
       2.2744935e-05 0.00012186062 -0.00086532894 0.0017686837
0000f0 12 7e 50 bb 3e e1 3f 3a a9 ae cf b8 86 d9 15 ba
       -0.0031813425 0.00073196355 -9.903062e-05 -0.00057163124
